testing/trained_model_12_3_5_2.pth (torch, 98977 bytes, 51 tensors)

inp_embedding.weight f4 [115, 12]
0	0x3b743a5c	0.003726623
1	0xbe817731	-0.25286248
2	0xbe0e57c8	-0.13900673
3	0x3d8a30f0	0.06747615
4	0x3e0953d3	0.13410883
5	0x3d351d61	0.04421747
6	0xbd30da3d	-0.04317688
7	0xbbc717f0	-0.0060758516
8	0xbd938e46	-0.07204871
9	0xbd9784ef	-0.07398402
10	0x3e1330ff	0.1437416
11	0xbd126a3e	-0.03574585
12	0x3e0aec3a	0.13566676
13	0xbed1e4de	-0.40994924
14	0xbe43c1d5	-0.1911691
15	0x3d941bbd	0.07231853
16	0x3ecbe1bc	0.3982066
17	0x3e10f785	0.14156921
18	0x3db210af	0.086945884
19	0x3cf07bca	0.029355902
20	0xbdf18470	-0.117928386
21	0x3e211b4e	0.15733072
22	0x3ec9896b	0.39362654
23	0xbda34fec	-0.07974228
24	0x3dbfdeef	0.09368693
25	0xbe5430c4	-0.20721728
26	0xbe918652	-0.2842279
27	0x3e635777	0.22201334
28	0x3e03b5bb	0.12862293
29	0x3d6fb49c	0.058521852
30	0xbe008c06	-0.12553415
31	0xbe73666f	-0.23769544
32	0x3e22b842	0.15890601
33	0x3d79be27	0.06097236
34	0x3eb1840b	0.34671053
35	0x3d2e4de4	0.04255475
36	0x3d9fefcf	0.07809412
37	0xbd8e1b4f	-0.069388025
38	0xbdf872ac	-0.12131247
39	0x3dbfabfd	0.09358976
40	0x3e2693b0	0.16267276
41	0x3e44a5a2	0.19203809
42	0x3bd9e906	0.006650093
43	0x3dd84f24	0.1056197
44	0xbe160683	-0.14650922
45	0xbda2db63	-0.07952001
46	0x3e13fb4d	0.14451332
47	0xbd128b6f	-0.035777505
48	0x3e91b198	0.28455806
49	0x3e8c68b5	0.27423635
50	0xbe084287	-0.13306628
51	0xbeb23df7	-0.348129
52	0xbd9ee997	-0.077593975
53	0xbdbf1003	-0.09329226
54	0x3ea92a60	0.33040142
55	0x3e6c3c92	0.2306998
56	0x3e2cb696	0.16866526
57	0xbdfd7337	-0.12375491
58	0x3e891460	0.26773357
59	0x3e4663db	0.1937403
60	0x3e62c3fa	0.22145072
61	0xbe112520	-0.14174318
62	0x3d9e84c9	0.077401705
63	0x3ddafecc	0.1069313
64	0xbd81d300	-0.06339073
65	0x3df9e2f9	0.12201495
66	0xbeadeddb	-0.33970532
67	0x3e814746	0.2524969
68	0xbe60ddb1	-0.21959569
69	0xbe04059b	-0.12892763
70	0x3e1e6092	0.15466526
71	0xbcc58755	-0.024112383
72	0x3e0eb166	0.1393486
73	0x3e046226	0.12928066
74	0xbd7f2e31	-0.06229991
75	0x3de582c3	0.112065814
76	0xbd147ccc	-0.036251828
77	0x3d88894b	0.066668116
78	0xbecef041	-0.40417674
79	0xbe0c9f60	-0.13732672
80	0x3d1f3501	0.038868908
81	0xbdb13762	-0.086531416
82	0x3e608e60	0.21929312
83	0xbd0d1d49	-0.034451757
84	0xbc59ace2	-0.013285847
85	0xbcfda77e	-0.030963656
86	0xbee33b38	-0.44381118
87	0x3e19f53f	0.1503496
88	0x3da6d49d	0.081460215
89	0x3c98906e	0.018623557
90	0xbe8d47d4	-0.27593863
91	0x3ef60f47	0.4805853
92	0x3d86188c	0.06547651
93	0xbe919212	-0.28431755
94	0x3e91ffb6	0.28515404
95	0x3e05b3fd	0.13056941
96	0xbda26556	-0.079294845
97	0xbe1c051b	-0.15236323
98	0xbe11c0f3	-0.1423376
99	0x3d2bae29	0.04191414
100	0x3dd2b9f5	0.10289375
101	0xbbffed59	-0.0078102765
102	0x3d2ecdb7	0.042676654
103	0x3d98c931	0.07460249
104	0xbe0b7023	-0.13616996
105	0xbe3ea242	-0.18616584
106	0x3e15c649	0.14626421
107	0xbe3a09d8	-0.18167818
108	0x3e2f34d3	0.17109995
109	0xbd07c6f8	-0.033148736
110	0xbea8667e	-0.32890695
111	0x3dcd8c22	0.10036494
112	0x3f196192	0.59914505
113	0x3ee86fc3	0.45397767
114	0xbecc1b79	-0.3986471
115	0xbe6c6d29	-0.23088516
116	0x3eff441e	0.49856657
117	0xbf0daf48	-0.5534558
118	0x3f29a835	0.6627229
119	0x3dab0382	0.083502784
120	0x3e8ecc9b	0.27890477
121	0xbedee4f1	-0.43534043
122	0xbe5d1a6e	-0.21592113
123	0xbbba91ce	-0.005693651
124	0x3ea03c94	0.31296217
125	0x3f13326e	0.57498825
126	0xbe752ec7	-0.23943625
127	0xbdaca1c0	-0.08429289
128	0xbe75d8b9	-0.24008454
129	0xbcbd07f7	-0.023075087
130	0x3e4a82c2	0.19776443
131	0x3d2a49fb	0.04157446
132	0xbd9ae574	-0.07563296
133	0x3dedc911	0.11610616
134	0xbe478dc0	-0.19487667
135	0xbeb8c938	-0.36091018
136	0x3e9728b5	0.29523245
137	0x3d652987	0.055947807
138	0x3cbb7254	0.022881664
139	0x3e543105	0.20721824
140	0x3b93ea84	0.0045140404
141	0xbe072943	-0.13199334
142	0x3e83da0a	0.25752288
143	0x3ddb197b	0.106982194
144	0x3eb1d42e	0.34732193
145	0xbe1c182a	-0.15243593
146	0x3dd60e2f	0.10451924
147	0xb9a08f98	-0.00030624564
148	0x3e2301bd	0.15918632
149	0x3e2eae22	0.17058614
150	0xbe513695	-0.20430978
151	0xbbbd51f1	-0.0057775904
152	0x3d8e29a5	0.06941537
153	0xbe72b1c1	-0.2370062
154	0xbe2e64fe	-0.17030713
155	0x3e18ea79	0.14933194
156	0x3ef9a3bc	0.48757732
157	0x3d2ef1fb	0.04271124
158	0x3d211265	0.039324183
159	0x3e11f37a	0.14253035
160	0xbe75b4e5	-0.23994787
161	0x3e1ee357	0.15516411
162	0xbe5818c1	-0.21103193
163	0x3ddc7ead	0.10766349
164	0x3e10029f	0.140635
165	0xbeb4391f	-0.3519983
166	0x3d8075a4	0.06272438
167	0x3de6458b	0.11243733
168	0xbf0e2611	-0.55526835
169	0x3e841864	0.2579986
170	0xbf1dcbdc	-0.6163919
171	0xbe535c5f	-0.20640706
172	0xbe0436b6	-0.12911496
173	0xbed63b37	-0.41842052
174	0x3e601c6c	0.21885842
175	0x3ecc7535	0.39933172
176	0x3e443285	0.19159897
177	0x3e7db13d	0.24774642
178	0xbea7ffb2	-0.32812268
179	0x3eb3fbdf	0.351531
180	0xbe877386	-0.26455325
181	0x3ee492a3	0.44643125
182	0xbe32da21	-0.17466022
183	0xbdd059b0	-0.101733565
184	0xbe9d1f15	-0.30687776
185	0xbeb95e15	-0.3620459
186	0x3ba987e1	0.0051736687
187	0x3e9b703d	0.3035907
188	0xbd1e5d85	-0.038663406
189	0x3da4f717	0.08054941
190	0xbe7b0d87	-0.24516879
191	0x3e1f1cf5	0.1553839
192	0xbe1e1f12	-0.1544154
193	0x3e6a7b59	0.22898616
194	0xbeeeee38	-0.4666612
195	0xbea92acf	-0.33040473
196	0xbeab50f6	-0.33460206
197	0xbe3cca25	-0.18436487
198	0x3ebe9d69	0.3722947
199	0x3e684d0d	0.22685643
200	0xbe25004a	-0.16113392
201	0x3de0d28f	0.10977661
202	0xba9df45b	-0.0012050973
203	0x3e953cda	0.2914799
204	0xbd134d80	-0.03596258
205	0x3ec0e835	0.3767716
206	0xbd742478	-0.05960509
207	0xbe4b6742	-0.19863608
208	0x3da22d74	0.07918826
209	0xbd174214	-0.03692825
210	0xbd9bd241	-0.07608462
211	0x3ca437c9	0.020046132
212	0x3e03d137	0.12872778
213	0xbe0a5d6c	-0.135122
214	0x3c2ec2cd	0.010666561
215	0x3e6ed932	0.23325041
216	0xbeea3adb	-0.45748028
217	0x3e352a75	0.17691977
218	0x3e888c7d	0.26669684
219	0xbecfbd0e	-0.40573925
220	0x3ce29b08	0.027661815
221	0x3d5d0b74	0.053966
222	0xbd94a61a	-0.07258244
223	0xbee0f829	-0.4393933
224	0x3cf6171f	0.030040322
225	0x3f0ae793	0.54259604
226	0xbecf1db9	-0.40452364
227	0x3eb769f6	0.3582303
228	0x3d9a2959	0.07527418
229	0x3d30ac50	0.04313308
230	0x3cfe751f	0.031061707
231	0xbebeab1a	-0.37239915
232	0x3e4211e5	0.18952139
233	0x3d828eec	0.063749164
234	0x3de153e6	0.110023305
235	0xbe96a223	-0.29420575
236	0x3e0666a3	0.1312509
237	0xbd849ab4	-0.0647482
238	0x3de89b0e	0.11357699
239	0x3d29e1ce	0.04147511
240	0x3f1045c6	0.56356466
241	0x3ed5770d	0.4169239
242	0xbd2c89ce	-0.04212361
243	0xbe14f5ad	-0.14546843
244	0x3e5181e8	0.20459712
245	0x3f39d90c	0.7259681
246	0x3de587c5	0.112075366
247	0x3d21aa13	0.039468836
248	0x3d8acf84	0.06777862
249	0xbd220b01	-0.039561275
250	0xbdeb6d85	-0.114954986
251	0xbe78b91e	-0.24289367
252	0x3e25795e	0.16159579
253	0x3ec6dd38	0.38840652
254	0x3d293137	0.0413067
255	0x3db13edf	0.0865457

attention_blocks.0.attention_blocks.0.layer_norm.weight f4 [12]
0	0x3fad7f78	1.3554525
1	0x3fc1e541	1.5148088
2	0x3fd94f4c	1.6977324
3	0x3faf81e2	1.3711512
4	0x3fb5dd1d	1.4208103
5	0x3fc6312b	1.5483755
6	0x3f98b28d	1.1929489
7	0x3fb3685b	1.4016222
8	0x3faeb6eb	1.3649572
9	0x3fb7a555	1.434733
10	0x3fb2abf0	1.3958721
11	0x3f9c9f5b	1.2236131

attention_blocks.0.attention_blocks.0.layer_norm.bias f4 [12]
0	0x3cc7acf9	0.024374472
1	0x3e217b92	0.15769795
2	0xbd7e14a4	-0.062031403
3	0xbe67a9cb	-0.22623365
4	0x3d2f1e25	0.042753357
5	0x3db69bdf	0.08916449
6	0xbd8cc7d1	-0.068740495
7	0x3e15108a	0.1455709
8	0x3e8212f7	0.25405094
9	0x3c7ccce4	0.015429709
10	0xbeaf1459	-0.34195212
11	0xbc3990cd	-0.011326027

attention_blocks.0.attention_blocks.0.W_k.weight f4 [4, 12]
0	0x3ea583a4	0.32326996
1	0xbe35da6d	-0.17759104
2	0xbe55b7be	-0.20870873
3	0xbee5a5d4	-0.4485308
4	0x3d744fb7	0.059646334
5	0xbe3e5b4e	-0.18589517
6	0x3e6d9623	0.23201804
7	0x3e9b0f7d	0.30285254
8	0x3f4e9247	0.8069195
9	0xbe859d77	-0.260967
10	0x3d2ed2e1	0.04268158
11	0xbe8a4322	-0.27004343
12	0x3ea1d391	0.31606725
13	0x3f06609e	0.52491176
14	0xbdadd258	-0.084873855
15	0xbea5be95	-0.32371965
16	0x3e966e62	0.2938109
17	0x3f2b5e23	0.66940516
18	0xbd5d33b9	-0.054004405
19	0xbe37f446	-0.17964277
20	0x3e86b80f	0.263123
21	0xbd97e6ee	-0.07417093
22	0xbe296882	-0.16543773
23	0xbe4970d0	-0.19671941
24	0xbd9d955f	-0.07694506
25	0x3e7c68e0	0.24649382
26	0xbe8c91d9	-0.27455023
27	0xbf3bbdbc	-0.73336387
28	0x3f2fd1ba	0.6867939
29	0x3f127d3f	0.5722236
30	0xbf18bc55	-0.5966237
31	0x3e21af98	0.1578964
32	0x3db9cf33	0.09072723
33	0xbe499ae3	-0.19687991
34	0x3b8bee02	0.004270316
35	0x3c93362f	0.017970173
36	0x3ee17c27	0.44040033
37	0x3d63fcbb	0.055660944
38	0xbea2dfdc	-0.31811416
39	0x3e504a14	0.20340759
40	0x3f0ed28b	0.55790013
41	0xbd9cf4b3	-0.0766386
42	0x3b0c4304	0.002140225
43	0xbea75fd7	-0.32690307
44	0x3d4aa3aa	0.04947249
45	0xbea7ec11	-0.32797292
46	0x3e841abf	0.25801656
47	0xbefa0556	-0.48832196

attention_blocks.0.attention_blocks.0.W_q.weight f4 [4, 12]
0	0xbeaee8de	-0.3416204
1	0xbf0f8415	-0.56060916
2	0x3eb29bf6	0.34884614
3	0x3ddedf8d	0.10882483
4	0x3ec0efcc	0.3768295
5	0xbe6019f7	-0.21884905
6	0x3e03a086	0.12854204
7	0xbe805a98	-0.25069118
8	0xbe103fa3	-0.14086775
9	0x3f156f03	0.58372515
10	0x3eba882e	0.36432022
11	0xbe6f7ea2	-0.2338815
12	0x3c2e89bd	0.010652957
13	0xbf0cc3e6	-0.5498642
14	0xbf03dc01	-0.51507574
15	0x3e97a9ab	0.29621634
16	0x3ec30b76	0.38094682
17	0x3ce9c0d0	0.028534323
18	0x3df0e6b1	0.11762751
19	0x3ebb334a	0.36562568
20	0x3e7f989e	0.24960563
21	0xbf24200c	-0.641114
22	0x3e56b914	0.20969039
23	0xbcb32568	-0.021868423
24	0x3e7f5fd7	0.24938904
25	0xbe1bc00f	-0.15209983
26	0xbf732763	-0.94981974
27	0x3d911ac0	0.0708518
28	0x3ea67751	0.32512906
29	0x3d937a06	0.072010085
30	0xbe88aed6	-0.2669589
31	0xbda76ed2	-0.08175434
32	0x3d00e036	0.031463824
33	0xbe66f0ce	-0.22552797
34	0x3f36467f	0.7120132
35	0xbe0a7936	-0.13522801
36	0x3eb901c6	0.36134166
37	0xbefb0660	-0.490283
38	0x3eff3b64	0.4985
39	0x3e05a33b	0.13050549
40	0x3e1a1511	0.15047099
41	0x3ef540b1	0.47900918
42	0x3d2fbb3d	0.042903174
43	0xbef4f003	-0.47839364
44	0xbebc3716	-0.36760777
45	0x3e58836f	0.21143888
46	0xbe048871	-0.12942673
47	0xbd85fd3f	-0.065424435

attention_blocks.0.attention_blocks.0.W_v.weight f4 [4, 12]
0	0xbb201683	-0.002442748
1	0x3bc69cbc	0.0060611647
2	0x3b656d15	0.0035007645
3	0x3be1186c	0.0068693664
4	0x3be5dc43	0.0070147826
5	0x3b574c5b	0.0032851908
6	0x3bc255d6	0.0059306426
7	0x3b82421a	0.003975165
8	0xb9e99020	-0.00044548605
9	0x3aad5873	0.0013225212
10	0x3a5596b6	0.0008147763
11	0xbab116ce	-0.0013510825
12	0x3c5d0847	0.013490743
13	0xba01259e	-0.0004926565
14	0x3b4cae00	0.0031231642
15	0x3c283edc	0.010268893
16	0x3bf27a56	0.0073998375
17	0x3c71e9e3	0.014765236
18	0x3be5f8a2	0.0070181647
19	0x3c0704a2	0.008240851
20	0x3bd54ccf	0.0065094004
21	0x3c2c3b34	0.010512162
22	0x3c4da8dc	0.012552466
23	0x3c4366d9	0.011926376
24	0x3c6ef6dc	0.014585223
25	0xbc04adb9	-0.008098059
26	0x3b57adc8	0.0032909978
27	0x3a3a4a94	0.000710645
28	0xbc14de86	-0.009086257
29	0x3c232d9d	0.0099596055
30	0x3bb11668	0.0054042824
31	0x3c48b4c1	0.012250126
32	0x3ca4cb79	0.020116555
33	0x3c65d4aa	0.014027754
34	0x3bacac13	0.0052695363
35	0x3c60ae12	0.013713377
36	0x3cc026bc	0.02345597
37	0x3ba73a19	0.0051033613
38	0xbc608515	-0.013703604
39	0xbba8442d	-0.0051350803
40	0x3b6a0901	0.0035710933
41	0xbb94b94e	-0.0045386916
42	0x3cf3a4e8	0.02974172
43	0xbc92dc5f	-0.017927347
44	0x3c2ce088	0.010551579
45	0x3b00b2d3	0.0019637838
46	0xba9003c7	-0.0010987454
47	0x3bbc8b1f	0.005753889

attention_blocks.0.attention_blocks.0.W_o.weight f4 [12, 4]
0	0x39c56ba5	0.0003765497
1	0xbaa776cc	-0.0012776493
2	0xbab22122	-0.0013590197
3	0x3818bd66	3.6416015e-05
4	0x3ac7dc6f	0.001524819
5	0xb9886917	-0.0002601824
6	0x3a4127a1	0.0007368271
7	0xba5c542e	-0.0008404878
8	0x39747c89	0.00023316046
9	0x3b56d279	0.003277926
10	0x3a89e167	0.0010519446
11	0x391823f4	0.00014509243
12	0xb9941a64	-0.00028248422
13	0x3b85fdbe	0.0040890863
14	0xb9565bc4	-0.00020442816
15	0x3a90e630	0.0011054929
16	0x383695a6	4.3531552e-05
17	0x3bbe50aa	0.0058079557
18	0x3ae24eb9	0.0017265893
19	0x38f872f9	0.00011846977
20	0x3a0e1e4e	0.0005421386
21	0x3bf243b6	0.0073933257
22	0x3aa862ee	0.0012846866
23	0xb9d8a9c1	-0.00041325207
24	0x399ef364	0.0003031745
25	0xbb33f320	-0.0027458146
26	0xb978dff6	-0.00023734555
27	0xb98d6fd0	-0.00026976923
28	0x393cd81f	0.00018009589
29	0x3b432cc4	0.002978132
30	0x396342e7	0.0002167333
31	0xba018537	-0.000494081
32	0x3a50c1d2	0.0007963452
33	0xbbb5fc5b	-0.0055537648
34	0xb9e9ad4e	-0.00044570345
35	0x394f0148	0.00019741536
36	0x3a00c218	0.0004911735
37	0xbb9d59fe	-0.0048019877
38	0xb9c9d8b2	-0.00038499158
39	0xb9148d6c	-0.00014167064
40	0x399b089a	0.00029570312
41	0x3a11d80b	0.0005563504
42	0xba2d959d	-0.00066217204
43	0x39eaf316	0.0004481307
44	0x39ecbfd4	0.0004515635
45	0xbb5e92fa	-0.0033962117
46	0x39829434	0.00024905952
47	0x3a341322	0.0006869306

attention_blocks.0.attention_blocks.1.layer_norm.weight f4 [12]
0	0x3fad00dd	1.3515888
1	0x3fdfe774	1.7492509
2	0x3fcc2eaf	1.5951747
3	0x3fb19425	1.3873335
4	0x3fe0714b	1.7534574
5	0x3f91a6f0	1.137907
6	0x3fb23215	1.3921534
7	0x3fb84a34	1.4397645
8	0x3fa1980a	1.2624524
9	0x3fe315b6	1.7741001
10	0x3fb0fe49	1.3827602
11	0x3f9bfe14	1.2186913

attention_blocks.0.attention_blocks.1.layer_norm.bias f4 [12]
0	0x3e22b700	0.15890121
1	0x3ee30874	0.44342387
2	0xbe51d0d2	-0.20489815
3	0x3d2c8195	0.042115767
4	0x3eb4f0d1	0.35339978
5	0xbe412bdc	-0.18864387
6	0x3cc29eeb	0.023757419
7	0xbcfcacbb	-0.030844083
8	0x3e83785e	0.2567777
9	0xbe9c8c1c	-0.30575645
10	0x3ed29c4e	0.41134876
11	0xbe4d7403	-0.20063786

attention_blocks.0.attention_blocks.1.W_k.weight f4 [4, 12]
0	0xbc0dc914	-0.008653898
1	0xbeb1115d	-0.3458356
2	0xbd2baa54	-0.041910484
3	0x3ee2fa77	0.44331715
4	0x3f5f1d27	0.8715386
5	0xbeb967ad	-0.3621191
6	0xbf103c19	-0.563417
7	0x3f0f3a14	0.55947995
8	0x3eff2451	0.49832395
9	0xbf0d94f5	-0.55305415
10	0x3eac59f3	0.33662376
11	0xbe468296	-0.19385752
12	0x3f09d710	0.53843784
13	0x3f5838b9	0.8446155
14	0xbf0c4b2a	-0.5480219
15	0xbdf44d53	-0.11928811
16	0x3e8f43bf	0.27981374
17	0xbd8ccbc9	-0.068748064
18	0xbd31cfd8	-0.043411106
19	0xbe10aef8	-0.14129245
20	0x3e83f3c5	0.2577192
21	0xbee2ae50	-0.44273615
22	0x3e735924	0.23764473
23	0xbe7dd10c	-0.24786776
24	0x3efed45f	0.497714
25	0x3f1e2ccb	0.617871
26	0xbf4f7a94	-0.81046414
27	0xbe7cb62b	-0.24678867
28	0xbd9711d7	-0.073764496
29	0x3e8e10b1	0.2774711
30	0x3e70511e	0.23468444
31	0x3eae1fc2	0.34008604
32	0x3e5374eb	0.2065007
33	0xbf151087	-0.58228344
34	0xbd9ed47e	-0.077553734
35	0xbecde727	-0.40215418
36	0xbef50634	-0.47856295
37	0xbe2c4eb9	-0.16826905
38	0x3f280b96	0.6564268
39	0x3d9bd981	0.07609845
40	0x3d244db8	0.04011318
41	0xbe0c35ae	-0.13692352
42	0xbd389110	-0.045060217
43	0xbee929a2	-0.45539576
44	0xbed40c3a	-0.41415578
45	0x3f21851a	0.6309372
46	0xbe4b159d	-0.19832464
47	0x3f13830c	0.57621837

attention_blocks.0.attention_blocks.1.W_q.weight f4 [4, 12]
0	0x3e60159d	0.21883245
1	0xbd1ed1aa	-0.03877417
2	0xbea8fb0b	-0.3300403
3	0x3f5135f5	0.81722957
4	0xbf11fef1	-0.57029635
5	0xbe5e6204	-0.21717077
6	0xbf21030e	-0.62895286
7	0x3f690dd9	0.91036755
8	0x3ed67a34	0.4189011
9	0xbf39eeaf	-0.7262983
10	0x3f2a6ce9	0.66572434
11	0xbd96a9de	-0.07356618
12	0x3ea55666	0.3229248
13	0xbeb42c55	-0.35190073
14	0x3eed2169	0.46314552
15	0x3ef97cd1	0.4872804
16	0x3e77afd5	0.24188168
17	0x3f02d58d	0.511071
18	0xbeacac09	-0.33725002
19	0x3f32de51	0.6987048
20	0xbedb80ff	-0.42871854
21	0xbf1f1867	-0.6214661
22	0xbe10916d	-0.14117976
23	0xbea17bd9	-0.315398
24	0xbda91af2	-0.082570925
25	0xbf6c79da	-0.9237343
26	0x3e907be4	0.2821952
27	0x3e2a4791	0.16628863
28	0x3f8299c0	1.0203171
29	0x3f06eb7b	0.52703065
30	0xbe0067b1	-0.12539555
31	0x3f01308a	0.5046469
32	0xbea25128	-0.31702542
33	0xbf1be874	-0.6090157
34	0x3cd2e793	0.025745189
35	0xbeed07b5	-0.46294942
36	0xbd7f9857	-0.062401142
37	0x3f7ff457	0.9998221
38	0xbd15f145	-0.036607046
39	0xbed06b68	-0.40706944
40	0xbefc3932	-0.49262387
41	0xbea09882	-0.31366354
42	0x3ee20355	0.44143167
43	0xbee511e7	-0.4474022
44	0xbca890a4	-0.020576783
45	0x3f1953b9	0.59893376
46	0xbe9ca669	-0.3059571
47	0x3b32e5b5	0.002729756

attention_blocks.0.attention_blocks.1.W_v.weight f4 [4, 12]
0	0xbc9ef2df	-0.01940292
1	0xbc229a41	-0.009924472
2	0xbc1d285f	-0.009592145
3	0xbc3877a7	-0.011258996
4	0xbc368cc7	-0.011141962
5	0xbbfdb9e4	-0.007743107
6	0xbc953184	-0.018212087
7	0xbc8ed8ca	-0.017437357
8	0xbcce8d3e	-0.025213834
9	0xbc8c21ff	-0.017106054
10	0xbb9fb5e5	-0.0048739784
11	0x3c0ef5f9	0.008725637
12	0x3ba28b04	0.0049604196
13	0xbb4043e5	-0.0029337343
14	0xbba676a9	-0.0050800634
15	0x3b85a7dd	0.0040788488
16	0x3b7c3051	0.0038480947
17	0x3c51bbf2	0.012801157
18	0x3ba7c51e	0.0051199337
19	0x3c0b3db8	0.008498602
20	0x3b17e0e5	0.002317482
21	0x3c2cf569	0.010556557
22	0x3bdb07d9	0.006684285
23	0xba2a2047	-0.0006489795
24	0x3c31eeca	0.010860154
25	0x3c3e56c6	0.011617368
26	0x3bc9e350	0.006161131
27	0x3bc43347	0.005987558
28	0x3c1b2e91	0.0094715515
29	0x3a7e11a1	0.0009691958
30	0x3c7acb8a	0.015307317
31	0x3b936551	0.004498162
32	0x3d01fb58	0.03173384
33	0x3c180976	0.009279599
34	0x3a0a8cb4	0.00052852486
35	0xbd179d61	-0.037015323
36	0x3b8e1bff	0.0043368335
37	0xbb2c0e8f	-0.0026253795
38	0xbbb76f97	-0.0055980193
39	0xbc564378	-0.013077609
40	0x3b81d235	0.003961826
41	0xbb95ea5e	-0.004575058
42	0x3a8a4337	0.0010548596
43	0x3c0db37f	0.008648752
44	0x3c5cf9f3	0.013487327
45	0x3c0840a8	0.0083161965
46	0xbb45b730	-0.0030169003
47	0xbd0c68c9	-0.03427962

attention_blocks.0.attention_blocks.1.W_o.weight f4 [12, 4]
0	0xba66910c	-0.00087954174
1	0xb826f224	-3.9802995e-05
2	0x38b72507	8.733017e-05
3	0x38d5cd68	0.000101948914
4	0x3b20d1e1	0.002453916
5	0xbb9dbf20	-0.0048140436
6	0xbb739339	-0.003716661
7	0xbb85804d	-0.0040741325
8	0x3a8e3ecf	0.0010852459
9	0xba4b3569	-0.0007751794
10	0xb93d9fb1	-0.00018083934
11	0xbabd192b	-0.0014427056
12	0xbabf2135	-0.001458204
13	0x3ba98f63	0.0051745637
14	0x3b6c389e	0.0036044489
15	0x3b3d8236	0.0028916723
16	0x39542551	0.00020231797
17	0x3b86a55d	0.0041090683
18	0x3b181945	0.0023208421
19	0x3b069ef9	0.0020541532
20	0x38b28999	8.513331e-05
21	0x3b2b3acc	0.0026127575
22	0x3a54db70	0.0008119857
23	0x3b062f76	0.0020475066
24	0x3aa63e2c	0.0012683324
25	0x3b539437	0.0032284388
26	0x3ab8a936	0.0014088515
27	0xba0846c4	-0.0005198533
28	0x39d3bf44	0.0004038756
29	0x383a7424	4.445402e-05
30	0x3a425799	0.0007413566
31	0xba198cd9	-0.0005857475
32	0x3a6f3726	0.0009125344
33	0x3981d98a	0.00024766877
34	0x3aa9e6f6	0.0012962508
35	0xbb17be09	-0.0023154041
36	0x398766f8	0.00025825924
37	0x3a7b74ce	0.00095922954
38	0x3a580d14	0.0008241695
39	0xb99732e1	-0.00028838872
40	0x38b9ee9e	8.865933e-05
41	0x3af8efe7	0.0018992395
42	0x3af15eab	0.0018415054
43	0x3ab238ce	0.0013597251
44	0x3a5d7254	0.0008447517
45	0xba9484ec	-0.0011331118
46	0xba9f1518	-0.0012137024
47	0xbb4047c0	-0.0029339641

attention_blocks.0.attention_blocks.2.layer_norm.weight f4 [12]
0	0x3fccdca7	1.6004838
1	0x3f9f0a66	1.2425048
2	0x3fc0623d	1.502998
3	0x3f940727	1.1564683
4	0x3fa58094	1.2929864
5	0x3fae530a	1.3619092
6	0x3fbeb1a9	1.4897968
7	0x3fc8ef36	1.5698001
8	0x3fb288c5	1.3947989
9	0x3fdaf595	1.7106196
10	0x3fb8e5b9	1.4445106
11	0x3fa57aff	1.292816

attention_blocks.0.attention_blocks.2.layer_norm.bias f4 [12]
0	0xbd7c88ad	-0.06165378
1	0x3decb1ca	0.11557348
2	0xbe618a89	-0.22025503
3	0xbe14a185	-0.1451474
4	0x3e72f83b	0.23727505
5	0x3ccf5471	0.02530882
6	0xbe384b09	-0.17997374
7	0x3e6a2b93	0.22868185
8	0x3ea2eff4	0.31823695
9	0xbe9489e4	-0.29011452
10	0x3e5ed25b	0.21759932
11	0xbd76e145	-0.060273428

attention_blocks.0.attention_blocks.2.W_k.weight f4 [4, 12]
0	0xbe5fee1a	-0.21868172
1	0xbf15d69e	-0.58530605
2	0xbcf238b1	-0.029568048
3	0xbed51811	-0.41619924
4	0xbebcf3c1	-0.3690472
5	0x3ed28977	0.41120502
6	0x3e9ad8e7	0.30243608
7	0xbeda4cab	-0.42636618
8	0xbeadd99a	-0.3395508
9	0x3f383181	0.71950537
10	0x3db2e21c	0.08734533
11	0x3e9d0268	0.30665898
12	0xbf3915f5	-0.7229913
13	0xbec71812	-0.38885552
14	0xbe0c91e2	-0.13727525
15	0x3c709924	0.014684949
16	0xbf4d53fb	-0.8020627
17	0x3eb26e10	0.34849596
18	0x3ec87374	0.39150584
19	0x3d427100	0.047471046
20	0xbea180f7	-0.31543705
21	0x3e836fdc	0.2567128
22	0xbe398b73	-0.18119602
23	0x3f4ba251	0.7954455
24	0xbe0ae27c	-0.1356296
25	0xbe934b9a	-0.28768617
26	0xbf1e48d8	-0.618299
27	0xbd884350	-0.06653464
28	0x3d542c36	0.051799975
29	0x3df0b741	0.11753703
30	0xbe50b7f2	-0.2038267
31	0x3e6402e3	0.22266726
32	0x3eff3679	0.49846247
33	0xbf03a6dd	-0.5142649
34	0x3f0578da	0.5213753
35	0x3eac9bfa	0.3371275
36	0xbdea7d31	-0.114496596
37	0xbe2241b6	-0.15845379
38	0xbf205c86	-0.6264118
39	0xbdee22da	-0.11627741
40	0x3d823e7e	0.06359576
41	0x3ea1b1ce	0.31580967
42	0xba42da24	-0.0007433018
43	0x3f1559be	0.5834006
44	0x3ed9f117	0.4256675
45	0xbef3b2e8	-0.47597432
46	0x3e7016a7	0.23446141
47	0xbe5d24b3	-0.21596031

attention_blocks.0.attention_blocks.2.W_q.weight f4 [4, 12]
0	0xbf3bcb83	-0.7335741
1	0x3d421e56	0.04739221
2	0xbdce6228	-0.100773156
3	0xbe27d81f	-0.16391037
4	0x3e4e111b	0.20123713
5	0xbe1cc2ee	-0.15308735
6	0x3f2aa544	0.66658425
7	0xbf1804e8	-0.59382486
8	0x3d0b3da4	0.033994332
9	0x3f016862	0.505499
10	0x3dce93d7	0.10086792
11	0x3e65f911	0.22458293
12	0xbf589f09	-0.8461767
13	0x3e09fe14	0.1347583
14	0x3d8fb7db	0.070174895
15	0xbf05b4ed	-0.52229196
16	0x3e16cab1	0.14725758
17	0xbf356235	-0.7085298
18	0x3f2c0c7d	0.67206556
19	0x3e8887b6	0.2666604
20	0xbc608a83	-0.013704899
21	0x3f144c24	0.5792868
22	0xbe545415	-0.207352
23	0x3e860b18	0.2618034
24	0xbe82e6f9	-0.25566843
25	0x3d5b4e83	0.05354167
26	0xbf519d51	-0.8188067
27	0x3eb5d160	0.35511303
28	0x3bf659b4	0.0075180177
29	0x3b042aa1	0.002016701
30	0x3ee0b4f7	0.43888065
31	0x3f5cf3c9	0.86309487
32	0xbe84b059	-0.25915793
33	0xbf2215f1	-0.6331473
34	0x3ecd75fd	0.4012908
35	0xbec23a21	-0.37934974
36	0xbda64f0e	-0.08120547
37	0xbde4d7b4	-0.111739546
38	0xbe4d2d42	-0.20036796
39	0x3e041a08	0.12900555
40	0xbd585c16	-0.052822195
41	0x3f009b1d	0.50236684
42	0xbe42db18	-0.1902889
43	0x3f45dd31	0.77290636
44	0xbf305336	-0.6887697
45	0xbe85b139	-0.26111773
46	0x3ef845f5	0.48490873
47	0xbe643f6c	-0.22289819

attention_blocks.0.attention_blocks.2.W_v.weight f4 [4, 12]
0	0x3c10198b	0.008795152
1	0x3be3a5e7	0.0069472673
2	0x3c56513d	0.013080892
3	0x3c23f792	0.010007756
4	0x3ba58d00	0.005052209
5	0x3c47f6be	0.012204824
6	0x3c21a901	0.009866954
7	0x3c371e05	0.011176591
8	0x3b9f6b6c	0.0048651006
9	0x3c0c0823	0.008546862
10	0x3c3d446f	0.01155196
11	0x3c725fb0	0.0147933215
12	0xbbdbfc84	-0.006713452
13	0xbbfc7d14	-0.00770534
14	0x3a5120be	0.0007977596
15	0xbb96b586	-0.004599276
16	0xbbe9a887	-0.0071306857
17	0xbb12619f	-0.0022336019
18	0xbb3ec4dd	-0.002910904
19	0xbb7f7782	-0.0038981144
20	0x3c462d7c	0.012095805
21	0x393a5618	0.00017770415
22	0xbb35550b	-0.0027669098
23	0x38b50938	8.63247e-05
24	0x3d2bf7c0	0.04198432
25	0xbde2eaf6	-0.110799715
26	0xbd82d598	-0.06388396
27	0xbabd6cd4	-0.0014451989
28	0x3ded4e37	0.11587184
29	0x3d7233cc	0.05913143
30	0xbd0bf8a2	-0.03417266
31	0x3c4f7236	0.012661507
32	0xbdc810e7	-0.09768849
33	0xbd4b27f4	-0.04959865
34	0x3da1dd20	0.07903504
35	0x3b25a212	0.0025273603
36	0xbcaa4290	-0.020783693
37	0xbcc59799	-0.024120139
38	0xbc926e07	-0.01787473
39	0xbcc1d2d4	-0.023660101
40	0xbc937a4b	-0.01800265
41	0xbcb8c2fc	-0.022553913
42	0xbcb6d6b6	-0.022319179
43	0xbc899988	-0.016796842
44	0xbca41217	-0.020028157
45	0xbca29141	-0.019844653
46	0xbcadcc7e	-0.021215674
47	0xbc9b51ea	-0.018959958

attention_blocks.0.attention_blocks.2.W_o.weight f4 [12, 4]
0	0xba18aa00	-0.0005823672
1	0x3a2c58fe	0.000657454
2	0x3dc49d0e	0.09600268
3	0xb9444518	-0.00018717756
4	0xba63c8ba	-0.00086892734
5	0x3bddc588	0.0067679323
6	0x3d97a045	0.07403616
7	0xb8a0e5cf	-7.6722e-05
8	0x3a2439cb	0.00062647153
9	0x3a0760ed	0.00051642844
10	0x3d9ca3f6	0.076484606
11	0x393805f8	0.00017549831
12	0xbb04a4b4	-0.0020239772
13	0xbb1e9196	-0.0024195663
14	0x3e13abaf	0.14420961
15	0xb941ca0f	-0.00018481187
16	0xbb13f0fd	-0.002257406
17	0xbb56df27	-0.0032786818
18	0xbdb1b840	-0.08677721
19	0x38a3ef65	7.8170364e-05
20	0xbb253cad	-0.0025213168
21	0xbb4e236c	-0.0031454219
22	0xbdd493d3	-0.10379758
23	0x3972fe0a	0.00023173555
24	0xbb3a57bf	-0.0028433648
25	0xb963372d	-0.00021668962
26	0x3dfdb518	0.123880565
27	0xb90bc847	-0.00013330682
28	0x394b2e0e	0.00019376745
29	0x38a77f90	7.986941e-05
30	0x3e1cff75	0.15331824
31	0x37d29f6a	2.5108184e-05
32	0xbb412f5c	-0.0029477691
33	0x3b64dd7e	0.0034922059
34	0xbd8363ad	-0.06415496
35	0xb9b3fa3f	-0.00034327988
36	0xbb162e4a	-0.0022915774
37	0x3a73d7c6	0.0009301867
38	0x3e380251	0.17969634
39	0xb9533a3a	-0.00020144219
40	0xbb3300f7	-0.0027313808
41	0xba57af6c	-0.0008227739
42	0x3d4d8ebc	0.05018495
43	0xb957f3ee	-0.00020594869
44	0xb9970272	-0.00028802786
45	0x3b274308	0.0025522131
46	0x3e616182	0.22009853
47	0xb885ca92	-6.379666e-05

attention_blocks.1.attention_blocks.0.layer_norm.weight f4 [12]
0	0x3fe9c257	1.8262433
1	0x3fba7fef	1.4570292
2	0x3ff7e3b5	1.9366366
3	0x3fbb86e5	1.4650542
4	0x3fc8fd4a	1.5702298
5	0x3fe90a5e	1.8206289
6	0x4012b76b	2.292445
7	0x3fd8ddcd	1.6942688
8	0x3fd3051b	1.6485933
9	0x3fd36dfe	1.6517942
10	0x3fe44f4f	1.7836703
11	0x3fc4c575	1.5372759

attention_blocks.1.attention_blocks.0.layer_norm.bias f4 [12]
0	0xbe52bcea	-0.20579877
1	0x3e300e67	0.17192994
2	0xbdf43ec2	-0.119260326
3	0xbe714089	-0.23559774
4	0x3e8d85d7	0.27641174
5	0x3ea0a8a5	0.31378666
6	0xbe70bd0f	-0.2350962
7	0x3e69959a	0.22810975
8	0x3c445c90	0.011984959
9	0x3e1c054e	0.15236399
10	0xbe5cc3d9	-0.21559085
11	0x3e0d0049	0.1376964

attention_blocks.1.attention_blocks.0.W_k.weight f4 [4, 12]
0	0xbe5699c8	-0.209571
1	0xbca4c19b	-0.02011185
2	0x3f0e1b56	0.5551046
3	0x3d1e4922	0.038643964
4	0xbef080b8	-0.46973205
5	0x3b9caebe	0.004781573
6	0x3fa1381b	1.2595247
7	0xbf7d4848	-0.9893842
8	0xbe41ef47	-0.18938933
9	0xbeaa26a3	-0.33232602
10	0x3ecbfe9f	0.39842698
11	0x3e3fbbdb	0.18724005
12	0x3ef14fd5	0.4713122
13	0x3e8a50fa	0.27014905
14	0x3e2abdb1	0.16673924
15	0xbee4b08b	-0.44665942
16	0x3c594968	0.01326213
17	0x3df80e0b	0.121120535
18	0xbe9ef9d7	-0.31049988
19	0x3e6ff0a1	0.23431636
20	0x3ef478d2	0.4774843
21	0x3e5b7da3	0.21434645
22	0xbfc63a17	-1.5486478
23	0xbe36c6d8	-0.1784929
24	0xbfa6f07f	-1.3042144
25	0x3d7b6d63	0.061383616
26	0x3f7207ac	0.94542956
27	0xbdc85b75	-0.09783069
28	0x3e66ffdb	0.22558539
29	0xbf01ecf3	-0.5075218
30	0xbeb940de	-0.36182302
31	0x3e128efa	0.14312354
32	0xbe1c726c	-0.15278023
33	0xbf136cf8	-0.5758815
34	0x3f410315	0.7539533
35	0x3f624eb5	0.8840135
36	0x3d8cd9a6	0.06877451
37	0x3d8a011a	0.06738491
38	0xbf1f3c99	-0.6220184
39	0x3efd2c0d	0.4944767
40	0x3decea85	0.115681686
41	0x3f14df1a	0.58152926
42	0xbfebf79d	-1.843494
43	0x3efbf3bd	0.49209395
44	0x3ed915d6	0.42399472
45	0x3ed8a245	0.42311302
46	0x3ec743db	0.38918957
47	0xbeb94c59	-0.3619106

attention_blocks.1.attention_blocks.0.W_q.weight f4 [4, 12]
0	0xbd5e3744	-0.054251924
1	0x3ed38657	0.4131343
2	0x3f20e411	0.62848
3	0xbf0fcd65	-0.5617278
4	0xbf2e3553	-0.68050116
5	0x3cafd6a0	0.021464646
6	0xbeef6679	-0.46757868
7	0xbf3bf21c	-0.73416305
8	0x3f09e1bd	0.53860074
9	0x3f645f53	0.89207953
10	0xbf0877d9	-0.53307873
11	0x3e65766e	0.22408459
12	0x3ef192e1	0.47182372
13	0xbecef7ba	-0.40423375
14	0x3ece346d	0.40274373
15	0x3f50045d	0.8125666
16	0x3f419788	0.75621843
17	0x3e818d0e	0.2530293
18	0xbe6d9b75	-0.23203833
19	0xbe89b07c	-0.2689246
20	0xbfb94cba	-1.447654
21	0xbf01d833	-0.5072052
22	0x3ea26ca5	0.31723514
23	0xbe95441c	-0.29153526
24	0xbef57aa0	-0.47945118
25	0x3f171a3d	0.5902441
26	0xbe5f2d59	-0.21794643
27	0xbf1a49db	-0.60268945
28	0xbef82351	-0.48464444
29	0xbfa98f8e	-1.3246934
30	0x3ebed919	0.37275007
31	0x3ea566cb	0.32304987
32	0xbe5aa1d7	-0.213508
33	0x3f0f6828	0.56018305
34	0xbe305d92	-0.17223194
35	0x3f30453c	0.68855643
36	0x3ede088c	0.43365896
37	0xbf02108e	-0.5080651
38	0xbf9eb34a	-1.2398465
39	0x3d52b56e	0.051442556
40	0x3e73eeb4	0.23821527
41	0x3dfebd13	0.12438407
42	0x3e2895c7	0.16463386
43	0x3f49666b	0.786719
44	0xbdd12925	-0.10212926
45	0xbf0dc518	-0.55378866
46	0x3f2d175d	0.67613775
47	0x3d2d9536	0.042378627

attention_blocks.1.attention_blocks.0.W_v.weight f4 [4, 12]
0	0x3dc53cbd	0.096307255
1	0x3e7ab993	0.24484853
2	0xbe7f70d6	-0.24945387
3	0xbeab09c4	-0.33405888
4	0x3ee072e7	0.43837664
5	0x3f027dfa	0.50973475
6	0xbedd6a21	-0.43245032
7	0x3e809bb6	0.25118798
8	0xbe1a076c	-0.15041894
9	0x3e84981d	0.25897303
10	0xbe680ed4	-0.22661906
11	0xbdb696d1	-0.08915485
12	0x3ceacd27	0.028662277
13	0x3ee2bc0b	0.4428409
14	0xbe1caee1	-0.15301086
15	0xbe81a98b	-0.25324664
16	0x3ec5684e	0.3855614
17	0x3ef88d3e	0.4854526
18	0xbeda308d	-0.42615166
19	0x3eaa112e	0.33216232
20	0xbdc6e6af	-0.09711968
21	0x3de1d7dd	0.11027501
22	0xbea7aac1	-0.32747462
23	0x3e04abc0	0.12956142
24	0xbe1685ac	-0.1469943
25	0x3f38cbda	0.7218605
26	0xbd892dd1	-0.06698192
27	0xbe13db55	-0.14439137
28	0x3e662eb8	0.2247876
29	0x3eb5ad9a	0.3548401
30	0xbea7c0a7	-0.3276417
31	0x3ec24125	0.37940326
32	0xbd72b849	-0.05925778
33	0x3d9bc30f	0.07605564
34	0xbefe2500	-0.49637604
35	0x3ec23895	0.37933794
36	0x3da56017	0.08074968
37	0xbd8d266d	-0.06892095
38	0x3e917d27	0.28415796
39	0x3eab0cbc	0.33408153
40	0xbef94932	-0.48688656
41	0xbee204f3	-0.441444
42	0x3ea0b187	0.31385443
43	0xbe651828	-0.22372496
44	0x3e2713a0	0.1631608
45	0xbec6e7f2	-0.38848835
46	0x3e447db7	0.19188581
47	0x3de30d7a	0.11086555

attention_blocks.1.attention_blocks.0.W_o.weight f4 [12, 4]
0	0xbf11e774	-0.56993794
1	0xbf1ce499	-0.6128631
2	0xbef68e2b	-0.4815534
3	0x3eea5c1d	0.45773402
4	0xbecc80a4	-0.39941895
5	0xbeaba378	-0.33523154
6	0xbe5ca83c	-0.21548551
7	0x3eaef670	0.34172392
8	0x3e2825e0	0.16420698
9	0x3edabeea	0.4272378
10	0x3f46966f	0.77573293
11	0xbd66394d	-0.05620699
12	0x3e39e9b3	0.18155555
13	0x3dbe906c	0.0930489
14	0x3d71cdf3	0.0590343
15	0xbe5a9f3c	-0.21349806
16	0x3e8c3737	0.27385876
17	0x3ef08a1c	0.4698037
18	0x3f1c4c40	0.6105385
19	0xbd3d8ed6	-0.046278797
20	0x3da58fa2	0.080840364
21	0xbe7d22e8	-0.24720347
22	0xbef1a0e9	-0.47193077
23	0xbe3e1df2	-0.1856611
24	0x3f120fac	0.57055163
25	0x3e8a9201	0.27064517
26	0xbd6b9c51	-0.05752212
27	0xbf068029	-0.52539307
28	0xbe792690	-0.24331117
29	0xbe6ffd5d	-0.23436494
30	0xbe3e9f80	-0.18615532
31	0x3e49c8ac	0.19705456
32	0xbea07c82	-0.31344992
33	0xbe2176b2	-0.15767935
34	0x3d05305a	0.032516815
35	0x3e94c42a	0.2905591
36	0xbe7bac0f	-0.24577354
37	0xbe1e3955	-0.15451558
38	0xbc169685	-0.00919116
39	0x3e8bcfdb	0.2730702
40	0x3e22db57	0.15903984
41	0x3d59e806	0.05319979
42	0x3dc0f1c1	0.09421111
43	0xbea33720	-0.31877995
44	0x3e8a3666	0.26994628
45	0x3e8e6d36	0.27817696
46	0x3e6793b6	0.22614941
47	0xbe8053a4	-0.25063813

attention_blocks.1.attention_blocks.1.layer_norm.weight f4 [12]
0	0x3fee0be3	1.8597378
1	0x3fb99c66	1.4500854
2	0x3fd6a57b	1.6769251
3	0x3fbdb930	1.482214
4	0x3fc3511b	1.5259126
5	0x3fd8dfba	1.6943276
6	0x3fed1b34	1.8523927
7	0x3fc506d0	1.5392704
8	0x3fe6f014	1.8042016
9	0x3fb7c18f	1.4355944
10	0x3fbee91a	1.4914887
11	0x4007e867	2.1235597

attention_blocks.1.attention_blocks.1.layer_norm.bias f4 [12]
0	0xbdfe9be8	-0.124320805
1	0x3e29e28b	0.16590326
2	0xbdb3df5e	-0.08782838
3	0xbda9cc43	-0.08290913
4	0x3e92381e	0.2855844
5	0x3e2b43d1	0.16725089
6	0xbde52b90	-0.111899495
7	0xbd7377bf	-0.05944037
8	0xbf44cdba	-0.76876414
9	0x3d9ce1b2	0.076602355
10	0xbe0df58d	-0.13863201
11	0x3df577f3	0.11985769

attention_blocks.1.attention_blocks.1.W_k.weight f4 [4, 12]
0	0xbf5e70f4	-0.868911
1	0x3f184985	0.5948718
2	0x3f04dddb	0.51901025
3	0x3f25b967	0.64736027
4	0xbebf84c9	-0.37405995
5	0xbf1c4265	-0.6103881
6	0x3f9dc2c3	1.2325062
7	0xbee81544	-0.45328724
8	0x3f0ef81f	0.5584735
9	0xbe9c70d9	-0.30554846
10	0xbe1a1203	-0.15045933
11	0xbf0e3240	-0.55545425
12	0xbf0958d9	-0.53651196
13	0xbf271375	-0.65264064
14	0xbb946581	-0.004528702
15	0x3dcf5011	0.10122693
16	0xbf9c62d6	-1.2217662
17	0x3dbd8038	0.092529714
18	0xbe3f50ca	-0.18683162
19	0xbd910de2	-0.07082726
20	0x3f37ea7b	0.71842164
21	0xbf110e52	-0.56662476
22	0x3f1800c8	0.5937619
23	0x3f6daa34	0.92837834
24	0x3dd828d2	0.10554661
25	0x3e81f690	0.25383425
26	0xbea65cc7	-0.32492658
27	0xbf0059fa	-0.50137293
28	0x3de78007	0.11303716
29	0x3eada491	0.33914617
30	0xbc9ab58e	-0.0188854
31	0x3f23933c	0.63896537
32	0x3e1e57e0	0.15463209
33	0x3f13349f	0.5750217
34	0xbea3e472	-0.32010227
35	0xbf6df2d0	-0.9294863
36	0xbf9b564d	-1.2135712
37	0xbedf34ed	-0.43595067
38	0x3f1c8771	0.6114417
39	0x3f1229ec	0.5709522
40	0xbf3d88f8	-0.7403712
41	0x3e51b81e	0.20480391
42	0x3f0328f1	0.51234347
43	0x3e186ede	0.14886042
44	0xbf0daff7	-0.55346626
45	0xbea2f49f	-0.31827256
46	0x3f49418a	0.7861563
47	0xbe3bab0c	-0.18326968

attention_blocks.1.attention_blocks.1.W_q.weight f4 [4, 12]
0	0xbf12bf18	-0.57322836
1	0x3ef0092d	0.46882
2	0x3f58018e	0.8437737
3	0xbf4a963a	-0.7913548
4	0x3e84fb9c	0.25973213
5	0xbdffc75d	-0.124891974
6	0xbe148738	-0.14504707
7	0xbf57efee	-0.8435048
8	0x3f62b8d7	0.88563293
9	0x3f09c6f6	0.53819215
10	0xbf01392f	-0.5047788
11	0xbdbd7c75	-0.09252254
12	0xbe85faec	-0.26168
13	0x3f0f3f57	0.55956024
14	0xbbbbb104	-0.005727889
15	0xbf047afd	-0.51750165
16	0xbf14d483	-0.5813677
17	0xbf681783	-0.90660876
18	0x3ebede26	0.3727886
19	0xbbd3b4f2	-0.0064607793
20	0x3d1462aa	0.036226906
21	0x3e80f327	0.2518551
22	0xbe027919	-0.12741508
23	0x3f2e6f68	0.6813874
24	0x3ed3f742	0.4139958
25	0xbd0390d4	-0.03212054
26	0x3b9b6e07	0.004743341
27	0xbe89c2e7	-0.2690651
28	0x3f01dd5d	0.507284
29	0x3ee62d65	0.44956508
30	0xbea09993	-0.31367168
31	0xbe2d3367	-0.1691414
32	0xbe2bc1fd	-0.1677322
33	0xbeed23c7	-0.46316358
34	0x3f144ae7	0.5792679
35	0xbf57c628	-0.8428674
36	0xbe7492c5	-0.23884113
37	0x3edfd091	0.4371381
38	0xbe0fa5b4	-0.14028054
39	0xbe9e28a8	-0.30890393
40	0xbe2b3958	-0.16721094
41	0xbe9c00ee	-0.3046946
42	0x3e3fb878	0.18722713
43	0xbf502c1e	-0.8131732
44	0x3f68059c	0.9063356
45	0x3e8b0268	0.27150273
46	0xbe3632e7	-0.17792855
47	0x3f363191	0.7116938

attention_blocks.1.attention_blocks.1.W_v.weight f4 [4, 12]
0	0xbec2cea1	-0.3804827
1	0x3ef5cb06	0.48006457
2	0xbed8cb30	-0.4234252
3	0xbea942a7	-0.33058664
4	0x3f0508dc	0.51966643
5	0x3ebeb7aa	0.372495
6	0xbf0f1160	-0.5588589
7	0x3e968c4d	0.29403916
8	0xbdade732	-0.08491363
9	0x3e9b3df0	0.30320692
10	0xbf013813	-0.5047619
11	0x3ec0ccd1	0.37656263
12	0xbedbdca3	-0.4294177
13	0x3f1b0944	0.60561013
14	0xbee20dc4	-0.44151127
15	0xbea5ad7c	-0.3235892
16	0x3edae3f2	0.42752033
17	0x3ea6d560	0.32584667
18	0xbef5d7f1	-0.48016313
19	0x3ea4e88c	0.3220867
20	0x3be02bc0	0.006841153
21	0x3ecfb32c	0.40566385
22	0xbf112201	-0.5669251
23	0x3ea93eed	0.3305582
24	0x3ee86b40	0.45394325
25	0xbec4f01f	-0.38464448
26	0x3ea098f3	0.3136669
27	0x3efbf724	0.4921199
28	0xbeadc90e	-0.33942455
29	0xbf217735	-0.6307252
30	0x3f0e48cd	0.55579835
31	0xbe1a0e18	-0.15044439
32	0xbe088397	-0.13331448
33	0xbf01907f	-0.5061111
34	0x3f29339f	0.6609439
35	0xbe69d474	-0.2283495
36	0xbecff08f	-0.4061322
37	0x3e3080d1	0.1723664
38	0xbe771ede	-0.24132869
39	0xbed010ea	-0.40637904
40	0x3eed8ce4	0.46396554
41	0x3f31621a	0.69290316
42	0xbf1dffe0	-0.6171856
43	0x3e2f03bc	0.17091268
44	0xbceb8e59	-0.0287544
45	0x3ec1b75a	0.378352
46	0xbf04fb2f	-0.51945776
47	0x3e8c32e9	0.2738259

attention_blocks.1.attention_blocks.1.W_o.weight f4 [12, 4]
0	0xbf849533	-1.0358032
1	0xbfa16d30	-1.2611446
2	0x3f98230f	1.1885699
3	0xbf5c5e7a	-0.8608166
4	0xbf5c45e1	-0.86044127
5	0xbf60fd0c	-0.8788612
6	0x3f782199	0.96926266
7	0xbf80f337	-1.0074223
8	0x3f8b2ede	1.0873678
9	0x3f711422	0.94171345
10	0x3ef50893	0.47858104
11	0x3e42e380	0.19032097
12	0xbf0776cf	-0.5291566
13	0xbf83ef1c	-1.0307345
14	0x3f4a25af	0.7896375
15	0xbf0d3881	-0.55164343
16	0x3ef64b5b	0.48104367
17	0x3fa4de39	1.2880317
18	0xbfcdb855	-1.6071879
19	0x3ed9cdb5	0.42539755
20	0x3f0a5d39	0.54048496
21	0x3f43bf08	0.76463366
22	0xbfe849d2	-1.8147528
23	0x3fb386b8	1.4025488
24	0x3f490ef0	0.7853842
25	0x3f4697bd	0.77575284
26	0xbf8629ad	-1.0481468
27	0x3f8def16	1.1088588
28	0xbf9ff558	-1.2496748
29	0xbfba19d5	-1.4539133
30	0x3f64b899	0.89344174
31	0xbf8258f4	-1.0183396
32	0xbf923ddd	-1.1425129
33	0xbf8eccb5	-1.1156222
34	0x3f134799	0.57531124
35	0xbf900b67	-1.125348
36	0xbf810a25	-1.0081221
37	0xbf6ccf71	-0.9250403
38	0x3f5f9e70	0.8735113
39	0xbfa9f615	-1.3278223
40	0x3dfb557a	0.12272163
41	0xbd73d668	-0.059530646
42	0xbe9acfff	-0.30236813
43	0x3f1f947b	0.6233594
44	0x3f5d6ace	0.86491096
45	0x3f883d17	1.0643643
46	0xbf6e0d83	-0.9298937
47	0x3f72dfa9	0.9487253

attention_blocks.1.attention_blocks.2.layer_norm.weight f4 [12]
0	0x3fd651da	1.6743729
1	0x3fd21ae2	1.6414454
2	0x3fdfbc8b	1.7479414
3	0x3fcc47a7	1.5959367
4	0x3fc73333	1.55625
5	0x3fe75f5c	1.8075976
6	0x3fcf1b37	1.618018
7	0x401fe987	2.4986284
8	0x3fc7f103	1.5620426
9	0x3fc0335e	1.5015676
10	0x3fddf33b	1.7339853
11	0x3fc91841	1.5710527

attention_blocks.1.attention_blocks.2.layer_norm.bias f4 [12]
0	0xbebea35f	-0.37234017
1	0x3e46ac11	0.19401576
2	0xbe6fe068	-0.23425448
3	0xbec24615	-0.37944093
4	0x3ed99fe3	0.42504796
5	0x3f1a8c1d	0.60370046
6	0xbf4c7c24	-0.79876924
7	0x3ebefba1	0.37301353
8	0xbc9167c0	-0.017749667
9	0x3f01efbb	0.50756425
10	0x3cf604ae	0.030031528
11	0xbaa1b3b2	-0.0012336879

attention_blocks.1.attention_blocks.2.W_k.weight f4 [4, 12]
0	0xbcfd3797	-0.030910296
1	0xbef90921	-0.48639777
2	0x3c554b4c	0.01301844
3	0xbd95438a	-0.07288273
4	0x3f0f16a8	0.55893946
5	0xbe7e3c72	-0.24827746
6	0xbe23971c	-0.15975612
7	0x3f32d2ed	0.698531
8	0xbf14e886	-0.581673
9	0xbb37cf28	-0.0028047059
10	0x3eea2b50	0.4573617
11	0x3e02022e	0.12696144
12	0xbd427d65	-0.047482867
13	0x3d1c35fa	0.038137414
14	0x3de51121	0.11184908
15	0xbf1db597	-0.6160521
16	0xbf257667	-0.6463379
17	0x3da09ef4	0.07842818
18	0xbf104adb	-0.5636422
19	0x3ce0d570	0.027445525
20	0x3f1069dc	0.5641153
21	0x3f234a5b	0.6378533
22	0x3f36d498	0.7141814
23	0xbebcba46	-0.36860865
24	0x3ef970dc	0.48718917
25	0x3e2c3e4f	0.16820644
26	0xbf2de394	-0.6792538
27	0x3f5f28c9	0.8717161
28	0xbee10fc7	-0.4395735
29	0xbf007030	-0.50171185
30	0x3f6fafd7	0.93627685
31	0xbef4b8db	-0.47797284
32	0xbe8db5b7	-0.276777
33	0xbf109609	-0.56478935
34	0xbeae824b	-0.3408378
35	0x3f2a5692	0.66538346
36	0xbed9db95	-0.4255034
37	0xbf3eb644	-0.74496865
38	0x3dd277ce	0.10276757
39	0x3ef4b140	0.4779148
40	0xbcbcb9d2	-0.023037825
41	0xbebf93af	-0.3741736
42	0x3cf5b3d9	0.029992985
43	0x3f027310	0.5095682
44	0xbe655c47	-0.22398482
45	0x3d03b082	0.032150753
46	0x3f48e16f	0.78468984
47	0xbd0840b4	-0.03326483

attention_blocks.1.attention_blocks.2.W_q.weight f4 [4, 12]
0	0xbf12a48d	-0.57282335
1	0x3f2c5749	0.67320687
2	0xbf993782	-1.1970065
3	0xbd0b3c01	-0.03399277
4	0xbdf2321b	-0.11825963
5	0xbe831979	-0.25605372
6	0x3ed7876d	0.4209551
7	0x3ee5cd28	0.44883084
8	0x3eebc1c8	0.4604628
9	0x3ebf5d6e	0.3737597
10	0xbf153fa5	-0.5830024
11	0x3b96ebb4	0.0046057347
12	0x3ecb7757	0.39739487
13	0x3d495c6a	0.0491604
14	0xbe55185f	-0.20810078
15	0x3f2cbfd8	0.6748023
16	0xbe08e561	-0.13368751
17	0xbf2bd9d8	-0.6712928
18	0x3e666123	0.22497992
19	0x3fa445c2	1.2833788
20	0xbebd09a8	-0.3692143
21	0xbf33dd93	-0.7025997
22	0xbeba9439	-0.3644121
23	0x3df7740b	0.1208268
24	0xbe9cfa03	-0.30659494
25	0xbec94ed0	-0.39317942
26	0x3f8614a4	1.0475049
27	0x3e26a39e	0.16273353
28	0xbd17a9a6	-0.037027024
29	0x3e5dae2c	0.21648473
30	0xbe036738	-0.12832344
31	0xc0126a20	-2.2877274
32	0xbde3b156	-0.111178085
33	0x3ea73486	0.3265726
34	0x3e87e67c	0.26543033
35	0x3f30422c	0.6885097
36	0xbef66f9d	-0.4813203
37	0x3e3f2735	0.186673
38	0xbedb7f43	-0.4287053
39	0x3eba5b40	0.36397743
40	0x3ea5ca32	0.32380825
41	0xbf897551	-1.0738927
42	0x3e20d294	0.15705329
43	0x3ecc410f	0.39893386
44	0x3f8a64e7	1.0812043
45	0xbed612d5	-0.41811243
46	0xbed2f467	-0.4120209
47	0x3e9e7e82	0.30955893

attention_blocks.1.attention_blocks.2.W_v.weight f4 [4, 12]
0	0xbdb882f9	-0.09009356
1	0xbefb3b72	-0.4906879
2	0x3e9b87e0	0.30377102
3	0x3ccfa276	0.025346022
4	0xbe9708c0	-0.29498863
5	0xbe26c955	-0.1628774
6	0x3efa72f1	0.48915818
7	0x3d5d7ce5	0.054074187
8	0x3db92759	0.09040708
9	0x3e874bbb	0.26424965
10	0x3e95e7ff	0.2927856
11	0xbf014446	-0.504948
12	0x3e8346d9	0.2563999
13	0xbebb6deb	-0.36607298
14	0x3f055a48	0.52090883
15	0xbebc218c	-0.36744344
16	0xbe7eb1bb	-0.24872486
17	0xbdf9e32d	-0.122015335
18	0x3f365031	0.7121611
19	0xbd97abff	-0.074058525
20	0x3d30b8c5	0.04314496
21	0xbf47f9a4	-0.78115296
22	0xbe908b26	-0.28231162
23	0xbcb5ae62	-0.022177879
24	0xbe821082	-0.2540322
25	0xbe31bee4	-0.17357975
26	0x3ecb48b6	0.39703912
27	0xbe1f2ca8	-0.15544379
28	0xbef50c01	-0.4786072
29	0xbe2b111f	-0.1670575
30	0x3f2d7d43	0.6776926
31	0xbd0501c1	-0.032472376
32	0xbd13eaa7	-0.036112454
33	0xbe2d4b7f	-0.1692333
34	0x3d72a198	0.05923614
35	0xbe540404	-0.20704657
36	0xbb7d0c1c	-0.0038611954
37	0x3f634b9b	0.8878724
38	0xbea6c421	-0.3257151
39	0x3e4e7bf4	0.20164472
40	0xbdbb9b36	-0.091604635
41	0x3e564009	0.20922865
42	0xbe8da280	-0.2766304
43	0xbdbaef4e	-0.09127675
44	0xbe9d884e	-0.30768055
45	0x3ec3244e	0.38113636
46	0xbeb81927	-0.3595669
47	0x3e994798	0.29937434

attention_blocks.1.attention_blocks.2.W_o.weight f4 [12, 4]
0	0x3f01c128	0.5068536
1	0x3ef8a830	0.48565817
2	0x3f1ff393	0.6248104
3	0xbed5b63c	-0.41740596
4	0x3ef5b86d	0.47992268
5	0x3e9b3788	0.30315804
6	0x3ecf0177	0.40430805
7	0xbed5bdbe	-0.41746324
8	0x3e71716f	0.23578428
9	0xbd23f351	-0.040026966
10	0x3c84d52d	0.016214931
11	0x3d315faa	0.043304123
12	0xbe52bbee	-0.20579502
13	0xbe0e26d6	-0.13882002
14	0xbc917b3d	-0.01775896
15	0x3ec44b59	0.38338736
16	0xbed8e8ae	-0.4236502
17	0xbf61a82c	-0.88147235
18	0xbf58d4e5	-0.8469985
19	0x3e58a1d5	0.21155484
20	0xbf1003a5	-0.5625556
21	0xbefa53bd	-0.48892012
22	0xbed37f42	-0.41308028
23	0x3f3049e0	0.68862724
24	0x3cedd736	0.029033285
25	0x3eaab47b	0.3334082
26	0x3de76f51	0.11300529
27	0x3ca70e5f	0.020392595
28	0x3eae2072	0.3400913
29	0x3e5d405c	0.21606582
30	0x3eb161c4	0.34644902
31	0xbea24316	-0.31691808
32	0x3e58dc50	0.21177793
33	0xbdb722cc	-0.08942184
34	0x3e59c462	0.2126632
35	0xbdae42f5	-0.08508865
36	0x3ed581e8	0.41700673
37	0x3ddd99fd	0.108203866
38	0x3e760755	0.24026234
39	0xbed6548f	-0.41861388
40	0xbdbd77d0	-0.09251368
41	0x3e98e057	0.29858658
42	0x3d5d54d2	0.05403597
43	0xbd93a296	-0.07208745
44	0xbebc4229	-0.36769226
45	0xbec98cbb	-0.3936518
46	0xbe731ebb	-0.23742191
47	0x3ed56853	0.41681156

feedforward_blocks.0.layer_norm.weight f4 [13]
0	0x3fb12093	1.3838066
1	0x3fb0785f	1.3786734
2	0x3fa3f74a	1.2809842
3	0x3fbc83f2	1.4727767
4	0x3f9de105	1.2334296
5	0x3fb39e62	1.403271
6	0x3f96b137	1.1772832
7	0x3fa8a67b	1.3175806
8	0x3fa66af7	1.3001393
9	0x3faaf75e	1.335674
10	0x3fbbe0bf	1.4677962
11	0x3fd1c939	1.6389533
12	0x3fb31e13	1.3993553

feedforward_blocks.0.layer_norm.bias f4 [13]
0	0xbde97c25	-0.11400632
1	0x3d910be2	0.070823446
2	0x3e191c8e	0.14952299
3	0xbc294591	-0.010331527
4	0xbd4a285e	-0.049354903
5	0xbded5a61	-0.11589504
6	0x3e4c34d2	0.19942024
7	0xbe1cb2e3	-0.15302615
8	0x3dc4f609	0.0961724
9	0x3d7738c2	0.060356863
10	0xbc92c48c	-0.017915986
11	0x3d7a45f0	0.061101854
12	0xbe29dd7a	-0.16588393

feedforward_blocks.0.linear_layer_1.weight f4 [65, 13]
0	0x3ac6f0d0	0.0015177969
1	0x3ec5f84b	0.38665995
2	0x3dfe62f5	0.12421218
3	0xbe78937c	-0.24275011
4	0x3dd14a39	0.10219235
5	0xbd99e832	-0.07514991
6	0x3e20402d	0.15649481
7	0x3ebb19d1	0.36543134
8	0x3ea301e6	0.31837386
9	0x3e0bdbb4	0.13658029
10	0x3e933c3c	0.28756893
11	0x3eaaed59	0.33384207
12	0xbe594163	-0.2121635
13	0xbeb7d73b	-0.35906395
14	0xbd9b7aa5	-0.07591752
15	0xbb30757b	-0.0026925493
16	0x3e415fe8	0.18884242
17	0x3e8f4892	0.27985054
18	0x3ce5ba98	0.028043076
19	0x3e370746	0.17873868
20	0xbe627e9e	-0.22118613
21	0x3c857db2	0.016295288
22	0x3e3d3b87	0.18479739
23	0xbe9c42de	-0.30519766
24	0xbe0f582b	-0.13998477
25	0x3d323464	0.043506995
26	0xbecb607c	-0.3972205
27	0x3da1c8d5	0.07899634
28	0x3e9285d2	0.28617722
29	0x3d435909	0.047692332
30	0x3cfa3988	0.030545011
31	0x3d2fc6f3	0.042914342
32	0x3ea17c21	0.31540015
33	0x3e0f1b6d	0.13975306
34	0xbb9700d8	-0.004608255
35	0x3d92e88f	0.07173263
36	0x3e8279f2	0.25483662
37	0x3ee46d3c	0.4461459
38	0xbfae6841	-1.3625566
39	0xbe16c93b	-0.14725201
40	0x3e60be0b	0.21947496
41	0xbe0f8f98	-0.1401962
42	0xbe37c379	-0.1794566
43	0xbea9c698	-0.33159328
44	0x3db41947	0.08793884
45	0x3f4a9e3c	0.79147696
46	0x3edda3b4	0.43288958
47	0xbdf11ee5	-0.11773471
48	0x3ebe31d5	0.37147394
49	0x3dddff23	0.10839679
50	0x3dce9761	0.10087467
51	0xbe8d56e5	-0.27605358
52	0xbd19e6b4	-0.03757353
53	0x3c504753	0.0127123175
54	0x3de435c6	0.11143069
55	0x3ceddf78	0.029037222
56	0xbcf7461c	-0.030184798
57	0x3d714b02	0.058909424
58	0x3dad3e3a	0.084591344
59	0x3ca9b0bc	0.020714156
60	0x3d49766c	0.0491852
61	0x3dd6f408	0.10495764
62	0x3d555364	0.05208148
63	0x3d578c7c	0.05262421
64	0xbdd6d459	-0.10489721
65	0xbb47de86	-0.0030497625
66	0x3aae5141	0.0013299362
67	0x3d340d05	0.04395773
68	0x3d73b637	0.059499945
69	0x3c946a70	0.01811716
70	0x3ce008a1	0.027347865
71	0x3d3427d2	0.043983288
72	0x3c951b44	0.018201478
73	0x3d64b868	0.055839926
74	0x3d861dd1	0.06548656
75	0x3baefbc4	0.0053400714
76	0x3d171b55	0.0368913
77	0xbd8544b2	-0.06507243
78	0xbddc12d9	-0.107457824
79	0xbdadc6c5	-0.08485178
80	0xbe2fc36c	-0.17164391
81	0x3d6f04cd	0.058354188
82	0x3ddf589b	0.10905572
83	0x3e1ad30d	0.15119572
84	0x3cdbd050	0.02683273
85	0xbdb5b799	-0.08872909
86	0xbdb7c517	-0.08973139
87	0xbd9e547d	-0.077309586
88	0x3d6f0f25	0.058364052
89	0xbe1fc70a	-0.15603271
90	0x3d301fc8	0.04299906
91	0xbd071a3e	-0.03298401
92	0xbb322fe3	-0.0027189187
93	0x3d5cdaba	0.05391953
94	0x3b998f01	0.004686237
95	0xbcef1eaa	-0.029189426
96	0x3b0824e2	0.0020773937
97	0x3dba6f0c	0.09103212
98	0x3beca14d	0.007221377
99	0x388f3105	6.827902e-05
100	0x3db41e1a	0.08794804
101	0xbc86c4a9	-0.016451197
102	0x3cbb4ee5	0.022864768
103	0xbe853097	-0.26013634
104	0xbb69e78b	-0.003569099
105	0x3ccface1	0.02535099
106	0x3d7d6649	0.061865125
107	0x3d811f33	0.06304779
108	0xbcfc34cc	-0.030786894
109	0x3c9d5696	0.019206326
110	0x3da02f4f	0.078215234
111	0x3cca4db5	0.024695257
112	0x3dac589c	0.084153384
113	0x3de8d2a7	0.11368304
114	0x3c9e7ec8	0.019347563
115	0x3bc423ec	0.0059857275
116	0xbe1ade71	-0.15123917
117	0x3e95bb4c	0.2924446
118	0xbcdb9581	-0.026804687
119	0x3e66c697	0.22536694
120	0xbb922394	-0.0044598076
121	0x3ecf2d2f	0.4046416
122	0x3e3a8476	0.18214592
123	0xbe3fe785	-0.18740661
124	0x3e2ecbfb	0.1707
125	0xbac629cc	-0.0015118658
126	0xbe3eae0d	-0.18621083
127	0xbe2bbd69	-0.16771473
128	0x3dfd7f67	0.12377816
129	0xbe548020	-0.20752001
130	0x3ed790ba	0.42102605
131	0xbe5a57d3	-0.21322565
132	0x3e6e2a41	0.23258306
133	0xbe153a56	-0.14573035
134	0x3c527321	0.012844832
135	0x3e8a7e3e	0.2704944
136	0x3db079d5	0.086169876
137	0x3d964868	0.07338029
138	0xbd739e76	-0.059477292
139	0x3e497892	0.196749
140	0xbd43e53c	-0.047826037
141	0xbe859206	-0.2608797
142	0xbe6762bf	-0.22596262
143	0x3e8e06fc	0.27739704
144	0xbea82aed	-0.3284525
145	0xbd823cc4	-0.063592464
146	0x3c902cf6	0.017599564
147	0x3e1d6a8e	0.15372679
148	0x3ec098af	0.37616488
149	0xbbe1c205	-0.006889584
150	0x3e74e6d2	0.23916176
151	0xbd3fd67c	-0.046835408
152	0xbe38d9c8	-0.18051827
153	0x3e37005b	0.1787123
154	0x3dee7866	0.11644058
155	0xbea3d585	-0.3199884
156	0xbe90f2b1	-0.2831016
157	0xbd0f23b8	-0.034946173
158	0x3e77481b	0.241486
159	0x3e130b1c	0.14359707
160	0xbe87f8e6	-0.26557082
161	0xbe321459	-0.17390575
162	0x3dd88cc8	0.10573727
163	0x3d8b9759	0.06815977
164	0x3e524dd7	0.20537506
165	0x3ef190a2	0.4718066
166	0xbcaf6a3d	-0.021412963
167	0xbe287631	-0.16451336
168	0x3d049131	0.032365028
169	0xbe2d6400	-0.16932678
170	0xbe3deaf4	-0.18546659
171	0xbe767379	-0.24067487
172	0x3eaaae16	0.33335942
173	0xbe3dd057	-0.18536507
174	0x3eab78e8	0.33490682
175	0x3bbbc7ea	0.0057306187
176	0x3ea9dda2	0.33176905
177	0xbdf82c17	-0.121177845
178	0xbeae7d49	-0.3407996
179	0xbd3053ba	-0.043048598
180	0xbe1b31ab	-0.15155666
181	0x3df94ca0	0.12172818
182	0xbea4373e	-0.32073396
183	0xbd92f4ae	-0.07175575
184	0x3b0f3959	0.002185425
185	0x3eeb4e91	0.4595838
186	0xbd05fddf	-0.032712813
187	0x3efd9b19	0.49532393
188	0xbe183837	-0.14865194
189	0xbd810fb9	-0.06301827
190	0x3e73ce90	0.23809266
191	0xbe93f6c3	-0.28899202
192	0xbd9e821e	-0.07739662
193	0xbee76615	-0.4519507
194	0x3dd87655	0.10569445
195	0xbe6fbcd8	-0.23411882
196	0x3e809531	0.25113824
197	0x3ed2f474	0.41202128
198	0x3e3c1763	0.18368296
199	0xbdfd9c51	-0.123833306
200	0xbe242155	-0.1602834
201	0x3e20fb21	0.15720798
202	0xbdfc2674	-0.12312022
203	0x3f0b304d	0.54370576
204	0x3eda8081	0.42676166
205	0x3e485d56	0.19566855
206	0x3ef59fed	0.47973576
207	0xbf35f1dc	-0.71072173
208	0xbc077af2	-0.008269059
209	0x3f253caf	0.6454572
210	0x3f1d20ab	0.6137797
211	0xbce8f687	-0.028437866
212	0xbe5222de	-0.20521113
213	0xbd9bce9c	-0.07607767
214	0xbcd07b6f	-0.025449483
215	0x3f043d27	0.5165581
216	0x3f5f646a	0.87262595
217	0x3dcb154b	0.09916171
218	0xbce2dbd9	-0.027692722
219	0xbe88d7ca	-0.26727134
220	0xbf0bee0e	-0.5466012
221	0x3e40f60c	0.1884386
222	0x3e5fe297	0.21863781
223	0x3e554390	0.20826554
224	0xbd2997c8	-0.041404516
225	0x3e783f13	0.24242811
226	0x3ed68f3f	0.41906163
227	0xbe53d3b4	-0.20686227
228	0x3e4dba15	0.20090516
229	0x3edce97a	0.43146878
230	0x3e8bc7f4	0.2730099
231	0xbeb3a6ba	-0.3508814
232	0xbe1ed540	-0.15511036
233	0xbe886017	-0.2663581
234	0xbe1a48ca	-0.1506683
235	0x3d4c8bdd	0.04993807
236	0xbd16316e	-0.036668234
237	0xbd9c5179	-0.07632727
238	0x3c56db51	0.013113813
239	0x3e925df9	0.2858732
240	0xbe06a2d2	-0.13148049
241	0x3e2c0e05	0.16802223
242	0x3dc0f339	0.09421391
243	0xbe8260f1	-0.25464585
244	0xbe41a2db	-0.1890978
245	0xbee0ec14	-0.43930113
246	0x3def8b1b	0.11696454
247	0x3ded17d7	0.11576813
248	0xbd2b921b	-0.041887384
249	0x3e189b5c	0.14903015
250	0x3eed3e0f	0.4633641
251	0x3e7f3c62	0.24925378
252	0x3f066d72	0.5251075
253	0xbcce948a	-0.025217313
254	0x3e68cd3a	0.22734538
255	0xbe1a5322	-0.15070775

feedforward_blocks.0.linear_layer_1.bias f4 [65]
0	0xbe40be42	-0.18822578
1	0x3d14fa7c	0.036371693
2	0xbeb39a13	-0.35078487
3	0xbe82e83c	-0.25567806
4	0xbe26ed2c	-0.16301411
5	0xbdd73712	-0.10508551
6	0xbd2bebbc	-0.04197286
7	0xbe111fb5	-0.14172252
8	0xbe43cf7f	-0.19122122
9	0x3d4e316c	0.0503401
10	0xbcfecd5a	-0.031103779
11	0x3e3e7ace	0.18601534
12	0xbb891272	-0.004183107
13	0xbd27dbdd	-0.040981162
14	0xbd712ee2	-0.0588826
15	0xbe1f0417	-0.15528904
16	0xbee1164d	-0.43962327
17	0xbddf7121	-0.109102495
18	0x3cb245f7	0.021761877
19	0xbd6319c1	-0.055444483
20	0xb9dcef0e	-0.0004213978
21	0xbe9c0d31	-0.30478814
22	0xbe3162bc	-0.1732282
23	0xbbf828ce	-0.0075732237
24	0xbe6d61a7	-0.23181783
25	0xbdf6f741	-0.12058879
26	0xbead4249	-0.33839634
27	0xbe1f0172	-0.15527895
28	0xbd66d623	-0.05635656
29	0x3d95778c	0.072981924
30	0xbe9457d2	-0.28973252
31	0x3cdd913a	0.027046788
32	0xbddb6b21	-0.107137926
33	0xbec71e36	-0.38890237
34	0xbe049574	-0.12947637
35	0xbde6a419	-0.11261768
36	0xbdd8d194	-0.10586849
37	0x3cf4e636	0.02989493
38	0x3d913045	0.07089285
39	0xbc04e99b	-0.0081123365
40	0xbde5606c	-0.11200032
41	0x3c7b1342	0.015324416
42	0xbe46f944	-0.19431025
43	0xba6e57b5	-0.0009092049
44	0xbc490da1	-0.012271316
45	0x3d00ea8d	0.031473685
46	0xbe1636dd	-0.14669366
47	0x3da56888	0.080765784
48	0xbce00f01	-0.027350904
49	0xbbce579f	-0.0062970663
50	0xbe68cf72	-0.22735384
51	0x3d3d5fc1	0.046233896
52	0xbcf7b386	-0.03023697
53	0xbe18e066	-0.14929351
54	0xbd918f5e	-0.07107423
55	0xbdafb325	-0.08579091
56	0xbedeb7ef	-0.43499705
57	0x3cbbe548	0.022936478
58	0x3d9b65b7	0.0758776
59	0xbe378e62	-0.17925408
60	0xbebb4f14	-0.3658377
61	0x3ae5a416	0.0017520215
62	0xbe4a3074	-0.19745046
63	0x3be2cc1a	0.0069213035
64	0xbe6e763c	-0.2328729
