testing/trained_model.pth (torch, 76924 bytes, 39 tensors)

inp_embedding.weight f4 [115, 6]
00000000: c75b 30bf dbf5 83bd adf7 b73e 0664 1e3e
00000010: e047 013e 9fc8 1bbf 7369 1ebf 0fe9 d0bd
00000020: 9666 fe3d 312c 493d 90e0 cd3e 2417 04bf
00000030: 8c21 193c e63e d0bd fb4e ca3d f57f 72bd
00000040: fd9c 323f c629 60bf b75b 0ebe 1a74 033e
00000050: 70d1 9e3e f39f adbc 04da 72be 1852 34bf
00000060: 8067 c1bd 244d 8c3e f0f9 f3bd ed1b 78bd
00000070: b91e a6bd 3471 853e 6629 e1be 0494 c03e
00000080: 335e b13e caa4 e8bd 1bb5 65bd ef15 cebe
00000090: db84 b53d 2159 583e 3c99 df3d ab75 3d3e
000000a0: 967f 543e 9458 edbd e7c6 9bbe ed66 1b3e
000000b0: d9e6 1e3e e0a9 acbe 5e43 dc3e e493 0ebf
000000c0: 1fe0 b93c 7549 56be 1f0f 093e cee9 30bc
000000d0: ae48 093d 2e6d 73bf b162 0abf c1dd 18be
000000e0: c3c7 e13e e477 62bd b072 d53e 04fa edbc
000000f0: d1f2 d7be 5e73 a4bd 022c d33d c3b3 7d3e
00000100: 85a8 4f3e dc29 aebe efa1 b1be d2e6 163d
00000110: ba86 32be 0f47 8c3c 3cae 49be 6c7c 543c
00000120: c3ff 89bf ba7e ad3e be7b 933e a185 713e
00000130: 7f2c a33d d8fb b5be d86a f4be 6801 873e
00000140: 28cb 593e af5c 313b 1ab7 3bbe 64ba a3be
00000150: 3be6 61be ada1 803e 35d7 1c3c f31e 493e
00000160: dda9 fcbe 06cc 333e 114b 663d 22af 9e3e
00000170: 563d d43d 0834 ae3d 38de f2be f129 503d
00000180: 0bd9 6d3c 3adb 103f 7593 00be 5aa3 c73d
00000190: 1d88 95bf 129b 643d 4ba0 6fbe 4ab7 8d3e
000001a0: 05b1 21bd 6c20 003e 2e40 19be 358e b93d
000001b0: db70 223e 6756 4a3e c614 0bbf af1f 603e
000001c0: a238 bfbe fe29 973e ba21 353e 52b3 d83e
000001d0: f046 573e 8a4c 303e 9589 89be 4d71 333d
000001e0: e7b6 85be 6a30 cd3c f016 003e 9f3f 02bf
000001f0: b237 e53d 8b41 c2be 1b20 94bd 9144 0c3d
00000200: 1e59 893e 4172 9a3e 7b3b 2dbe bebe 5b3e
00000210: ebe6 babe 74bd 173e 81b1 d03e a00f 07bd
00000220: da0d d53e 5919 3ebe 748e f23c 97ff c23c
00000230: 1251 3a3e b93c 16bd c8df be3d 74e3 c8bd
00000240: c08f f23c 9400 c33c 2a51 3a3e d23b 16bd
00000250: 0de0 be3d 06e3 c8bd b3e6 babe a1bd 173e
00000260: a3b1 d03e 040e 07bd fd0d d53e 1219 3ebe
00000270: c46c 3ebf dd29 5c3e 951b 4a3f bb40 4e3d
00000280: e3bb 233e 825c 3e3e e8b5 563b 7473 0fbf
00000290: 310e c33d e96c 383e d009 5d3e 24c1 e0be
000002a0: 1280 88bd 4b6e 73bf 2227 343f 202e 133f
000002b0: b818 9abe 13c1 f5be fcc3 3d3e 6bff 0c3f
000002c0: e66c 523f d6a3 3bbe 140f 30bd 711e efbe
000002d0: e499 1d3c 1b42 aebd 2cf9 3d3d 95c1 3ebe
000002e0: 8e4f 07be 3de6 c13d 336a ac3e ba4a 8b3d
000002f0: 2078 38be 6c24 20bf be32 2ebb 51f5 b93e
00000300: fa5d 89bf 9856 c9be 6db8 143e 74c7 fcbe
00000310: a9e9 c8be df1c 6ebe ff5c d0be 31a2 fd3d
00000320: a6f5 f63e 4e32 1b3e 3fe7 bc3e 8f1c 70be
00000330: ba8f f23c 8c00 c33c 2a51 3a3e dc3b 16bd
00000340: 0ae0 be3d 0ce3 c8bd d4b2 2e3f fcc1 7c3d
00000350: e2a4 15be 169d ebbe e4c0 ba3e bd06 a7be
00000360: 6700 71bd cb54 37be d2ce 653e f2a3 883d
00000370: 0947 89be 32b6 343e de91 473b ddfb 6bbd
00000380: bc63 7a3e e87d a6bd ebbc d5be 9ac0 b7bd
00000390: 65fd 3c3e 3e02 0d3f a66c 523f 5dce 3bbe
000003a0: 502f 30bd 5d23 efbe 2ea8 8d3e d1ba 43be
000003b0: f657 4b3e 71ab 78be d72a 8dbe 8f12 a7bd
000003c0: dbb7 87be 9429 91bd 98e5 663d ec57 b53e
000003d0: 8932 253e a61f 0fbf 2c40 51bf 09b6 fc3c
000003e0: 6f1c c03e 4dfb 25be e1f9 c43b b191 a8bd
000003f0: 663f 98bd 8cb0 44be eb5c ddbc 52ca 84be
-0.6889004 -0.064433776 0.3593115 0.15467843 0.12625074 -0.60853 -0.6187965 -0.102007024
0.124219105 0.04911441 0.4021039 -0.5159781 0.009346377 -0.10168247 0.098783456 -0.05920406
0.69770795 -0.8756374 -0.13902174 0.12837258 0.31019163 -0.021194434 -0.23715979 -0.70437765
-0.09443569 0.27402604 -0.11912906 -0.060573507 -0.08111329 0.2606293 -0.43976897 0.37612927
0.3464218 -0.11359556 -0.05608092 -0.4025111 0.08863231 0.2112775 0.10917899 0.18501918
0.20751795 -0.115891606 -0.30425188 0.15175982 0.15517749 -0.33723354 0.43020147 -0.55694413
0.022689877 -0.20926459 0.13384674 -0.010797931 0.03351658 -0.9508847 -0.5405684 -0.14928342
0.4409772 -0.055290118 0.41689062 -0.02904988 -0.42177442 -0.08029817 0.10311128 0.24775605
0.20279129 -0.3401631 -0.34693858 0.03684122 -0.17434207 0.017123727 -0.19695371 0.012969118
-1.0781177 0.33885747 0.28805345 0.23586132 0.07967471 -0.35543704 -0.47737765 0.2636826
0.21268904 0.00270633 -0.18331566 -0.31978142 -0.22060482 0.2512335 0.009572794 0.19640712
-0.49348345 0.17558298 0.056223933 0.3099299 0.103632614 0.08506018 -0.47435164 0.05082125
0.014517079 0.56584513 -0.1255625 0.09747954 -1.1682163 0.05581195 -0.2340099 0.276789
-0.03947546 0.12512368 -0.14965889 0.09060327 0.15863363 0.19759522 -0.5432857 0.21887086
-0.37347895 0.29524225 0.17688647 0.4232431 0.21023154 0.17216697 -0.2686278 0.043809224
-0.26116106 0.0250475 0.1250875 -0.5087833 0.11192264 -0.3794063 -0.07232686 0.034245078
0.26825804 0.30165294 -0.16917221 0.21459481 -0.365043 0.14818364 0.40760425 -0.032973886
0.4161213 -0.18564357 0.029608943 0.023803515 0.18194988 -0.036679003 0.09320027 -0.09809008
0.029609561 0.023803987 0.18195024 -0.036678143 0.09320078 -0.09808926 -0.36504135 0.14818431
0.40760526 -0.03297235 0.41612235 -0.18564251 -0.74384713 0.21500345 0.78948337 0.0503547
0.15989642 0.18589976 0.0032762233 -0.5603554 0.09524191 0.18010296 0.21585774 -0.43897355
-0.066650525 -0.9509017 0.7037221 0.57492256 -0.30096984 -0.47998866 0.18531793 0.55077237
0.82197416 -0.18324217 -0.04298313 -0.46702912 0.00961921 -0.08508702 0.046380207 -0.18628533
-0.13213941 0.094677426 0.33674774 0.06801362 -0.18014574 -0.62555575 -0.0026580538 0.36319974
-1.0731804 -0.39323878 0.14523478 -0.4937092 -0.3924077 -0.23253201 -0.4069595 0.12384451
0.4823429 0.15155908 0.36895177 -0.23448394 0.02960955 0.023803972 0.18195024 -0.03667818
0.09320076 -0.09808931 0.6824162 0.061708435 -0.14613679 -0.46018285 0.3647529 -0.32622328
-0.058838274 -0.1790344 0.22442177 0.06671895 -0.26812008 0.17647627 0.0030451934 -0.057613242
0.24452108 -0.081294835 -0.41745695 -0.08972283 0.18456037 0.55081546 0.82197034 -0.1834044
-0.04301387 -0.46706668 0.27667373 -0.19114234 0.19857773 -0.2428415 -0.27571747 -0.08157837
-0.26507458 -0.070880085 0.0563713 0.35418642 0.16132559 -0.55907667 -0.81738544 0.03084852
0.37521693 -0.16209145 0.006011233 -0.082309134 -0.07433967 -0.19207972 -0.027021846 -0.25935608

attention_blocks.0.attention_blocks.0.layer_norm.weight f4 [6]
00000000: d4fd ea3f 6add e33f aa90 c33f 3c44 b13f
00000010: 594d e73f e96d fd3f
1.8358712 1.7801945 1.5278523 1.3848948 1.807048 1.9799167

attention_blocks.0.attention_blocks.0.layer_norm.bias f4 [6]
00000000: 1ddc f03e 85c1 a13e df45 bebe d980 303e
00000010: 47fe 17be 28e7 1a3e
0.47042933 0.31592956 -0.37162682 0.17236651 -0.14843093 0.15127242

attention_blocks.0.attention_blocks.0.W_k.weight f4 [3, 6]
00000000: 0b8f 2ebf e6f2 0dbe a9d1 233f e273 3b3f
00000010: f746 8fbf 4db1 a43c b129 f5be 3f99 503f
00000020: 887f 723f 1f2e 0bbf 68a6 7bbf e382 fcbe
00000030: 7d3d 37bd 6ab0 773f c1c5 a13b 50d4 253f
00000040: 5d75 88bf e4a8 81bf
-0.68187016 -0.1386219 0.6399179 0.732237 -1.1193532 0.020104075 -0.4788337 0.81483835
0.9472585 -0.5436725 -0.9830079 -0.4931861 -0.044736374 0.9675356 0.004936904 0.6477709
-1.0660816 -1.0129666

attention_blocks.0.attention_blocks.0.W_q.weight f4 [3, 6]
00000000: d07e 15be f0b2 6bbf 9de0 c13e bd41 acbe
00000010: 1e7d 453f 8537 42bf 9ac3 4dbf 9440 62be
00000020: b976 533f 188d 03bd f9c6 52bd 6e15 7fbf
00000030: 8f62 bdbf 760c 6b3e 216c da3e 0457 38be
00000040: 36ae e53e 0053 36bf
-0.14599156 -0.9206991 0.3786668 -0.33643904 0.7714404 -0.75865966 -0.8037659 -0.22094947
0.8260303 -0.03211698 -0.051459286 -0.99642074 -1.4795703 0.22953972 0.4266062 -0.18001944
0.44859475 -0.712204

attention_blocks.0.attention_blocks.0.W_v.weight f4 [3, 6]
00000000: ae29 603d e8cd 1fbc ad37 94bd e48b 4c3e
00000010: 7951 b23d 2a45 91bc f8b5 a83d f2a2 503e
00000020: 62cf 64be 1951 7d3e 02af c1bd 7294 aa3d
00000030: d23e b6bc a178 61be 5b64 e53d f63d 78be
00000040: d461 153c e208 233d
0.05472725 -0.009753682 -0.07237182 0.19975239 0.08706946 -0.017733175 0.08237833 0.20374659
-0.22344735 0.24737968 -0.09457208 0.08329095 -0.022246752 -0.22018673 0.11200782 -0.24242386
0.009117562 0.039803393

attention_blocks.0.attention_blocks.0.W_o.weight f4 [6, 3]
00000000: 409b 13bc fb97 babd add8 c33d ddab cdbc
00000010: 2023 8fbc e384 94bd 62a4 33bb d5de de3c
00000020: 48d1 9abd 04a1 c3bd 10b9 5c3d fb43 b33c
00000030: f490 5fbd edfe d4be 3cf0 2a3e a8c1 d9bd
00000040: 43cc df3c 3e66 933c
-0.009009182 -0.09111019 0.09562812 -0.025106365 -0.017472804 -0.07251909 -0.0027411212 0.027205864
-0.075594485 -0.09552196 0.053887427 0.021883002 -0.054581597 -0.41600743 0.16693205 -0.1063264
0.02731908 0.017993089

attention_blocks.0.attention_blocks.1.layer_norm.weight f4 [6]
00000000: 04af f63f 1020 973f c64b 0040 bdb5 d53f
00000010: 1342 d33f 9a96 1240
1.927216 1.180666 2.0046248 1.6696087 1.6504539 2.290442

attention_blocks.0.attention_blocks.1.layer_norm.bias f4 [6]
00000000: 71d2 75be b9f3 9e3e f01a 3b3e cdc9 ab3e
00000010: 8442 a9be e2c2 6dbe
-0.24006058 0.3104532 0.18271995 0.335524 -0.3305856 -0.23218873

attention_blocks.0.attention_blocks.1.W_k.weight f4 [3, 6]
00000000: 7f4d 03bf 55c4 1b3e 9e32 843f 4f83 503e
00000010: ae87 bebe af69 bcbf 7d73 5d3f 3440 80be
00000020: f5ef 40bf c90e 57bf 17a4 303f cdc1 fc3e
00000030: 0ba4 49bf 34d2 2c3f 3f40 9c3f 48f5 4ebf
00000040: 007b 43bf fde5 91bd
-0.51290125 0.15211613 1.0327947 0.2036259 -0.3721289 -1.4719752 0.86504346 -0.25048983
-0.75366145 -0.84006935 0.6900038 0.49366608 -0.78765935 0.67508245 1.2207106 -0.8084302
-0.7635956 -0.07123945

attention_blocks.0.attention_blocks.1.W_q.weight f4 [3, 6]
00000000: a722 363f 0e8c 303d 1230 fd3e 8a60 43bf
00000010: fba1 1e3f 570f 91bf 110c 2b3f c121 ed3d
00000020: 4908 26bf 7596 1c3f 0455 49bf e183 433f
00000030: 3357 17bf dae4 053e ebca 5a3f ab21 74be
00000040: 1a7d b7be 212e 82bf
0.71146625 0.043102317 0.49450737 -0.7631918 0.6196591 -1.1332806 0.66815287 0.11578704
-0.6485639 0.6116708 -0.7864535 0.76373106 -0.5911743 0.13075581 0.8546588 -0.23840968
-0.35837632 -1.0170327

attention_blocks.0.attention_blocks.1.W_v.weight f4 [3, 6]
00000000: f345 2e3b df90 3c3b b9ae 0e3b 2011 a03b
00000010: f153 733b 514d f63a 5763 84bc 501d aebc
00000020: f9aa 4fbc 6a5a adbc b5e4 98bc 9d43 57bc
00000030: 963e b9bb 652f 34bc f10b 83bb 93e3 d3bb
00000040: 1ec9 dfbb e931 c5bb
0.0026591986 0.0028772873 0.0021771623 0.004884854 0.003712889 0.0018791353 -0.01616065 -0.021254212
-0.01267504 -0.021161277 -0.018663744 -0.013138679 -0.005653213 -0.010997628 -0.0039992263 -0.006466338
-0.006829395 -0.0060179126

attention_blocks.0.attention_blocks.1.W_o.weight f4 [6, 3]
00000000: ba4e d238 d92c b6ba 7a2d 59ba c5a3 90b7
00000010: d0b4 0d39 6e96 bd39 6cf4 74b8 38f3 9739
00000020: f982 7e3a 6016 5d35 0012 813a 77a1 9a3a
00000030: 5f07 80b9 54be 543b 3979 413b 1119 f437
00000040: 5318 293b 770a be39
0.00010028244 -0.0013898864 -0.00082846696 -1.7242399e-05 0.00013514166 0.00036160968 -5.840177e-05 0.00028982176
0.00097088475 8.2361476e-07 0.0009847283 0.0011797388 -0.00024419554 0.0032462077 0.0029521717 2.909874e-05
0.0025801852 0.0003624742

attention_blocks.1.attention_blocks.0.layer_norm.weight f4 [6]
00000000: 3951 0340 8fc9 0140 7435 0740 4515 1740
00000010: 70b1 bc3f 22ca ca3f
2.0518324 2.0279272 2.1126375 2.3606732 1.474165 1.5842936

attention_blocks.1.attention_blocks.0.layer_norm.bias f4 [6]
00000000: 2051 07bf 2317 e4bd 14cc 97be 8ba4 c93d
00000010: 367e 2e3f ae64 03bf
-0.5285816 -0.111372255 -0.29647887 0.09845837 0.6816133 -0.513255

attention_blocks.1.attention_blocks.0.W_k.weight f4 [3, 6]
00000000: 8a11 e8be de82 41bf fdcb 2c3f 80f8 8e3f
00000010: b40a 96be 5b0d 92be 4c98 6cbf 787d d83e
00000020: fc5c e8be 46fe f23e 7cf6 ad3e 4cf2 febe
00000030: bd82 87be 2325 bb3d 1362 12bf cad9 8d3f
00000040: ee03 1b3d 41f5 acbe
-0.4532588 -0.7559031 0.6749876 1.1169586 -0.2930504 -0.28525814 -0.92419887 0.42283225
-0.4538344 0.4745962 0.33977115 -0.49794233 -0.26466933 0.09137943 -0.571809 1.1082089
0.037845545 -0.33780864

attention_blocks.1.attention_blocks.0.W_q.weight f4 [3, 6]
00000000: c88f eabf 71db 433f 965c a83f d8f6 cdbe
00000010: 7af6 1fbe 1ddb 23bf 6bf5 10bf a754 63bf
00000020: 5a82 56bc 6b23 b8bf 3719 6d3f 62ff 313f
00000030: 8684 9abf 5cc5 65bd 3e08 e33e f6e5 8abf
00000040: 03bb f3bd 4f59 6e3f
-1.8325129 0.76506716 1.3153255 -0.4022739 -0.15621367 -0.64006215 -0.5662448 -0.88801044
-0.013092602 -1.4385809 0.926166 0.6953031 -1.2071693 -0.05609642 0.44342226 -1.0851429
-0.11900904 0.93105024

attention_blocks.1.attention_blocks.0.W_v.weight f4 [3, 6]
00000000: 608b 5cbe da53 963f d1d8 4dbf f0a7 8e3f
00000010: 19a0 cdbe 1858 cabd 852a 50bf 598d 643e
00000020: d60c 533f 07c4 89bf 6f25 e33e e1a6 42bf
00000030: fcb4 813e 5afa a6bf bf6f 6f3f 3c35 a9bf
00000040: f007 d83e 81bf 363e
-0.21537542 1.174434 -0.8040896 1.1145 -0.40161207 -0.09880084 -0.8131488 0.22319545
0.8244146 -1.0762948 0.44364497 -0.76035887 0.25333393 -1.3045151 0.93529886 -1.3219371
0.42193556 0.1784649

attention_blocks.1.attention_blocks.0.W_o.weight f4 [6, 3]
00000000: fff7 4c3c 86fe 8f3e f7f3 253e a60f 5abf
00000010: a695 a63e 5a2d 633f 29a0 cbbe 6f94 89bd
00000020: 4b6f 053f 7463 93bf a490 0c3f ae06 973f
00000030: 09d2 92bf 1d55 8dbd 73b9 9c3f ddb0 d1bd
00000040: c15c b93e 6743 a83e
0.012510299 0.28123873 0.16206346 -0.8518013 0.32536048 0.88741076 -0.3977063 -0.067177646
0.52122945 -1.1514726 0.54908204 1.1798913 -1.1470348 -0.06901 1.2244095 -0.10238812
0.36203578 0.32863924

attention_blocks.1.attention_blocks.1.layer_norm.weight f4 [6]
00000000: fa99 b53f 3b4e d03f b092 b63f 9674 c83f
00000010: 7405 d53f ca61 c13f
1.4187615 1.6273874 1.4263515 1.5660579 1.6642289 1.5107968

attention_blocks.1.attention_blocks.1.layer_norm.bias f4 [6]
00000000: 6bad 2c3e 642c 95be 41df 443e a54f 7dbe
00000010: 1177 123e eae5 2f3e
0.16863029 -0.2913543 0.1922579 -0.24737413 0.14303233 0.17177549

attention_blocks.1.attention_blocks.1.W_k.weight f4 [3, 6]
00000000: 8e62 afbe 67e8 ec3e 25da cfbe d244 e43e
00000010: e3f8 0cbd 1671 59be 8547 4fbe 6d18 b03e
00000020: 1dcc bcbe 5785 df3e 2284 443e cf82 0fbf
00000030: 6e4f bebd 3069 4c3f d463 f8be 821a 503e
00000040: aa69 33bd 19cb 24be
-0.3425488 0.4627106 -0.4059612 0.44583756 -0.034417044 -0.21234545 -0.20242126 0.34393635
-0.36874476 0.43656418 0.1919103 -0.56058973 -0.09292494 0.79848003 -0.48513663 0.20322612
-0.04380194 -0.160931

attention_blocks.1.attention_blocks.1.W_q.weight f4 [3, 6]
00000000: b2b8 e5be 191e 80be 6955 c73e 48c5 6dbf
00000010: 1d80 003f 0783 58bf 4a7d 00c0 94a9 ecbd
00000020: abae 303f 3d4d ecbf c7b3 a23e 33be 723e
00000030: 9d4d e8bd 48b7 d4be a418 963d 2285 0fbf
00000040: ce09 213f e8d9 7dbd
-0.44867474 -0.25022963 0.3893235 -0.9287915 0.50195485 -0.8457493 -2.007647 -0.11555782
0.6901652 -1.8461071 0.31777784 0.23705368 -0.113429286 -0.41546082 0.073289186 -0.5606252
0.62905586 -0.06197539

attention_blocks.1.attention_blocks.1.W_v.weight f4 [3, 6]
00000000: 0ce0 f93c 3390 b13f 65a2 06bf 7b01 633e
00000010: 36e7 84bf b45f e63e 81d5 22be a70b a2bf
00000020: cac3 2d3f 7247 c7be 8d2c 8d3f f2a6 08bf
00000030: b626 39be d58a 4b40 62cd 23bf fffa 6f3e
00000040: 5b11 15bf 718e 10bf
0.030502342 1.3872131 -0.52591544 0.22168534 -1.038306 0.4499489 -0.15901758 -1.2659806
0.67876875 -0.38921696 1.1029221 -0.5337974 -0.18081173 3.1803486 -0.63985264 0.23435591
-0.5822961 -0.5646735

attention_blocks.1.attention_blocks.1.W_o.weight f4 [6, 3]
00000000: ed47 2d3e 0ba7 39be 1e43 e33b 6592 98bf
00000010: 7161 673f d712 05c0 9284 373f 95e8 5cbf
00000020: 29ed 1d3f addf b2bf e527 873f 6843 c5bf
00000030: b428 a1bf 897e 683f 4c75 70bf d8cf 9c3e
00000040: 16d1 cebe 2e55 d4be
0.16921969 -0.18130128 0.006935491 -1.1919676 0.9038306 -2.079275 0.7168666 -0.8629239
0.6169 -1.397451 1.055905 -1.5411196 -1.2590547 0.9081808 -0.9392898 0.30627322
-0.40393895 -0.41471237

feedforward_blocks.0.layer_norm.weight f4 [7]
00000000: 5e16 f73f 17a6 f63f 20bd c53f 6d0f c33f
00000010: 2000 b83f 393b b93f cde6 8c3f
1.9303701 1.9269437 1.5448341 1.5239083 1.4375038 1.4471198 1.1007935

feedforward_blocks.0.layer_norm.bias f4 [7]
00000000: 4c55 c9bc 5dfd 6ebe 5bb4 84be 057b 9e3a
00000010: 15b2 8abe 388e 67bd 2efb 96bd
-0.024576806 -0.23338838 -0.2591885 0.0012091106 -0.2708899 -0.056532115 -0.073721275

feedforward_blocks.0.linear_layer_1.weight f4 [35, 7]
00000000: 391b ff3d dd77 313f 1ff0 f3bd e7b4 863d
00000010: f89f aabe 3587 4dbc 4c05 5b3d 98fa 77be
00000020: b40a c4be a728 96be 1c9b 58bd 8d00 9b3d
00000030: aa07 dc3e 9ec5 a53d 2a9e f83d f722 e13d
00000040: bf2a 1abe 75c7 193f 04c1 a73d 80e4 c73d
00000050: 6ec6 8abe 098b 633c b9b2 3f3b d0c6 553c
00000060: 81e0 9f3c 328e 093d eff4 703d ba79 8ebc
00000070: 1932 853e 9500 09be c06a 95be 53f7 283f
00000080: 0b2f d63d 0547 133f e535 33bf 12ee 68be
00000090: ab63 dabe a178 043e ddae b3be 9f51 7e3e
000000a0: 9e8e d13e 79b6 ad3b 1fa0 813d 6970 de3e
000000b0: ceed 35be 7558 963e b859 143e 8c87 e93d
000000c0: 121a 06bf 0baf c0bd 62d6 c43e e8c5 60bc
000000d0: af1c 463e 96bc 0dbd b55a 883e 2d83 99be
000000e0: c320 bf3e 2deb aa3d 8d6f e0bd a906 7ebd
000000f0: dddb 933d e553 073f 586a 6ebf 9cba 02be
00000100: ce0c 2b3d 1920 4fbe 3b8b db3d 005b ad3e
00000110: 82e3 533f 5e6e c5be 2cb1 c33e 2036 ca3e
00000120: befb 9cbe 66e6 babe 3bc0 ff3c 2376 a03e
00000130: decc ccbd fd9d f73e dc04 283e fd94 f53c
00000140: 8e75 c3bc 2f82 19be 50d5 773e 98e2 64be
00000150: 84b3 483d 1c33 3c3d 5e6c 313c 92d5 a03c
00000160: 29d2 ed3c f546 093d c2d0 30bc 1206 033d
00000170: a28c 8b3e b6c0 5f3c ce4c 01bf 45fe 9f3e
00000180: 5aae be3e e421 00be 5e43 05be 43f9 8c3b
00000190: 53c1 37be e877 e6bb d04f 90bd f3de 97bc
000001a0: b6b4 3c3d 7dc4 c1be 7903 a53b c915 bbbe
000001b0: 3e5b ffbb 058a 653d 6209 a33e 6364 7f3d
000001c0: f605 b8be 851d a0be 1fd1 f2be 7bbb 053e
000001d0: 7a13 db3d 0e83 d13e 5f40 77bc a55f f23d
000001e0: e20b 313f 7142 14be 81ff b3be dfdb 153f
000001f0: d52c e13d fbcd 2ebf 888a b9bd 1d5c f13e
00000200: 7b0a eabd 80ef cd3d 5795 97bc 3993 a73e
00000210: dc61 d7bd 34b5 82bd c524 ce3e ba1d efbd
00000220: 39a0 213f ae98 47be 9e44 903e 37d7 b3be
00000230: 87cb f9be 4716 3bbe 86a0 943d e606 a1bd
00000240: 3679 df3d 06ba a23e 9193 503d 8d17 b83e
00000250: d678 533e ba5d afbe 1f8e 093c 58c3 313e
00000260: 3f23 fe3c 61f0 2bbf 40fa 85be 6f9f a7bd
00000270: 260b f5bb 7218 c0be 99c7 943d 1cf5 043e
00000280: 62b0 0c3e 21cf b4bd 7479 373f e82d 38be
00000290: cde3 033e b063 babe 5ce1 373e e640 843b
000002a0: e658 193f ea65 c9bd 13a5 263f 7b7b 983e
000002b0: bd05 b2bd 39d8 7d3e ce8c c5be f69d 853d
000002c0: 785e b33c 07bf 093d f434 e93c 2da6 7f3d
000002d0: c1c5 4d3d 94fc e3bc 4063 59be e8c3 3dbe
000002e0: 8ec6 143e 9915 e6be 6dae ac3e eace 4ebe
000002f0: f292 ef3d d55e 7ebe 4b12 003f 32e8 24be
00000300: 96fa 073f dbec 68be 1419 ce3e f37a 99bd
00000310: 20ab f2be f728 36be 5f42 223e 6971 d4bd
00000320: db65 ae3e 05c7 bf3d 7771 a63c f4eb 8b3e
00000330: 2d51 44be f77f b4be 049c b13d 0354 2d3e
00000340: 42f2 be3e beda 30bf c2ea 5a3e 20a7 1dbe
00000350: 9c1f 593f 3fda d0ba a21b 4cbb c8d1 833e
00000360: 2801 d1be 9ba0 c03d 2930 823e 9405 9d3d
00000370: ba5f ad3e 74af 2e3e 966c 6c3e b8b1 9fbf
00000380: eee3 99be 4bd5 b93d 2865 213e d28a aabc
00000390: ea4e e9be 5638 ca3d 2f72 743d 8276 073f
000003a0: 0868 443d 2d5b 0dbe a106 883e dbd3 c53e
000003b0: 03a2 273d a1fe 8ebf 4a04 4b3d 0c4e bc3c
000003c0: 49f0 31bc 1b59 cd3c 0228 0e3d 80f3 cb3c
000003d0: 478d cebc
0.12456364 0.6932352 -0.11911034 0.06577473 -0.3332517 -0.012544443 0.05347185 -0.24216688
-0.38289416 -0.2932789 -0.0528823 0.075684644 0.42974597 0.08094333 0.121395424 0.10992997
-0.15055369 0.6006997 0.08191112 0.0976038 -0.27104515 0.013888129 0.0029250814 0.013047889
0.019516231 0.033582874 0.058827337 -0.017392028 0.26014784 -0.13379128 -0.29183006 0.66002387
0.104581915 0.5753024 -0.7000411 -0.22747067 -0.42654166 0.12936641 -0.35094348 0.24835823
0.4092912 0.0053012935 0.06329369 0.43445137 -0.17766497 0.29364362 0.1448735 0.11402807
-0.5238353 -0.09408387 0.3844481 -0.0137190595 0.1934688 -0.034603678 0.26631704 -0.29982892
0.37329683 0.083456375 -0.109587766 -0.06201807 0.0721967 0.5286239 -0.9313102 -0.12766498
0.04176026 -0.20227088 0.107199155 0.3385849 0.82769024 -0.38560766 0.3822111 0.3949442
-0.30660814 -0.36503905 0.031219592 0.3134013 -0.10000013 0.48362723 0.16408104 0.02997827
-0.023859765 -0.14991067 0.24202466 -0.22352064 0.048999324 0.04594718 0.010829059 0.019633088
0.029030876 0.033514936 -0.010791959 0.03198821 0.27255732 0.013656786 -0.5050782 0.3124868
0.37242395 -0.12512928 -0.1301398 0.0043021752 -0.17944841 -0.007033337 -0.07046473 -0.018538928
0.046070777 -0.3784522 0.0050358144 -0.36540058 -0.0077928593 0.05603983 0.31843096 0.062351596
-0.35942048 -0.31272522 -0.47425172 0.130598 0.10697074 0.409203 -0.015091031 0.11834649
0.69158757 -0.1447847 -0.35155872 0.5853862 0.10994879 -0.6828305 -0.09059626 0.4714059
-0.1142778 0.100554466 -0.018503828 0.3272951 -0.10516712 -0.06382218 0.40262428 -0.11675592
0.63135105 -0.19491836 0.2817735 -0.35125133 -0.48788092 -0.18270217 0.0725718 -0.07862644
0.10911791 0.3178255 0.05092198 0.35955468 0.20651564 -0.34251195 0.008395701 0.17359674
0.031022666 -0.67163664 -0.26167488 -0.081847064 -0.0074781356 -0.3751865 0.07264633 0.12984127
0.1373916 -0.08828569 0.716697 -0.17986262 0.12879868 -0.3640418 0.17957062 0.004036057
0.59901273 -0.09833892 0.65095633 0.29781708 -0.08692501 0.24789514 -0.38583988 0.06524269
0.021895632 0.033629443 0.028467633 0.062414337 0.05023742 -0.0278304 -0.21229267 -0.18531764
0.14528868 -0.44938353 0.33726826 -0.20196119 0.116979495 -0.24840863 0.5002791 -0.161042
0.5311674 -0.22746603 0.40253508 -0.07494154 -0.47396183 -0.17789064 0.15845631 -0.10373194
0.34062085 0.09364132 0.020317776 0.27328455 -0.19171591 -0.3525388 0.08672336 0.16926579
0.37294203 -0.69083774 0.21378615 -0.15395784 0.8481386 -0.0015934183 -0.00311444 0.25745988
-0.40821195 0.09405633 0.25427368 0.076670796 0.33862096 0.17059118 0.23088297 -1.247611
-0.3005671 0.090738855 0.15761244 -0.020818148 -0.4556802 0.098740265 0.059679206 0.52915204
0.047950774 -0.13804312 0.26567557 0.38638195 0.04092599 -1.1171457 0.049564637 0.022986434
-0.010860511 0.025066903 0.034706123 0.024896383 -0.02521385

feedforward_blocks.0.linear_layer_1.bias f4 [35]
00000000: ac2a e3bd cde0 403d 6c9c 10bf 5b06 09be
00000010: ab86 b7be f9ec 20bd 464c f3bd d4eb dcbe
00000020: fd07 2abe 290e 1abe c092 a63d eb67 edbd
00000030: 7944 99bd 3dd5 c5bd 968c acbd 11fe 2abc
00000040: b84b 973d 7ce4 07be c0bb e3bd aefc e9be
00000050: 15a6 74bc 8ae5 2b3d 39c9 a1bd 50c9 85be
00000060: eb0d e0be be71 0fbe 65c9 133d 15cb 94be
00000070: 58b0 c0bd b30f fcbe c149 18bd 1421 3ebe
00000080: 5a68 b8bd 8783 babe 33b9 00be
-0.110921234 0.047089387 -0.5648868 -0.1338133 -0.3584493 -0.039288495 -0.118797824 -0.43148673
-0.1660461 -0.15044464 0.08133459 -0.115920864 -0.07483763 -0.096598126 -0.08425252 -0.010436551
0.07387489 -0.13270754 -0.11119795 -0.45700592 -0.014932175 0.041966952 -0.07899708 -0.26130152
-0.4376062 -0.14008233 0.036080737 -0.2906119 -0.09408635 -0.49230728 -0.037179712 -0.18567306
-0.090042785 -0.36428472 -0.12570648

feedforward_blocks.0.linear_layer_2.weight f4 [7, 35]
00000000: f000 e13e 5391 67bd ceae 6a3f 4668 01bc
00000010: d975 99be e262 cf3d 9cb2 1ebf 5ced 13be
00000020: fce9 04bf d094 3f3f 6ef9 e63a a9d7 bdbe
00000030: 814d e7bc b3f7 2a3d 7d54 19bc c7ed 9abd
00000040: 93b0 45be 8e14 4d3e 5e23 033d 24a5 21bf
00000050: ca78 c43c b243 ac3e 3e6f ef3c 5e0d 67be
00000060: 80f1 5d3e db2f d83c 5c1a 2b3d 9f39 a63e
00000070: 0817 223d 14ce febe 9df6 a5be bb81 1ebe
00000080: 5309 603d 48be 903e 53c4 9c3c 09d0 cebd
00000090: c141 babd 2d75 bfbe 6e90 4b3d 630e cabe
000000a0: 3044 883d 5ea7 973e b5e2 02bf 0888 9d3e
000000b0: 8a32 34be ceaf 7fbc 3f50 523e e416 e0bb
000000c0: ebcf 4ebd e602 bfbd 04fe 49bd 817d 1a3e
000000d0: bd34 ac3e 179f f0bd edc8 97be 6f28 943d
000000e0: 42f2 8cbe e914 92bd 6841 8b3e f476 8fbe
000000f0: 1ab7 acbc 438e 4ebc 4004 ecbe 5333 103d
00000100: 2d3a 34be 4cb4 e7be 3836 293d 20b0 52be
00000110: ba3e 46bf a150 9cbc 6fdd f1bc b9c6 4cbd
00000120: 7fa4 cfbd 0ca1 863d 4a6a ab3e 5f44 a73b
00000130: ac56 a13d 31ba ce3e 264d 37be cdd2 55be
00000140: d38b 2ebe 9cc3 0f3f 7d28 dc3b 3093 04bf
00000150: 579c bc3c 59cd b23c 1ed4 83bd dee6 383e
00000160: c546 8dbe ffc2 3c3e 2306 3a3d d4a4 a83c
00000170: 5487 ae3d 869f 333e bb47 4bbe 5a7d 033d
00000180: 0cfb 0b3e c17e afbe 4ee8 693e 69e0 7d3f
00000190: 12ae a43e bc20 69be 80d9 77be 0b93 3bbd
000001a0: 00a3 4a3c b759 023d 9aba 5a3e b6df 2cbf
000001b0: 2938 9cbd 2314 933e 44bf 84bd 7c4f 4ebe
000001c0: 0e60 89bd 351b d83c 352a d9bd 4942 6fbe
000001d0: feac 323d ad37 353c 28aa 83bd 3b5d 423e
000001e0: 622e fcbd dda7 97bd b4d2 2fbd f7d3 f53e
000001f0: e4a2 043f e2fc 1a3b 0b66 883e 223d 5f3d
00000200: db7f 9f3d bc3b fa3e 8ee4 493c 66ab eebd
00000210: 34f1 0e3d 8bfc 2cbe 1b39 8abf 5435 9e3e
00000220: d814 9e3e e8c6 6e3d 2b96 903f 3fba 733c
00000230: 5f64 debe 576b afbd 1441 03bf 937f e33c
00000240: 56c4 8abe 3175 49be 03bc 4f3f b4db 533f
00000250: 679d e23f 463f 7dbd 7974 a73e 1993 493f
00000260: 4357 79bc 735b 0d3f 8ee6 02be 5883 423c
00000270: 39c2 db3e 3bbe 69bf ec83 b43b 8e77 3b3f
00000280: aa68 ca3c b788 edbd 6858 203d 1494 1d3d
00000290: 85e3 29bf fad0 233c a0c9 5f3e 2559 823e
000002a0: fbc4 a73d 8994 05bf 0eb9 4f3f f369 7fbf
000002b0: 643b 753d e027 afbf 4e09 ecbc 8565 babd
000002c0: 74d4 fa3d e36e 833f 69be 253d 9ae2 13bf
000002d0: 9690 a5bd e3ca a2bc c1e7 02bf 812b 34be
000002e0: 0857 c9be 4a38 f93e 25ec 8dbe 5e2c 0c3c
000002f0: e32b e53e b418 893c 8a24 953e df91 ff3d
00000300: e9bb ef3d a2e9 4bbd 145f d2be a79d 3dbe
00000310: f894 7ebf 76fc 33be 911b 9fbe b221 af3d
00000320: e61b 363d 424c 10be e66a 1c3f ae6a 9fbd
00000330: e5f1 bc3f da31 c4be f5e9 e23e 5147 aa3e
00000340: 3bee fabe 53cb 943d d4e4 42c0 a1b6 a9bf
00000350: 7914 3740 4d07 fb3c 1f09 bf3f 89f5 acbf
00000360: aa32 1b40 93b9 8740 de95 bbbf e9db 13c0
00000370: a112 1140 24bc 4fbf 4bb7 993c 7e8d 48bd
00000380: f9f2 26be 311e 97bf e9c4 a0bf cf42 9440
00000390: 11df 2fc0 22e0 c540 eb11 9abf 8018 b23f
000003a0: 5cf6 6abf 9783 7dc0 b370 88c0 0a39 2bbd
000003b0: 5e44 23bf a0a5 99bf 6584 d5bf 3bf3 0840
000003c0: 01da 13c0 10bd 64bf 55a6 b3be f5f0 81c0
000003d0: 8da0 ad3c
0.43946028 -0.056535076 0.9167298 -0.007898396 -0.29972723 0.10126282 -0.61991286 -0.14446014
-0.5191953 0.74836445 0.0017621943 -0.37078598 -0.028235199 0.04174013 -0.0093585225 -0.07564884
-0.19305639 0.20027372 0.03201615 -0.6314261 0.023983378 0.33645397 0.02922785 -0.22563693
0.21674156 0.026390007 0.041773185 0.32465836 0.039572746 -0.497666 -0.32414714 -0.15479176
0.054696392 0.28270173 0.019136583 -0.10098273 -0.09094573 -0.37394086 0.049698286 -0.394641
0.06653631 0.2961988 -0.5112718 0.30767846 -0.17597404 -0.01560588 0.20538424 -0.0068386663
-0.050491255 -0.09326725 -0.049314514 0.15086938 0.33633986 -0.11749094 -0.29645482 0.072342746
-0.27528578 -0.071328945 0.27198339 -0.28020442 -0.021083403 -0.01260716 -0.46096992 0.035205197
-0.17600317 -0.45254743 0.041311473 -0.20574999 -0.77439463 -0.019081416 -0.029524533 -0.049994204
-0.10138797 0.06573686 0.3347953 0.005104586 0.078778595 0.40376428 -0.17900524 -0.20881195
-0.17045526 0.5615785 0.0067186938 -0.5178709 0.023023767 0.021826433 -0.064369425 0.18056819
-0.27593055 0.1843376 0.04541601 0.020586409 0.085219055 0.17541322 -0.19851582 0.032101966
0.13669986 -0.34276393 0.22842523 0.9917055 0.32164055 -0.22766393 -0.24204063 -0.045794528
0.012367964 0.03182384 0.21360245 -0.67528856 -0.07627899 0.287263 -0.064817935 -0.20147508
-0.06707774 0.02638016 -0.106037535 -0.2336513 0.04362201 0.011060637 -0.06428939 0.18980877
-0.12313534 -0.07405064 -0.04292555 0.4801328 0.5181105 0.0023649265 0.26640353 0.05450166
0.07788058 0.488737 0.012322558 -0.116537854 0.034897998 -0.16893212 -1.0798677 0.3090006
0.30875278 0.05829516 1.1295828 0.0148759475 -0.43435952 -0.08565395 -0.51271176 0.027770793
-0.27102917 -0.19673611 0.8114626 0.82757115 1.7704285 -0.06182792 0.3270605 0.7874008
-0.015218559 0.55217665 -0.12783262 0.011872135 0.42921618 -0.91305894 0.0055088904 0.732293
0.02470811 -0.11598342 0.03914681 0.038471296 -0.6636279 0.009998554 0.21854258 0.25458637
0.08191868 -0.5217977 0.81141746 -0.9977104 0.059871092 -1.3684044 -0.02881303 -0.091013946
0.122475535 1.0268215 0.040464792 -0.5776764 -0.08084218 -0.019872135 -0.5113488 -0.1759472
-0.39324212 0.48675758 -0.27719226 0.0085555 0.44760045 0.016735412 0.2912944 0.124789946
0.11705763 -0.049783356 -0.41088164 -0.18517171 -0.9944606 -0.17576775 -0.3107572 0.08551349
0.0444602 -0.1409159 0.61100614 -0.077840194 1.476132 -0.38319284 0.4431912 0.33257535
-0.4900988 0.072653435 -3.0452166 -1.3258859 2.8606246 0.03064313 1.4924659 -1.3512431
2.4249673 4.241403 -1.4655111 -2.3102973 2.266762 -0.81146455 0.018764159 -0.048963062
-0.16303624 -1.1806089 -1.2560092 4.6331553 -2.74799 6.18361 -1.2036718 1.3913727
-0.91782165 -3.9611566 -4.263757 -0.041802444 -0.63776195 -1.200367 -1.6681029 2.1398456
-2.310181 -0.89350986 -0.3508784 -4.0606637 0.02119472

feedforward_blocks.0.linear_layer_2.bias f4 [7]
00000000: cc95 49bd ebe4 dfbc 53e0 a13b 4cd9 1f3d
00000010: 8f2b 173d b56f 093d c655 263d
-0.049215123 -0.027330836 0.0049400716 0.03902559 0.036906775 0.033553798 0.040609144

feedforward_blocks.1.layer_norm.weight f4 [7]
00000000: 6385 1840 425e d73f 5720 5c40 1612 b43f
00000010: 70b2 a53f a5dd 3a40 a1c4 ec3f
2.3831413 1.682564 3.4394739 1.4068019 1.294508 2.919778 1.8497506

feedforward_blocks.1.layer_norm.bias f4 [7]
00000000: ec68 9bbe bbc2 53bf 9c03 46bf 2f09 49bf
00000010: 25c8 8dbf 1899 78be f185 e13e
-0.30353487 -0.8271901 -0.7734926 -0.7852964 -1.1076704 -0.2427715 0.44047502

feedforward_blocks.1.linear_layer_1.weight f4 [35, 7]
00000000: bf33 12bf fd9d b0be e6cc ff3e de2e b0bd
00000010: 2865 373e 32c1 01bf a998 83be d649 23be
00000020: 3dee 8dbe d4e5 853d b2c4 21be 6b30 7e3d
00000030: b04d d3be f9c3 f63c e8b1 cbbf 358c aa3e
00000040: c27e 9bbf 9ffe 8d3f 2329 da3e a27d 16c0
00000050: 6a46 483d daf8 febe 6973 0240 3f99 0abf
00000060: 65c5 b33f 61ab 753f 0acf 953e f864 9abd
00000070: 80b5 1bbe 04ca 6bbe 70d4 a4ba f149 50be
00000080: 2b6c 203d 9b5c 93bf f2da 843e 5aea 95be
00000090: 9232 0940 aff6 42bf 49a7 c93f 2a60 5a3f
000000a0: c5a4 d83e f46a 843c 5498 3ebe 0996 a0be
000000b0: 1be7 b43d 817a 35be 3542 0a3d 2665 d6be
000000c0: c784 233d a704 54be 8cf1 0940 26ce 30bf
000000d0: 8ce2 b73f d061 873f 9dff 873e 4968 25bc
000000e0: c6c5 2abe 81bf 8cbe 058a c33d 1f4d 36be
000000f0: 9c7c ea3d b31e c8be ad22 6dbc 7cd2 833f
00000100: 10f1 64be 1edc 8b3f 1921 1ebe 1b8a 783d
00000110: ee67 d03e c567 963e 4204 08be 3fcc 5dbe
00000120: 15ae 0fbb 4125 2abe 564f 303c f2dc 8abf
00000130: bf99 7b3e d809 2cbe 2153 8ebe d160 ce3d
00000140: e760 f1bd 2f6d 493d 7090 c3be c268 4a3c
00000150: 3d5f 963f c2ed 363d c1ee 8b3f b4e2 b2bd
00000160: cef7 d63d ef28 f23f 03d6 acbf 5c1f 2ebe
00000170: 9819 9cbe 6ada 573d 7bab 2fbe af18 953d
00000180: c934 d6be c4b3 723d cd91 babf 011d 353f
00000190: eeb0 b7bf 49d5 ae3f c940 9c3f 1c4f 1ac0
000001a0: 2f54 503f 9c7b 41be ec64 aabe 8a8e c23d
000001b0: 47cf 2abe 3849 983d 065b d6be 2efc 263d
000001c0: 49de f8bd 1b6d 46be 8489 d23b 5d67 2cbe
000001d0: 7a57 973c 4ad9 8cbf a7a0 823e ed7b 4ebe
000001e0: 164c 6cbe fc6a 0e3d b60e 27be e46a 1e3e
000001f0: 7c72 10bf 2256 87bc c57f afbe c554 0340
00000200: 21af 31bf 7310 af3f c53e 523f 5442 e93e
00000210: 1702 473c c0ce 49be fd0d 92be 925c ef3d
00000220: ea85 39be fd73 e13c f12f e6be 7fa5 a23c
00000230: 280b 3abe 26e4 93be ffa2 863d a9eb 40be
00000240: d987 133d 832e c1be 81b5 2b3d 0a2b 4cbe
00000250: ae2d 9abe 9210 d93d 78de 37be f589 5a3d
00000260: 5e79 d9be b08d 1c3d e916 15bf c805 b5be
00000270: 184c 053f 42fc 12be cacf 723e c9d7 0ebf
00000280: 64bc 8abe cda9 97bf 2929 cb3f 37b0 46be
00000290: c619 a63f 122e c23f c7a3 893b 1e05 3ebf
000002a0: f2d8 0fbe cf2c 4fbe ad46 cf3d 7971 cfbd
000002b0: c96d 033e 9926 c9be 31c4 16bd ee4c fbbe
000002c0: 9dc0 bcbe 7705 263f 4d07 9fbe 408e 5f3e
000002d0: 491b 28bf 53f3 ec3e 0fa5 51bf 7620 f33f
000002e0: 3a63 cebe c10b a73f 87a3 933f 5fd7 563e
000002f0: cb02 1fbf d1e3 38be 2efe 8cbe a2fe a63d
00000300: 8864 3fbe edb9 bc3d 3072 bdbe eff0 1f3d
00000310: b8ef 083e 178e 95be 98b9 11bc eb4c 61be
00000320: fce1 8a3d 9ca0 81bf bbc2 133e 9440 0fbf
00000330: 6fbf 7fbe 8748 203f 8cb8 edbd e8d7 803e
00000340: e01c febe bbaf f9bd 07b4 1bbf 58f9 bebe
00000350: 502b e93e 2fdf d7bd 1173 433e 1092 00bf
00000360: b506 3cbe 27cc 1bbf 864c 6cbe 53b9 233f
00000370: b5ae 0abe 4713 7e3e 5f71 f7be 7195 f5bd
00000380: 8d9a 36bf 697e 87bb 04a5 383f f7da 7abe
00000390: 6725 9d3f 5e89 0fc0 12cb 823e ba8e 0fbe
000003a0: 2c25 49be 5780 8d3b 8331 35be 2187 f13a
000003b0: 8eb1 8cbf 7fc6 803e ce05 24bf b4a8 bebe
000003c0: 9283 fb3e a06b d6bd e6a0 1e3e 24b2 0dbf
000003d0: 9d64 57be
-0.5711021 -0.34495535 0.49961013 -0.08602689 0.17909682 -0.5068542 -0.25702408 -0.15946135
-0.27720824 0.06537977 -0.1579769 0.062057894 -0.41270208 0.030122744 -1.5913668 0.33310094
-1.2148058 1.1093329 0.4260951 -2.351418 0.048895277 -0.49799234 2.038294 -0.54140085
1.4044615 0.9596463 0.2925952 -0.075387895 -0.15205956 -0.23026282 -0.0012575518 -0.20340706
0.039165657 -1.1512636 0.25948292 -0.2928036 2.1437116 -0.7615766 1.5754176 0.85302985
0.4231321 0.01616428 -0.18612796 -0.31364468 0.08833142 -0.17722513 0.033754546 -0.41874045
0.03992155 -0.207049 2.1553679 -0.6906456 1.4366012 1.0576725 0.26562205 -0.010095664
-0.16677007 -0.27489856 0.095478095 -0.17802857 0.114495486 -0.39085922 -0.014473599 1.029861
-0.22357583 1.092655 -0.15442313 0.060678583 0.40704292 0.29376045 -0.13282874 -0.21659945
-0.002192383 -0.16615774 0.010761103 -1.0848677 0.24570368 -0.1680063 -0.27797797 0.1007706
-0.11786061 0.04917639 -0.38196135 0.012354078 1.1747814 0.044660337 1.0932237 -0.087346464
0.10496484 1.8918742 -1.3502811 -0.1700415 -0.30488276 0.05269853 -0.17155258 0.07280099
-0.41837147 0.05925347 -1.4575745 0.7074738 -1.435087 1.365884 1.2207271 -2.4110785
0.81378454 -0.1889481 -0.33280122 0.094998434 -0.16680633 0.0743584 -0.4186632 0.04076784
-0.121517725 -0.19377558 0.0064250845 -0.16836305 0.01847433 -1.1003811 0.25513193 -0.20164461
-0.230759 0.034769997 -0.16314206 0.15470463 -0.5642469 -0.016520564 -0.34277168 2.052049
-0.6940785 1.3676895 0.8212703 0.45558417 0.012146494 -0.19707775 -0.28526297 0.11687578
-0.1811749 0.027521128 -0.4495845 0.019854305 -0.18168318 -0.28885 0.06574058 -0.18839897
0.036018226 -0.37730798 0.041921142 -0.19938293 -0.30112976 0.10598864 -0.17955959 0.053354222
-0.42475408 0.03822106 -0.58238083 -0.35355973 0.52069235 -0.14354041 0.23712078 -0.5579801
-0.27096856 -1.1848694 1.5871936 -0.19403158 1.2976615 1.517031 0.004200432 -0.7422656
-0.14047602 -0.20231937 0.10120902 -0.10129065 0.12834848 -0.3928726 -0.036808196 -0.4908213
-0.36865702 0.6485209 -0.31060258 0.21831608 -0.65666634 0.46279392 -0.81892484 1.8994281
-0.4031008 1.3050462 1.153428 0.20980595 -0.62113637 -0.18055655 -0.27537674 0.08154036
-0.18690693 0.0921515 -0.3700118 0.03904813 0.13372695 -0.29209968 -0.008894347 -0.22001998
0.06781384 -1.0127139 0.14429753 -0.55957913 -0.2497537 0.6261067 -0.11607465 0.25164723
-0.49631405 -0.12191721 -0.60821575 -0.3729961 0.45540857 -0.10540616 0.19086863 -0.50222874
-0.18361934 -0.60858387 -0.23076066 0.6395466 -0.13543208 0.24812041 -0.48328683 -0.11991394
-0.71329576 -0.0041349423 0.72126794 -0.24497591 1.2277039 -2.2427592 0.25545555 -0.1401929
-0.19643086 0.004318278 -0.17694668 0.0018427112 -1.0991685 0.2515144 -0.6407136 -0.37238085
0.49123818 -0.104697466 0.15491065 -0.55349946 -0.21034475

feedforward_blocks.1.linear_layer_1.bias f4 [35]
00000000: 2e37 a83e f42a 803c 33e5 2f3f 5d07 6dbf
00000010: 0793 d4bd b2aa 8ebf ebb6 943d 7c18 89bf
00000020: 9096 a53c 702c 40bf e294 cebd 832c 163d
00000030: fa35 80bd 35a1 3b3d 159e 11be e89c d33d
00000040: e2e1 73bd f809 b5bb 264a 90bf f0c2 613d
00000050: 4325 393d 9141 c63d a60c b53e fb6c b63e
00000060: 6529 80bc d5dc 6fbd 0de3 b7bc 166a b63d
00000070: f094 ef3c c3a0 aa3d f990 bd3e e579 743d
00000080: 9bdb 21bf 1839 c1bd 550b b23e
0.328546 0.015645482 0.68709105 -0.9258936 -0.10379606 -1.1145842 0.07261451 -1.0710597
0.020213395 -0.75067806 -0.10086991 0.036663543 -0.06260295 0.045808036 -0.1422046 0.10332662
-0.05954159 -0.00552487 -1.1272628 0.055117548 0.04520155 0.096804745 0.35361212 0.3563002
-0.015644738 -0.05856021 -0.022447133 0.08906953 0.029245824 0.08331444 0.37024668 0.05968656
-0.63225716 -0.09434718 0.3477427

feedforward_blocks.1.linear_layer_2.weight f4 [7, 35]
00000000: a6a1 a8bb 0706 073d 9050 40bc 5893 e4bc
00000010: ff4b 87bc a609 83bc c9ad ad3c cd7d 3b3b
00000020: 270b 54bb f77b 16bd e09c 033c 57a7 c33c
00000030: d35a ba3c fa6e 873b b73f 173c 00da 85bc
00000040: dd58 f43b cab2 b9bc 3035 453c 1273 843c
00000050: d0c7 1f3c a636 4dbd c051 83bb d471 e3bc
00000060: 4e2b 8f3b 3d39 86bc e777 18bc 977c 6c3a
00000070: ecc7 e4bb 6dfd 093c d1ad 833c 9ee9 ea3b
00000080: 07ba 6c3a de51 9f3a e7bc 953c bf2e 07bc
00000090: 61cd dabb 0b34 2f3d 5f17 153d 09ff 91bc
000000a0: c7e7 01bd d734 dbbc e1a2 59bb f70d a3bb
000000b0: d402 1a3c 835f 23bd e51e 983c cd37 c3bc
000000c0: 9744 8abc c272 ae3c b509 883b a1ba 39bb
000000d0: f946 9f3c 597e 8eba e28d 973b 0014 e6bc
000000e0: 4b5e 86bc c41f adba b7bf 143c 70fc b13c
000000f0: 2d5e 2dbd dcd9 833b 3c36 553d 1c34 f3bb
00000100: c357 82bb b890 ecbc ae8e 3d3c d051 bc3c
00000110: b9b1 4e3b 08a9 03bb b59d 8abb 846b 2e3d
00000120: c645 8abc 2a26 f13c 5668 afbc 2bde 6abc
00000130: 8a73 aa3c 8289 293c 2626 dabc f33b 24bd
00000140: 0211 15bd 4a1b 513d 2673 fe3b b294 5c3d
00000150: ea63 c93c ef28 873c 07f0 47bb d4e0 b2bc
00000160: 247f 263a 504d ac3c 2753 033d cd30 b6bb
00000170: 80de 5a3c 8fd5 9dbc b251 0dbd 3879 ec3c
00000180: e057 753c 79b4 a33c e772 bc3c a2f5 6fbc
00000190: 6d1f 9abb 0b2a 373d babe 8d3c 04b7 883a
000001a0: 78d3 3dbb 0182 4f3b 2aa4 39bc 8b99 c4bb
000001b0: 9ce8 4ebb 2a35 113a cffc 513d a25f 873b
000001c0: e70a 7e3c e041 e8ba 47c6 663c f166 0b3d
000001d0: ed53 be3c 6083 4f3b 7f7c 233b c59d df3c
000001e0: db40 2e3c 3007 e0bc 2a4c ea3c 9326 0c3c
000001f0: 20de 0c3d ea89 f23c 0ae4 0cbd 6959 5abb
00000200: 2a70 c1bc 0e4d 22bc e7fe 44bc 203c 33bd
00000210: d08f a43c 24d5 89bc 9557 66bd 4133 cbbc
00000220: 7960 123d f7e6 59bc 70f1 75bc 320a c0bb
00000230: 3f7d 89bc 904d c83c e5f6 cb3c 38d1 84bc
00000240: 876b 333c cfac 0a3d 8ef2 35bc 1251 95bc
00000250: 0b08 3a3c d77d b53b 05f1 bc3c 1059 7ebc
00000260: 4406 91bc b70d af3a 5dbf b6bc d7c0 02bc
00000270: 94ef e7ba dc3d b4bc 5f2f 8b3a 9476 a6bc
00000280: d578 92bb d0a8 01bc cd89 0c3b aeae 163d
00000290: f8cc 95bc 7539 633c 969d 913b f651 95bb
000002a0: 2e47 a6bc 9ea5 3f3c 7514 f83c 7cb2 7ebd
000002b0: 139b c23c 7f0d 21bd d9ff 483d f411 113c
000002c0: 44c7 43bb 0f77 8bbb d0ba 09bd 8d05 1ebc
000002d0: 4e70 64bc a050 92bc 5984 55bb 534d f63b
000002e0: cc39 63bc c7fd b23c 7807 33bb db9d 86bc
000002f0: 6ab1 adbc 61aa 993c 3c18 f4bb 4e43 c13b
00000300: e7c1 85bc 56b3 a03a 2156 1c3d 30d5 ad3c
00000310: 46e7 2fbc 0f30 71bc a647 d53c f323 74bb
00000320: 0db9 bdbc 724f 6c3d dc63 a9bc 5807 99bc
00000330: f5ee bb3b 3cee 763c dde2 8f3c 76d0 203c
00000340: 7f7d 953c b873 46bd 3291 0bbf b24c 67bc
00000350: 20d4 c3bf 21d2 a53f 48c4 7fbe 5325 b93f
00000360: ac2e 2fbd 3c49 a83f f4c3 93bc 5b9f 34bf
00000370: ea2c 63be 20e9 3dbd cb6a 0740 dea0 bfbc
00000380: ee9f d3bf 1899 74bd 5a18 59be d705 af3d
00000390: 262f c53f 9d1c 63bd f925 2abd b90d 55bd
000003a0: d5bf 17bf 82d5 b13f e255 c73a 722f 4fbf
000003b0: 22b1 bb3f 20f6 1dbd aab6 34be a4e6 17bf
000003c0: a250 0dbf 9c41 20bf ec91 bcbf 3487 73be
000003d0: 5d9f 0cbf
-0.005146223 0.032964732 -0.011737958 -0.02790229 -0.01651573 -0.015995812 0.021201031 0.0028608919
-0.003235528 -0.036739316 0.008033007 0.023883505 0.022748386 0.0041331025 0.009231499 -0.016339302
0.0074568824 -0.022668261 0.012036607 0.016168151 0.009752229 -0.050100945 -0.004007548 -0.027764238
0.004369176 -0.016384715 -0.009305931 0.0009021251 -0.0069818404 0.008422238 0.016074093 0.0071689626
0.0009030406 0.0012155136 0.018278552 -0.008250891 -0.006677315 0.04277424 0.03639924 -0.017821806
-0.03171518 -0.026758594 -0.0033208656 -0.00497603 0.009400088 -0.03988601 0.01856942 -0.023830319
-0.01687841 0.021294955 0.004151548 -0.002834 0.019443022 -0.0010871395 0.004625068 -0.028085709
-0.016402384 -0.001320832 0.0090789115 0.021726817 -0.04232614 0.0040237736 0.052053675 -0.0074219834
-0.003977747 -0.028877601 0.011569662 0.02298823 0.0031539036 -0.0020089764 -0.004230226 0.042583004
-0.016878974 0.029437143 -0.021412056 -0.0143351955 0.020807046 0.010347726 -0.026629519 -0.040096235
-0.036393173 0.051051416 0.0077651916 0.053852744 0.024583776 0.01649901 -0.0030508058 -0.021835722
0.0006351343 0.02103296 0.032061722 -0.0055600167 0.013358712 -0.019266872 -0.03450174 0.028866395
0.014974564 0.019983517 0.023004008 -0.014645966 -0.0047034533 0.04471783 0.01730286 0.001043052
-0.0028965157 0.0031663182 -0.011330644 -0.005999749 -0.0031571751 0.0005539233 0.051266488 0.0041312734
0.015505529 -0.0017719828 0.014085359 0.03403372 0.023233378 0.0031664 0.0024946032 0.02729691
0.01063558 -0.027347177 0.028600771 0.008554119 0.034391522 0.029606778 -0.034397162 -0.0033317453
-0.023613054 -0.009906067 -0.012023664 -0.04375851 0.020088106 -0.016825266 -0.05623587 -0.024804713
0.035736535 -0.013299695 -0.0150111765 -0.0058605904 -0.016783355 0.024451047 0.024898002 -0.016213045
0.0109509295 0.03385621 -0.011105193 -0.018227134 0.011354457 0.005538683 0.023064146 -0.015524164
-0.017703183 0.0013355528 -0.022308046 -0.007980547 -0.0017695301 -0.022002153 0.0010618976 -0.020320214
-0.0044699707 -0.007913783 0.002144444 0.03678768 -0.018286213 0.013868679 0.0044438345 -0.0045568896
-0.020297613 0.011697201 0.030283192 -0.062181935 0.023755586 -0.03931951 0.04907212 0.008854378
-0.002987341 -0.0042561362 -0.033625424 -0.009644878 -0.013942791 -0.01786071 -0.0032580106 0.007516542
-0.01386876 0.021849526 -0.0027317684 -0.016432693 -0.021202762 0.018758 -0.007449178 0.005897916
-0.016327811 0.0012260478 0.038168076 0.02121982 -0.010736292 -0.014720931 0.026035141 -0.0037252873
-0.023159528 0.057692952 -0.0206775 -0.01868026 0.005735273 0.015071448 0.017564232 0.009815326
0.018248318 -0.0484502 -0.54518425 -0.014117407 -1.529911 1.2954751 -0.24977219 1.4464515
-0.04276912 1.3147349 -0.018037774 -0.7055566 -0.22185102 -0.046364903 2.1158931 -0.023392137
-1.6533182 -0.059716314 -0.21200696 0.08546036 1.5405014 -0.05544721 -0.04154012 -0.05201504
-0.5927709 1.3893282 0.001520809 -0.8093177 1.4663432 -0.0385648 -0.17647806 -0.59336305
-0.5520116 -0.6260011 -1.4732032 -0.23782045 -0.5493067

feedforward_blocks.1.linear_layer_2.bias f4 [7]
00000000: 0000 0000 0000 0000 0000 0000 0000 0000
00000010: 0000 0000 0000 0000 b75e 3e3f
0.0 0.0 0.0 0.0 0.0 0.0 0.74363273

linear_layer_1.weight f4 [115, 115]
00000000: ef40 dbbc fc09 a2bc 8246 f5bb 5638 8dbc
00000010: bd8f 233d eed6 ad3b 99d2 5a3b d29f cb3b
00000020: f756 663c 2bb4 c53b 358b 563c 31ab 82bc
00000030: 697b de3c ba9c 11bc e6a5 2bbc bb9a e2bb
00000040: 841b 5abd c964 503b 28a8 1cbd d8f4 1bbd
00000050: cb71 77bb d76b 9a3c 30f8 afbc a551 c6bc
00000060: 1b9d 1dbc 09ad 033b 3356 aa3c 21c4 f4bc
00000070: ce7a 90ba c1e6 cfbb 4728 f13c efda 80bc
00000080: b16d 14bc b7dc 40bc 4105 a5bb a661 aeba
00000090: 8907 4a3c 7d68 953b 0f88 d33c e2c2 24bc
000000a0: 1b72 bbbb 4a2e 39bc e4c8 45bc e937 80bc
000000b0: aeb0 a5bb a478 d93b 8f20 df3a bbb4 243c
000000c0: 3602 93bc 6ef4 b0bc 0c97 4fbc 5bce d9bb
000000d0: df8c 0f3b 2ca7 51bc 11a9 94ba 51a7 1a3b
000000e0: dd8f e3bc c4ff dabc 7064 20bd 023e 433c
000000f0: b71f d5bb 9805 debc 28aa 17bc 0d13 243c
00000100: 3d0e b03c 42dc c2bb 9d4d f7ba 24fe 1fbc
00000110: de26 85bc 091a 883a c6d4 243c 69de ddbb
00000120: 87c5 07bc 6a34 693c baef 1ebd 535f dcbc
00000130: 3bff d5bb 5758 b73b e06b ff3b 9ffb 8e3c
00000140: c60a 06bd 6a75 043c c64f 5dbc 18dc 97bc
00000150: b3e2 59bc 7d6a 843c d9af 243d b4ed 02bc
00000160: c4c4 dabc 9261 05bc 0dc5 983c 3edd 2e3d
00000170: 26e2 27bd efda 3c3c 3ce1 a2bc 8fc2 9cbc
00000180: 8fe4 47bb c6a8 2cbc 3257 f939 267d b3bc
00000190: 97f1 62bd ede0 1bbc d977 6e3b 848b 8ebb
000001a0: 7961 21bd 5957 2fbc 9469 3f3c 453a eebb
000001b0: e446 833c b71b f83c 0f65 673c 173f 09bd
000001c0: fbdb 8c3c 2d38 46bd 8bd4 aebc e796 14bd
000001d0: 827b aabb 25a3 f63c a966 b03c 4f7f a33c
000001e0: e051 f63b 42ff 973c 0770 4c3c d733 a73b
000001f0: f2b9 65bc 40ce 93bc f77f cf3c 0f3c 003b
00000200: d045 ebbb de7a d8bc 2637 d63c b3a3 d73c
00000210: 5edd 58bb 9e59 d43c c574 0b3b eaeb de3b
00000220: 9b98 b83b 1cc9 84bb 8bfe 05bc bda0 5fbb
00000230: 09b6 8cbb f91a 8c3c 595e 92bc 526f f5bc
00000240: 581f 843c 1223 85bb 207c d23c 0272 11bb
00000250: b9bb 443c 54dc 9abc 3c64 f1bb 0450 093c
00000260: d79f c4bc 228b 963c 0621 fc3c f58b 953c
00000270: 065e 37bc 57a4 44bc 49c2 85bd d620 a6bc
00000280: 30ca b4bb 61cf fabc 9028 06bd 1fb1 1fbc
00000290: cb71 5b3c 60aa ecbc 577a 2cbc c9b5 d73c
000002a0: 5c0e 17bc 4ee4 8cbc 2d21 1dbc c7e3 ddbc
000002b0: 2f35 143c 1d7f cebb f41b 103d cafe b7bc
000002c0: 3dcc 33bc bbde 02bd 9b98 3dbc 296f e9bb
000002d0: 012e e0bc 7091 73bc c93e 02bd e70e faba
000002e0: 4ca4 ebbb d260 433c 7903 0c3b 84a9 a2bc
000002f0: 54b3 3d3d 4b27 b0bb 346e db3a dc21 76bd
00000300: 6e3c b43c 191f 05bc 29ec 06bb 525f 59bc
00000310: ca83 ff3b 155f 74bc 39c7 173c f2ea 243c
00000320: 475c da3c 58e3 4a3c 9e2b b9bc 30ef 2e3c
00000330: 32fe 6e3c 6931 a8bc c77c 443c 9e35 ecbb
00000340: 920e 93bc 5b7d 1f39 818b 593c 30cb d2ba
00000350: 7237 7dbb 64b7 43bb a629 9bbc b2f4 023c
00000360: d35d 883a 3e78 f5bb 3d97 833a 79f0 123d
00000370: 00dd 2c3c d410 90bc 0afd 0b3c 116a 95bc
00000380: c28d 8c3c a103 e63b ba5d 1ebc 4851 9bbc
00000390: 6494 b53a 29b8 313b 4b4d bfbb 3c25 a73c
000003a0: a2e7 83bc 8011 16bd 64de 4ebc 6c8a 1a3b
000003b0: 4029 0bbc 2e6e 30bc 16cb 12bc 1b93 d0bc
000003c0: 50fb fd3c 59b1 e73c cbd7 b9bc 7df7 e3bc
000003d0: c9d5 c23c 1ed7 7d3c b87c 8abc f39d 84bc
000003e0: 8087 54bb 6605 aebb ae71 b9bc 12ae 01bc
000003f0: 58ca f0bb 40d6 abbc 140a 8938 aa18 5dbc
-0.026764361 -0.019780152 -0.007485212 -0.017238777 0.039932 0.0053051626 0.0033389686 0.0062141204
0.01405882 0.0060334406 0.013094713 -0.015950771 0.027158456 -0.008887464 -0.010476565 -0.006915418
-0.053248897 0.0031798354 -0.038246304 -0.038075298 -0.0037757035 0.01885025 -0.02148065 -0.024208853
-0.009619976 0.002009215 0.020793056 -0.029878678 -0.0011022927 -0.0063446467 0.029438151 -0.015729396
-0.009059356 -0.0117713725 -0.0050360267 -0.0013304248 0.012330898 0.004559575 0.025821714 -0.010056229
-0.0057203895 -0.01130254 -0.012071822 -0.01565166 -0.0050564623 0.006636696 0.0017023253 0.010052855
-0.01794539 -0.021600928 -0.01267029 -0.006646914 0.0021904034 -0.012796205 -0.001134189 0.0023598264
-0.02777856 -0.026733287 -0.039158285 0.011916639 -0.006504025 -0.027102277 -0.009256877 0.010014308
0.021491164 -0.005946667 -0.0018867735 -0.009765182 -0.016253885 0.0010383736 0.010060495 -0.006770898
-0.00828684 0.014233688 -0.03880284 -0.026900923 -0.00653067 0.0055952477 0.007794842 0.017453967
-0.032725118 0.008084634 -0.013507789 -0.018537566 -0.013298678 0.016164059 0.040206764 -0.007991243
-0.026705153 -0.008140938 0.018648649 0.04269146 -0.040987156 0.011526807 -0.01988279 -0.019135742
-0.0030501222 -0.010538286 0.00047557947 -0.021910261 -0.05540618 -0.009514076 0.0036387353 -0.0043501277
-0.039399598 -0.010701978 0.011682887 -0.00727013 0.016025014 0.030286653 0.014123215 -0.033507433
0.017194739 -0.048393417 -0.021341583 -0.036276724 -0.0052027116 0.03010709 0.021533327 0.019958166
0.0075170845 0.018554334 0.012477881 0.0051026153 -0.014021384 -0.018042684 0.025329573 0.0019567048
-0.007179953 -0.026425775 0.026149344 0.026323175 -0.003309093 0.025921639 0.0021279317 0.0068030255
0.0056334264 -0.0040522944 -0.008178364 -0.0034122907 -0.004294161 0.017102705 -0.017867254 -0.029960308
0.016128227 -0.0040630186 0.025693953 -0.0022193198 0.012007647 -0.018903889 -0.007366685 0.008380894
-0.024001999 0.01837689 0.030777466 0.018255213 -0.0111918505 -0.012002072 -0.065311976 -0.02027933
-0.0055172667 -0.030616464 -0.032753527 -0.009746819 0.01339383 -0.028889835 -0.010527215 0.0263318
-0.009219732 -0.017198708 -0.009590429 -0.027086152 0.009045883 -0.006301774 0.03518291 -0.02246036
-0.010973987 -0.031950694 -0.0115720285 -0.007123847 -0.027365686 -0.014866218 -0.031798158 -0.0019077928
-0.0071912166 0.011924939 0.0021364375 -0.019856222 0.0463136 -0.005375778 0.0016741217 -0.060090885
0.022001471 -0.00812509 -0.002058754 -0.013267355 0.007797693 -0.014915247 0.009263807 0.010065781
0.02665533 0.012383305 -0.022603806 0.010677144 0.014586972 -0.020531373 0.01199264 -0.00720854
-0.017951284 0.0001521012 0.013277889 -0.0016082283 -0.0038637784 -0.0029863948 -0.018940758 0.00799291
0.0010403938 -0.0074911406 0.0010039579 0.035873864 0.010550737 -0.01758615 0.008544216 -0.018239053
0.01715744 0.0070194756 -0.009665901 -0.018959656 0.0013853428 0.0027117825 -0.0058380715 0.020403497
-0.016101662 -0.036637783 -0.012626264 0.002358104 -0.0084937215 -0.010768456 -0.008959552 -0.02546077
0.031003624 0.028282808 -0.022685906 -0.027827973 0.023783581 0.015493182 -0.016905174 -0.016188597
-0.0032429397 -0.005310702 -0.022637215 -0.007915037 -0.00734834 -0.020976186 6.534546e-05 -0.01349465

linear_layer_1.bias f4 [115]
00000000: 0000 0000 0000 0000 0000 0000 0000 0000
00000010: 0000 0000 0000 0000 0000 0000 0000 0000
00000020: 0000 0000 0000 0000 0000 0000 0000 0000
00000030: 0000 0000 0000 0000 0000 0000 0000 0000
00000040: 0000 0000 0000 0000 0000 0000 0000 0000
00000050: 0000 0000 0000 0000 0000 0000 0000 0000
00000060: 0000 0000 0000 0000 0000 0000 0000 0000
00000070: 0000 0000 0000 0000 0000 0000 0000 0000
00000080: 0000 0000 0000 0000 0000 0000 0000 0000
00000090: 0000 0000 0000 0000 0000 0000 0000 0000
000000a0: 0000 0000 0000 0000 0000 0000 0000 0000
000000b0: 0000 0000 0000 0000 0000 0000 0000 0000
000000c0: 0000 0000 0000 0000 0000 0000 0000 0000
000000d0: 0000 0000 0000 0000 0000 0000 0000 0000
000000e0: 0000 0000 0000 0000 0000 0000 0000 0000
000000f0: 0000 0000 0000 0000 0000 0000 0000 0000
00000100: 0000 0000 0000 0000 0000 0000 0000 0000
00000110: 0000 0000 0000 0000 0000 0000 0000 0000
00000120: 0000 0000 0000 0000 0000 0000 0000 0000
00000130: 0000 0000 0000 0000 0000 0000 0000 0000
00000140: 0000 0000 0000 0000 0000 0000 0000 0000
00000150: 0000 0000 0000 0000 0000 0000 0000 0000
00000160: 0000 0000 0000 0000 0000 0000 0000 0000
00000170: 0000 0000 0000 0000 0000 0000 0000 0000
00000180: 0000 0000 0000 0000 0000 0000 0000 0000
00000190: 0000 0000 0000 0000 0000 0000 0000 0000
000001a0: 0000 0000 0000 0000 0000 0000 0000 0000
000001b0: 0000 0000 0000 0000 0000 0000 0000 0000
000001c0: 0000 0000 0000 0000 0000 0000
0.0 0.0 0.0 0.0 0.0 0.0 0.0 0.0
0.0 0.0 0.0 0.0 0.0 0.0 0.0 0.0
0.0 0.0 0.0 0.0 0.0 0.0 0.0 0.0
0.0 0.0 0.0 0.0 0.0 0.0 0.0 0.0
0.0 0.0 0.0 0.0 0.0 0.0 0.0 0.0
0.0 0.0 0.0 0.0 0.0 0.0 0.0 0.0
0.0 0.0 0.0 0.0 0.0 0.0 0.0 0.0
0.0 0.0 0.0 0.0 0.0 0.0 0.0 0.0
0.0 0.0 0.0 0.0 0.0 0.0 0.0 0.0
0.0 0.0 0.0 0.0 0.0 0.0 0.0 0.0
0.0 0.0 0.0 0.0 0.0 0.0 0.0 0.0
0.0 0.0 0.0 0.0 0.0 0.0 0.0 0.0
0.0 0.0 0.0 0.0 0.0 0.0 0.0 0.0
0.0 0.0 0.0 0.0 0.0 0.0 0.0 0.0
0.0 0.0 0.0
