models/metabolic_nn.pth (torch, 20817 bytes, 5 tensors)

model.0.weight f4 [64, 2]
00000000: 2e12 d8be a6eb ec3c 1dfa 1f3e c807 83be
00000010: 73ff 2abf 09c2 e0be 26a0 11bd 0143 c73e
00000020: 6edb 5d3e 18b1 0b3f 6540 533e b463 063e
00000030: 9b27 f23c f86b aabe c558 063f 48e3 d03e
00000040: e3e3 dc3e 9364 f5be 02dd e43d 47c6 cfbe
00000050: cf64 cf3e fa84 b33e 777d 7d3e 8e7d 1fbf
00000060: f580 1cbd 97dc 8dbe 3a47 eebe 25b3 b83e
00000070: b94d b23d dc40 dbbe 8068 fd3e f40e 0ebf
00000080: f71f 0e3f 130c d8be 730f 293f d2e0 4d3d
00000090: 2e43 d5be 56d0 00bf 36d9 d4be 29cc 0c3f
000000a0: c519 81be b25e c9bd 1bd6 5b3e d3d8 60bd
000000b0: f986 fa3e 6fe7 85be 59bb 223f c89d fdbe
000000c0: e7a9 3bbf 5869 743d eada 943e 5731 913e
000000d0: af21 563e caf3 203f 4dbd d1be bb7a 08bf
000000e0: 6d83 13bb 3bd9 0d3f a15d de3e 54dd 573e
000000f0: bb53 22be e8eb 57be d6c7 393f f133 cfbe
00000100: 3e73 0dbf e812 0fbf 18bb afbe ae24 923e
00000110: 170d d93e cd2f fd3d e015 b2be 2ccd 6bbd
00000120: 2ab6 cabe cbd0 c6bd 429b 143f 4abf c2be
00000130: 5b67 35bf b944 303f 3016 1c3f 09bf 19be
00000140: cf7c 3abf e5e1 333e ce2c f0be 9d15 1c3d
00000150: d62c 203f 5b8f 9f3e fe9e ecbd 7e5c 25bf
00000160: fa7b 8ebe f27c efbe 0699 18bf ac63 d03e
00000170: c513 6b3e 3647 083f dd28 e3be 3eff 97be
00000180: c0e0 b93e c40d 1d3f 33d5 c3bd 729e adbe
00000190: 9f67 b23e 5c98 6abe a510 433e 4ccb dd3e
000001a0: 2523 8d3d 6365 18bf 6588 253f 50d3 60be
000001b0: 3052 86bd 2c08 32bf 0299 acbe d49c 9dbb
000001c0: 57dd 053e 36da 87bd 206d 3ebf c086 c73e
000001d0: ba8b e6bd b2ca 39be cd9f 063f b4b5 c9be
000001e0: dfe6 25bf d8f7 fcbd 07db 313e 41e6 253e
000001f0: 51b9 7e3e f8a4 fe3e 08a7 a5be 9882 30bf
-0.4220137 0.02892096 0.15622754 -0.25591874 -0.66796035 -0.43898037 -0.03555312 0.38918307
0.21665737 0.545671 0.20630033 0.13123971 0.029559901 -0.332855 0.524792 0.40798402
0.43142614 -0.47928295 0.111749664 -0.4058096 0.40506598 0.3506239 0.24754892 -0.62300956
-0.03820892 -0.2770736 -0.46538717 0.36074176 0.08706231 -0.4282292 0.4949379 -0.55491567
0.55517524 -0.42196712 0.660392 0.050263233 -0.41652817 -0.50317895 -0.4157197 0.54999024
-0.25214973 -0.09832515 0.21468394 -0.05489428 0.489311 -0.26153132 0.6356712 -0.4953444
-0.73306125 0.059670776 0.29073268 0.28357956 0.20911287 0.6287199 -0.40964738 -0.5331227
-0.0022508756 0.5540959 0.43430808 0.21080524 -0.15852253 -0.21086085 0.7257055 -0.40469316
-0.5525397 -0.55888224 -0.3432243 0.2854361 0.423928 0.12362633 -0.34782314 -0.057568714
-0.39592105 -0.09707793 0.58049405 -0.38036567 -0.7086083 0.6885486 0.60971355 -0.1501428
-0.7284669 0.1756664 -0.46909183 0.03810655 0.62568414 0.3116406 -0.11553763 -0.64594257
-0.27828962 -0.46775013 -0.59608495 0.40701044 0.2295676 0.5323366 -0.44367114 -0.29686922
0.36304283 0.6134913 -0.09562149 -0.33909947 0.34844682 -0.22909683 0.19049318 0.43319166
0.06891469 -0.59529704 0.64661247 -0.2195561 -0.06558645 -0.6954372 -0.33710486 -0.004809955
0.13072716 -0.06633417 -0.7438526 0.38969994 -0.112571195 -0.18143728 0.52587587 -0.3939644
-0.64805406 -0.1235196 0.17368709 0.16201116 0.2487538 0.49735236 -0.32353997 -0.6894927

model.0.bias f4 [64]
00000000: 00f0 a23e c019 9bbe 0282 75be 3aca 2d3f
00000010: d40d 23bf 3ff9 86be 6611 edbd fe07 ac3e
00000020: 7083 ca3e 2d0b 39be 9223 253e c722 813e
00000030: d040 13bb 7001 febd 4945 80be f550 033f
00000040: 19dc bcbe 2c3b 433e e2d0 a33e c8f6 ab3e
00000050: aa5c 203f e80d d13e 3bd3 b13e 3a04 0c3f
00000060: de41 ad3e aeec 063e d65f 1c3f 9593 fe3e
00000070: 3306 1b3f 31ef c53e f972 dd3e 24f6 863e
00000080: 47f8 15bf 6273 03bf c2aa 14bf d8af c3be
00000090: ff25 8d3e f48e 0b3f a3a4 1cbe a4e4 4ebe
000000a0: c773 20bf f02c c6be 04c1 f93e 296e 16bf
000000b0: 28fa eebe 20ea 08bf e342 afbd c2f0 9cbe
000000c0: 1428 e6be bb72 b13e 2b31 8e3d 2812 e93e
000000d0: afba a6bd 1bbb 703e ce13 83be 0eb5 06bf
000000e0: e50f 633e d8f1 f4be 95c0 00bf 0ad5 043e
000000f0: 36aa d43e 0a4b 86bd 7219 27bf 7784 28bf
0.3182373 -0.30293083 -0.23975375 0.678867 -0.63692975 -0.26362035 -0.11575584 0.33599848
0.39553404 -0.1807067 0.1612685 0.25221846 -0.0022469051 -0.12402618 -0.2505286 0.51295406
-0.3688667 0.19065541 0.31995302 0.33586717 0.62641394 0.40830922 0.3473147 0.5469395
0.33839315 0.13176224 0.61083734 0.4972197 0.60556334 0.3865905 0.4325178 0.26359665
-0.58581966 -0.51347935 -0.58073056 -0.38220096 0.2756805 0.54515004 -0.15297179 -0.20204407
-0.6267666 -0.3870616 0.48780072 -0.5876184 -0.4667523 -0.53482246 -0.085576795 -0.30652434
-0.44952452 0.34657845 0.06942972 0.45521665 -0.08141076 0.23508875 -0.25601047 -0.5262002
0.22174032 -0.47840762 -0.50293857 0.12971893 0.4153611 -0.06557281 -0.652732 -0.65827125

model.2.weight f4 [64, 64]
00000000: 1a8f f53d d57d 0d3e e07e d23d ea64 c6bd
00000010: 874a 6abc 6864 19bd 3348 e13d bfc7 78bc
00000020: 1d00 e83d 0420 263e 539b c3bd c82a e53d
00000030: 6a54 99bd 3148 953d f438 8cbc a93f 8c3c
00000040: 16f5 563d 6a99 b7bd 707f f8bb 50e2 6b3c
00000050: a45b cc3d 2b65 a93d c83a ba3d f19f 283e
00000060: 9541 be3d fdab 08be 2dbf f2bd 6873 f83d
00000070: d089 62bd de1d 76bd c166 b0bb b0d8 d039
00000080: 7453 47bd f8ac 44bd bec4 2bbd 46df 203e
00000090: c7fa b5bc a6c4 d93d cad4 103e f3fd a2bd
000000a0: b7e4 023d 7ab4 253e 1977 7a3d fc71 273d
000000b0: f637 27bc 0fc7 a93d f8a4 aa3b a255 283d
000000c0: b403 40bb a82f 4dbd 3e47 183e e11b 0dbe
000000d0: 2d4b e83d 547e 6dbd f9c7 103e 9d86 633d
000000e0: 8e00 c03d 8ddb 1abd 6c68 c0bd 1719 403e
000000f0: d4ac 8ebd e6b7 29be 7002 70bd ba86 c5bd
00000100: 0806 1c3d 7bde 3bbe 5877 893d d0da 2f3d
00000110: 6a04 a93d cfdd 1d3e 0dc7 a2bd 5ddb 903d
00000120: d5c0 acbd b473 b1bd 35c0 153e 01b4 57bd
00000130: 2b04 adbd 7a8e d4bc 5056 fdbd cac1 a63c
00000140: 716b 09be 5d8d c3bc 474a 843d 2cf0 c0bc
00000150: 0654 7ebd ce76 8e3b 520c 233e 5072 bd3d
00000160: 1387 f5bc c770 1e3d 4c6b 623c 1b30 afbb
00000170: 42ac c1bb 0012 21bd fa45 a83c e0b8 f63c
00000180: 54b1 e73d c36e 153c e22a eebc 8de6 fcbc
00000190: 7101 a83d e8f3 1dbc cd1f 39bc 483e fb3d
000001a0: 80d1 49be 7e7c c6bd 5e53 a13d e83f afbd
000001b0: 0a5a 73bd e2ea 23be 994e db3d 53a4 0bbd
000001c0: 74ca 103e 0d5a 123e 3e39 a5bc cecd b63c
000001d0: 70ce 27bd 0ff8 013e c027 27be f26a cfbc
000001e0: 7c2b 833d c180 1cbe 9207 963d 4b0d e4bd
000001f0: afa4 ac3c 108a 57bd d634 56bd 29b0 a9bd
00000200: 1efa cebd dce1 17be d32d 7dbd aee4 edbb
00000210: 7ab9 f6bc 342a cd3d 719b f5bc df01 013d
00000220: 1b22 cabd 0dbe e4bc 1f91 cd3d 7092 973c
00000230: bbd2 793d d495 37bd 1eb5 eabd 77ed 5c3c
00000240: f578 63bd 54dd 953d ed70 bdbd 41a6 613c
00000250: 856e 423d 33ae 82bd f9db 9c3d f141 063d
00000260: 7d64 533d ba99 b63d fc99 8d3d dc32 debb
00000270: b4a5 f63c be58 8d3d aaae e5bc a09f 8abc
00000280: a81d 28be 90b2 17be 2bb9 413e bc10 e6bd
00000290: 39e6 32be d985 973d 1fd8 8dbd 3629 a53d
000002a0: a3ce 04be e16c a8bd c4dd f5bc 4f72 22be
000002b0: eb49 233d 1ac6 e63c ee20 48bd 712e 29bd
000002c0: a668 d23d 9323 e3bd 5b4a 683c 9e01 51bd
000002d0: 037b 39be f210 143e f792 17be 762e 843d
000002e0: b0ca 043e 84f9 ffbd 26b0 fabd daf3 083d
000002f0: a411 68bd 38ab d73d fcdd c1bc c723 1a3d
00000300: b14b db3d 375f 573e 7671 c73d 8248 a13b
00000310: 7208 8a3d 342a c03b d303 c1bd ebd4 543d
00000320: 464f 98bd 92e7 0d3e 8fe4 4dbc 10c3 06bd
00000330: 18ce c1bd 9964 cc3d c8dd a5bc 59ae 0e3d
00000340: 6319 9bbd bc8f 0fbc e26b a83c 1d57 2e3e
00000350: af2a 3dbd 4ee5 313d f1c3 18be f1f0 95bd
00000360: 9874 cdbb 82eb 193d aba1 313d d848 073e
00000370: 8df3 1e3d 844e a3bc 3a18 e03d a1b9 f6bd
00000380: b28a b53d 026a 213e 5be0 55bd 14f6 bebc
00000390: 8ba8 113e 7a26 a33b 6c48 193e 13d8 8ebd
000003a0: 2de0 ab3d 7f5e eb3d 443f fabd 9d4a b53d
000003b0: fc82 a23d 054e 52bd 70ee 24bc e9a3 a1bd
000003c0: 82c9 903d 998b 7e3c 83aa 58bc f4db 573d
000003d0: ed3d 7f3d 0316 0cbe 3b3f 553d 7f37 93bd
000003e0: abc5 25bd df5d 203e d877 fd3c 9ba9 18be
000003f0: f687 b2bd b55a 09be c924 13bc ad1c eebc
0.11990185 0.13817532 0.10278106 -0.096872166 -0.014299995 -0.03744927 0.11000099 -0.015184342
0.113281466 0.1622315 -0.0955111 0.111898005 -0.07486804 0.0728916 -0.017117001 0.0171202
0.052479826 -0.08964808 -0.007583551 0.014397219 0.099784166 0.082712494 0.09093243 0.16467263
0.092898525 -0.13346858 -0.1185287 0.12131387 -0.05530721 -0.060087077 -0.005383343 0.00039834296
-0.04866357 -0.04801652 -0.041935675 0.15710172 -0.022214307 0.10633211 0.14143673 -0.07958593
0.0319564 0.16182128 0.061148737 0.04088019 -0.010206213 0.082899205 0.005207654 0.04109729
-0.0029299082 -0.050094277 0.14870927 -0.13780166 0.11342464 -0.057981804 0.14138784 0.0555483
0.09375106 -0.037807036 -0.09394917 0.18759571 -0.06966558 -0.16574058 -0.058596075 -0.09644838
0.03809169 -0.18346588 0.06712216 0.042933285 0.08252795 0.15416645 -0.07948122 0.0707309
-0.08435217 -0.08664647 0.14624102 -0.0526619 -0.084480606 -0.025946844 -0.123699784 0.020356078
-0.13419892 -0.023871118 0.0645948 -0.023552023 -0.06209185 0.0043476587 0.15922669 0.09250319
-0.029971635 0.03868177 0.013819527 -0.005346311 -0.0059104273 -0.039323807 0.02054118 0.030117452
0.113131195 0.009120646 -0.029073182 -0.030871654 0.082034 -0.009640671 -0.011299086 0.122677386
-0.19708824 -0.09691714 0.07877229 -0.08557111 -0.05941204 -0.1600757 0.10708351 -0.03409226
0.1413973 0.14292164 -0.020168897 0.022314932 -0.04096836 0.12692283 -0.16323757 -0.02531955
0.06404778 -0.1528349 0.07325663 -0.11135348 0.021074621 -0.0526219 -0.052296482 -0.08285553
-0.101063 -0.14832252 -0.06181128 -0.0072599268 -0.030117739 0.10017815 -0.029981347 0.031495925
-0.09869786 -0.027922655 0.10037445 0.018502444 0.060991984 -0.04482062 -0.114603266 0.01348435
-0.055535275 0.073176056 -0.092500545 0.013772548 0.04746868 -0.06380882 0.07659144 0.03277773
0.051609505 0.0891604 0.06914136 -0.0067809653 0.03010831 0.06901692 -0.028037388 -0.016921818
-0.16417563 -0.1481421 0.18918292 -0.112336606 -0.17470635 0.07398576 -0.069259875 0.08064501
-0.1296945 -0.08223892 -0.030012973 -0.15863918 0.039865416 0.028170634 -0.04885953 -0.041304056
0.10273866 -0.110907696 0.014177884 -0.051026933 -0.18113331 0.14459589 -0.14802156 0.06454174
0.12967944 -0.12498763 -0.12240629 0.03343568 -0.05665745 0.10530704 -0.02366542 0.037631776
0.10707796 0.21032415 0.09738438 0.0049219737 0.06739892 0.005864406 -0.094245575 0.051960867
-0.07436995 0.13857868 -0.0125667 -0.03290087 -0.094631374 0.09980125 -0.020247355 0.03483424
-0.075732015 -0.008762296 0.020559255 0.17025419 -0.046183284 0.043431573 -0.14918496 -0.073213466
-0.0062700026 0.037578113 0.04336707 0.13211381 0.038806487 -0.0199349 0.10942121 -0.12047125
0.08864345 0.15763095 -0.052215915 -0.023310699 0.1422445 0.004978952 0.14969033 -0.06974807
0.083923675 0.11492633 -0.12219098 0.08852122 0.079351395 -0.051343936 -0.010066614 -0.078925915
0.070696846 0.015536212 -0.013224247 0.052699998 0.062314916 -0.13680272 0.052062254 -0.071883194
-0.040471714 0.15660809 0.030940935 -0.1490845 -0.08717339 -0.13413508 -0.008980938 -0.029066408

model.2.bias f4 [64]
00000000: 9783 f03c 0207 fb3d 2bd8 aabd 8baf 8ebc
00000010: ff6e 613c 5881 ad3d 1c2f 9abd be32 0a3e
00000020: 582d 863c d114 c53d 2c92 18bd 01ef 3f3c
00000030: 09a5 01bd 3dcd b73c 963b 4d3d 2e1c d7bd
00000040: 1f7b d33c 81d9 bebd 7255 2a3e f064 7a3d
00000050: e291 343d 309e 5d3d 4473 39bd 6ec4 3fbd
00000060: 70a6 71bd 25be b3bd 2ba0 313d 32e4 9c3d
00000070: 4d6d f33c 8876 e93d 28a0 aabd d8bb 333e
00000080: 30fd 933d 1326 45bd a6f0 bebd 27d9 d73b
00000090: 3046 0d3d 0068 fabc e0dd d3bd 2cf3 b23d
000000a0: 5dc9 2abc 4b67 6dbd 88b8 ba3d e537 8f3d
000000b0: dfa6 c93c bb3a df3b 5050 fcbc c0fc 92bc
000000c0: 2c13 0bbe 9a71 f6bd a75c f8bd 24a0 af3c
000000d0: 71d7 773d 74b0 6ebc 2b61 f23d 10bf e3bd
000000e0: 9f0f 64bd c275 edbd 713f fd3d 8fce 503d
000000f0: 905c ac3d 6126 abbd e182 073e a4b8 32bb
0.029359622 0.12257196 -0.08342012 -0.01741769 0.013759374 0.08471936 -0.07528517 0.13495919
0.016379043 0.09623111 -0.037248775 0.011714698 -0.03165153 0.022436732 0.050105654 -0.10503422
0.025815545 -0.09318829 0.16634157 0.061131418 0.044084437 0.054105937 -0.04527594 -0.04681819
-0.058996618 -0.087765016 0.04336564 0.07660712 0.029715205 0.11399561 -0.08331329 0.17552125
0.07226026 -0.048132014 -0.09323244 0.006587166 0.034490764 -0.03056717 -0.10345054 0.087377876
-0.010423985 -0.057959836 0.09117228 0.06993083 0.024615703 0.006812421 -0.030800015 -0.017942786
-0.13581532 -0.120333865 -0.12127047 0.021438666 0.060508195 -0.014568437 0.118349396 -0.11120427
-0.05567896 -0.11594726 0.12365616 0.05097824 0.084160924 -0.083569296 0.1323352 -0.00272707

model.4.weight f4 [1, 64]
00000000: 3880 9cbd d5b4 973d 478d 1f3e 9f46 09be
00000010: 7ee5 d2bd c369 0f3e b864 943d 9e94 85bd
00000020: f5cc e23d de0d fd3d efd7 bdbd 182c cd3d
00000030: e6b5 b43d 7533 3cbd 7ae3 08be 4002 4b3b
00000040: db1b 23bd d35c adbd b1d6 923d f09c 85bd
00000050: c20c 7dbc 78c3 953c 3690 9ebd 57ae c83d
00000060: 3f1b 403d 49a2 a7bd 9024 7abd 40eb 8c3d
00000070: bbe6 82bd 7e2c dcbd d347 24be 4405 873d
00000080: 2b70 1abe 0b10 393b 5e17 c6bd 9b8e 013e
00000090: 8f79 5cbd 1a26 2f3e acf4 17bc 4a28 c33d
000000a0: 95bd a3bd ba84 d03d 304e dd3d 017a cabd
000000b0: 72ad 14bd 453d c2bd 4c0d 90bd 52ac d43d
000000c0: eedd c3bd 2400 5d3c f7d6 143c 4c34 653d
000000d0: da26 e13d 0d74 053e 5255 a1bd bcbf b2bd
000000e0: 21b9 263d 1cb4 a83d 1992 49bd 8817 bdbd
000000f0: 61f9 01be 92c4 dbba e757 253d f0e2 803a
-0.07641643 0.07407538 0.15581237 -0.13405846 -0.102976784 0.14005189 0.07245773 -0.06522487
0.11074249 0.123561606 -0.09269702 0.10018176 0.08823757 -0.04594751 -0.13368025 0.0030976683
-0.039821487 -0.084649704 0.071698554 -0.06524074 -0.015444936 0.018281683 -0.0774235 0.09798878
0.046900984 -0.0818525 -0.061070025 0.06880808 -0.063916646 -0.10750674 -0.16043024 0.06592801
-0.15081851 0.0028238322 -0.09672426 0.12652056 -0.053826865 0.17104378 -0.009274643 0.09529169
-0.07995144 0.101815656 0.10805929 -0.09886552 -0.036298223 -0.094843425 -0.07033786 0.1038443
-0.09563814 0.013488803 0.009084455 0.055958077 0.109937385 0.13032551 -0.07877602 -0.08727977
0.040703896 0.08237478 -0.049211595 -0.09233004 -0.12692787 -0.0016766957 0.040367033 0.0009833258
