models/metabolic_nn.pth (torch, 20817 bytes, 5 tensors)

model.0.weight f4 [64, 2]
00000000: 2e07 853d db4c 343f 09d2 b13e 8cdd ca3e
00000010: 344b 583e 4520 ddbd 045c c5bc 00ce 9ebd
00000020: a95a 5e3e eab5 193f d8d6 34bf 2a40 09bf
00000030: ddac 213f 6a42 12bf b471 a4be 3cd4 2cbf
00000040: c54d ef3e f210 97be b608 b63e 67f1 81be
00000050: 1d21 0bbf d83e 20bf fa66 5cbe 149a 87be
00000060: 076d 623e 2069 013f f561 3b3d 0147 91be
00000070: ba7d 2bbf 308e 15be 611c 85be 8b76 43bf
00000080: ee44 043f 1f57 63be 0424 2ebf cba8 d5be
00000090: 62fd c2be fe23 353f d3c3 2cbe b275 40be
000000a0: 2647 2fbf e055 2c3f 1be6 0fbf 85a4 c6be
000000b0: f4c0 ad3e cf6f 073f ee2e 413e b977 843e
000000c0: 0d30 363f 3262 02bf b25b 1f3f e619 67be
000000d0: 813e 31bf 861b 013f dee2 283e bcf8 05bf
000000e0: 4144 013e b880 0f3e 0e99 1cbf c66c f43c
000000f0: 048c 7fbe f993 3bbd 55dc 70be e860 41be
00000100: 8e9c a0bd a812 7cbe 6c43 38bd 46ee 0d3f
00000110: 5714 cbbe e252 98be d837 3ebf 8d57 493e
00000120: 394c 043f 2bb6 88be 92c9 c0bd 1c17 f73e
00000130: 4020 283f 6ec4 403e 4491 793e 6cc7 253e
00000140: 433c d2be 97c7 b5be 6a9d 01bf 378d 863e
00000150: 488d 0f3f 3e0b a63e 7c21 4c3e bd93 c73e
00000160: 3a8c 453e 5ad2 d13e f8cf 293f 3807 eb3e
00000170: 46f6 c1bc b2ff 37be 69d3 883c 7527 1f3f
00000180: da92 6abe d2a3 e03e 9000 ec3e 5d21 903d
00000190: 3b2b cd3e 5bc0 ad3e f08e 89be dfae 40be
000001a0: deae 2dbe f6d1 05bf 5711 1abf 4e95 debe
000001b0: e3e9 92be 885d 25bf 18e1 733e 7518 14be
000001c0: a811 323f 056f e9be 2017 e3bd 0fb3 e93e
000001d0: 9479 1a3f 0f47 4cbf 4475 adbe 63bd ac3e
000001e0: b6ff d43e 63fa f4be 5859 2d3f aa07 263f
000001f0: 4df3 1e3e 4216 963d b281 3c3f eb2b 0c3f
0.0649551 0.7042977 0.34730557 0.39622152 0.21122438 -0.107971705 -0.024091728 -0.07754135
0.21714272 0.60043204 -0.70640326 -0.5361353 0.63154393 -0.5713259 -0.32118 -0.67511344
0.4673902 -0.29505116 0.3555352 -0.25379488 -0.543474 -0.6259589 -0.21523657 -0.2648474
0.22111903 0.50551033 0.045747716 -0.28374484 -0.6698872 -0.14605021 -0.25998214 -0.7635276
0.5166768 -0.22201203 -0.68023705 -0.4173034 -0.3808394 0.70758045 -0.16871576 -0.18794897
-0.6846794 0.67318535 -0.5621049 -0.38797393 0.33936274 0.5290498 0.18865559 0.2587259
0.7116707 -0.50931084 0.6224929 -0.22568473 -0.69236 0.5043262 0.16492793 -0.52332664
0.12623693 0.14013946 -0.6117104 0.029837023 -0.24955755 -0.045795415 -0.2352155 -0.18884623
-0.078423604 -0.24616492 -0.044986174 0.554417 -0.39663956 -0.29750735 -0.7430396 0.19662304
0.51678807 -0.26701483 -0.094134465 0.4825982 0.6567421 0.18824932 0.2437182 0.16189355
-0.410616 -0.35503837 -0.5063082 0.26279613 0.56074953 0.32430452 0.19934648 0.38979903
0.19291773 0.40980798 0.6633296 0.45903945 -0.023677003 -0.17968634 0.01670237 0.6216958
-0.22907582 0.43874985 0.4609418 0.070376135 0.40072045 0.33935818 -0.26866865 -0.18816708
-0.16961238 -0.522735 -0.6018271 -0.43473285 -0.28694066 -0.6459584 0.23816335 -0.14462455
0.6955819 -0.45592514 -0.11088395 0.45644423 0.60341763 -0.79795927 -0.3387853 0.3373824
0.41601342 -0.4784728 0.6771445 0.64855444 0.155225 0.07328464 0.736354 0.54754514

model.0.bias f4 [64]
00000000: 5360 1ebe d371 1ebe 1e7d aa3d 3105 f0be
00000010: 3708 e43c 0fa4 363c 847a c23e 6c09 e33e
00000020: 07bf 6f3d c39f ff3e 3bde e53e bad5 26bd
00000030: 009a 1d3f 1e10 f3bd f387 1d3f f390 1a3f
00000040: 8e73 4fbe c2ab 98be a7e1 13bf 3e87 343f
00000050: 31df 703e 43a5 d33e 339b 16bf 5884 12bf
00000060: f673 42be 2377 173f dd36 033f 0b8f 353e
00000070: d116 883e 6942 af3d 9665 0bbf 8d3d d0be
00000080: f3ac 2d3f a5e1 c33d ab93 d0be 4abf 98be
00000090: 4c66 9cbe a12e 2dbf 69ad e0bb 2366 c93b
000000a0: 9e85 05bf e12c c4be f440 01bf 73f7 c6be
000000b0: 1147 b2be 0d89 8b3e c89e 13bf 06b8 a3be
000000c0: c1ff 8d3e eac2 0fbf a7e7 8a3e 51b1 3e3e
000000d0: 0b50 a63e 49eb fe3d d9d7 023f 0155 f33e
000000e0: d178 293f 0815 1abc c152 c3be deb2 143f
000000f0: ab07 8c3c cf7d 4a3c cbed c4be d49c d33e
-0.15466432 -0.15473108 0.083246455 -0.4687896 0.027835948 0.011147513 0.37984097 0.44343126
0.058531787 0.49926576 0.4489611 -0.04073117 0.6156311 -0.118683085 0.6153557 0.60377425
-0.20258924 -0.2981854 -0.57766193 0.70518863 0.23522641 0.41337022 -0.58830565 -0.5723319
-0.18989548 0.59166163 0.5125559 0.17730348 0.26579908 0.085575886 -0.5445188 -0.4067196
0.67842025 0.09564523 -0.40737662 -0.29833442 -0.30546796 -0.67649275 -0.0068566096 0.006146209
-0.5215701 -0.3831549 -0.50489736 -0.38860664 -0.34819844 0.27253 -0.57664156 -0.31976336
0.27734187 -0.5615679 0.27129862 0.18622328 0.32482943 0.12447221 0.5111061 0.4752579
0.66199976 -0.009404428 -0.38149074 0.5808543 0.0170935 0.012359097 -0.38462672 0.41330588

model.2.weight f4 [64, 64]
00000000: 7004 003e 7ce3 cf3d cc52 77bc a04f 1abd
00000010: bb36 a03b 4349 2b3d cb33 3abd 8e88 db3c
00000020: b372 cdbc e235 0c3d 5dde 97bc 4c8b d5b8
00000030: dd8c 85bd 022a 2cbc bb64 eabd 010e 19bd
00000040: 4a3d db3b 17bb f9bd 066e 2fbd 0cfc a63a
00000050: be07 fcbd 3921 7a3d b93c b13d 63d4 063c
00000060: dfdd 12be 1ac6 123e 12b8 c53d a3aa 563d
00000070: cdac 8a3d d521 313a 7ac7 bcbd 5870 11be
00000080: f6db a23d 5315 1dbd a78d df3c 52c1 bc3d
00000090: 0c75 463d 716b dcbc 728f cb3d 66b1 4abd
000000a0: cc2f 5fbd e38e 873d f8a6 0c3e 4348 e03d
000000b0: 879f 053e d1b7 5dbc 8cd7 18bd 9101 113e
000000c0: f782 683d 9c4f 0d3c 93e6 813d 664e e53c
000000d0: 9711 a5bd e510 963d a9a1 853d 63c2 623d
000000e0: 45ca e73d 7cb5 aabd 8b9d 2dbd f403 5ebc
000000f0: ed20 b63c 5f06 14bc b762 843c f5ae a63d
00000100: c205 c73c 1bbc 38bd b37b 853d a88e 9a3c
00000110: 47a1 1abe 451c bb3d ff38 e8b8 2e9c c83d
00000120: 11be c639 2168 8cbd 31ea 093e cfe0 443c
00000130: ea90 9f3c 0f6e b5bd e706 3e3d c2fc b0bd
00000140: 14dc bdbd 760a 09bc 0265 ae3c e50e a93b
00000150: e87e 9c3d 52e1 123e 0a95 333d 9369 b73d
00000160: 579b d33d 615a ffbd 46e9 c1bd 1bd5 bdbd
00000170: 8798 973d 1441 c7bd fe46 8abd 84ab 233d
00000180: 43d5 4a3d 6ce4 a0bd 1732 5abd 30cd 0ebc
00000190: 8797 cdbd e8e8 abbd 6887 7abd a778 34bb
000001a0: 9763 ce3b d77a bdbb d995 bb3d 700b 793d
000001b0: acd6 413c a31b 163d a0e3 cebd 221a 01be
000001c0: 3fcf 9e3d 6c1f 5fbb a2f7 163c b821 2abd
000001d0: 0096 c7bd be82 b73d 77f7 7b3d 1337 16be
000001e0: 07f9 8dbc 843b b3bd 4b77 613d 0ec9 a2bb
000001f0: 424f d8bd 34f7 b33d 8143 bb3d 339a 553d
00000200: fa2e dfbd 57cd d03d 334f 9c3d 5a7d b13d
00000210: 0a3c be3c 40b8 20be ccc1 d83d 9eb2 1c3c
00000220: 5b74 aa3d 5d26 0f3e a125 49bd 5cd3 6a3d
00000230: b49d 0a3d 3ccb 83bd 72eb 88bc afaa e9bd
00000240: ffb2 a23d f718 4cbc 79e4 cfbd 4818 f0bd
00000250: 711d 20bd 1cc7 7bbd bbd3 b7bd 97d6 cdbc
00000260: d6aa a0bc 0b66 373d 1efd 143d 637c 15be
00000270: 02fd 30bd 7012 a33d e8da e7bc 002d 3cba
00000280: 5868 b6bd 7ac9 d83d 77b4 d9bd 6511 633d
00000290: 47a7 11bd 0b01 20be ce4f 103e cd86 823d
000002a0: 515b b83d cd31 e8bd 4c38 0e3e 03ce b2bc
000002b0: e79b 85bd f6b6 8bbc 405a ab3c 1418 85bd
000002c0: 9e68 8dbd f289 aabd 2e1c a1bc e885 013d
000002d0: a4dc 06be 2262 0ebd 5fcf 963c bfef c6bd
000002e0: 057e c33d a13e f5bd 81ab 37bd 0e5e e63d
000002f0: ee64 15be 04d8 fc3d 51e8 0d3e a3d4 91bd
00000300: 50fe 44bd 9555 4d3d f67c e83d 567f ae3d
00000310: 0c29 043e 3638 9fbd 84d8 073e 2b19 b93d
00000320: e3ef f63d bb6a 233e a195 823d 1a21 91bc
00000330: f7c6 113d 615f 6c3d cdc4 423d b4f8 2d3b
00000340: c9f6 d5bd 5392 bc3a c542 00be 66c5 873d
00000350: c128 20bd e93d 803d 431c 083e ac68 dc3b
00000360: f49a 03be b4fe 0f3d 1910 bb3d ebf0 c4bb
00000370: 7b94 2d3d 045c 9cbd 5ccb 1c3d aa03 7dbd
00000380: a964 043d 0086 243c 283d c0bd 6d4c 673d
00000390: 16c1 adbd 1a5f 9c3d 6e6a 533d ab39 733c
000003a0: 3c75 61bd e2c3 f5bc 869b abbd 1f1b a13d
000003b0: 08d4 073e 20bb 9b3d 58ff 40bd 1e58 d0bc
000003c0: d250 9abd f305 d23d 4ef4 15bd e150 f5bd
000003d0: dd46 0dbe 10ef 9b39 a004 8c3b 23fd be3d
000003e0: 3849 133e cc55 24be 2916 903b 941c f3bb
000003f0: 6878 17be 8fa5 303d cabe da3d e701 003e
0.12501693 0.10150811 -0.015095424 -0.037673593 0.004889337 0.041817915 -0.04545955 0.026798513
-0.025079107 0.034231074 -0.018538648 -0.000101825775 -0.06521008 -0.010508062 -0.11444994 -0.03736687
0.006690656 -0.12193888 -0.042829536 0.0012739911 -0.12306164 0.06106684 0.0865416 0.008229348
-0.1434245 0.14333382 0.09654249 0.052408826 0.067712404 0.00067570555 -0.09217735 -0.14203012
0.079521105 -0.038350414 0.027289225 0.092165604 0.04845147 -0.0269067 0.099394694 -0.049485587
-0.054488942 0.0661905 0.13735569 0.10951283 0.13049136 -0.013532595 -0.037314937 0.14160754
0.056765523 0.008624937 0.06342807 0.027991485 -0.080599956 0.07327441 0.06524975 0.055361163
0.11317877 -0.08335397 -0.042386573 -0.013550747 0.022232497 -0.009034722 0.016160352 0.08138839
0.024294738 -0.045101266 0.065177344 0.018866852 -0.15100585 0.09136251 -0.000110732384 0.09795414
0.00037907113 -0.068557985 0.13468243 0.012016489 0.01947828 -0.08858883 0.0463933 -0.0864196
-0.09270492 -0.0083643105 0.021288399 0.0051592463 0.07641393 0.14343765 0.043843307 0.089556836
0.10332363 -0.1246841 -0.094683215 -0.09269162 0.07402139 -0.097292095 -0.06751822 0.039958492
0.04951979 -0.07856068 -0.053270426 -0.008715913 -0.10038667 -0.08394033 -0.06116429 -0.0027537735
0.006298493 -0.005782466 0.091594405 0.060801923 0.011830967 0.03664745 -0.1010201 -0.12607625
0.07754373 -0.0034045829 0.009214314 -0.041536063 -0.09745407 0.08960484 0.061515298 -0.14669447
-0.01733066 -0.08751586 0.055045407 -0.0049678152 -0.10561992 0.08787385 0.09143735 0.05214901
-0.10897632 0.101954155 0.076322936 0.08666487 0.023221988 -0.15695286 0.10583839 0.00956407
0.08322974 0.13979478 -0.04910815 0.057330474 0.033841804 -0.06435248 -0.016713832 -0.114095084
0.07944297 -0.012457124 -0.101509996 -0.11723381 -0.039090578 -0.061469182 -0.08975931 -0.025126738
-0.01961271 0.04477505 0.036374204 -0.14598231 -0.043210037 0.07962501 -0.028302625 -0.00071783364
-0.08906621 0.105853036 -0.10630124 0.05543651 -0.03555992 -0.15625398 0.14092943 0.063733675
0.09001792 -0.11337624 0.13888663 -0.02182675 -0.06523877 -0.017055016 0.020917058 -0.06498733
-0.0690472 -0.08327092 -0.019666757 0.031621844 -0.13170105 -0.034761555 0.01840943 -0.09713697
0.09545521 -0.11974836 -0.044841293 0.11248408 -0.14589283 0.12345889 0.13858153 -0.07120635
-0.048094094 0.050130446 0.113519594 0.08520381 0.12906283 -0.07774393 0.13266188 0.090380035
0.120574735 0.15958683 0.06376196 -0.01771598 0.03559014 0.057708148 0.047550965 0.0026545944
-0.10447461 0.001438687 -0.1252547 0.06629448 -0.039101366 0.062618084 0.13292031 0.006726345
-0.12852079 0.035155013 0.0913393 -0.006010165 0.04237793 -0.07634738 0.038279876 -0.061771072
0.03232256 0.010041714 -0.09386665 0.05646937 -0.08484094 0.07635327 0.05161517 0.014845292
-0.055043444 -0.03000063 -0.08379273 0.07866501 0.13264477 0.07604051 -0.047118515 -0.025432643
-0.075349465 0.10255041 -0.03660994 -0.11978317 -0.13796563 0.0002974202 0.0042730123 0.09325626
0.143834 -0.16048354 0.004397173 -0.0074191783 -0.14792025 0.04312664 0.106809214 0.12500726

model.2.bias f4 [64]
00000000: 7589 98bd 624c 9abd 8415 93bd 6ed3 8c3c
00000010: e33f 8b3d 821e e73d 7ec6 a13d 80e6 c23d
00000020: dbf5 8abd 6903 06be 90f5 da3d a79a 65bd
00000030: 501a 193d 9a52 a0bd d657 103d 3f08 0a3d
00000040: d480 eabd 846a 283d a616 473d ba7e 03bd
00000050: 7791 2b3e a903 0bbc d7b7 a43d 9cdf 173d
00000060: fdc0 eb3d 9e8d cf3d f82c 903d aaf8 16bd
00000070: 5c78 ebbd 28ba 733d 4ddc 0fbd 0ec7 7d3b
00000080: 3815 bfbd 086e e83d 331d 8ebc e5fb 3e3d
00000090: 3022 323e 2f2c d1bd 5c56 4c3d 9df8 38bd
000000a0: 7666 84bd a803 443d 22b3 503d b930 94bb
000000b0: e1b1 7f3d 9bf8 1cbe 655d 563d b829 5e3c
000000c0: 6c19 0cbd 6feb 9b3d 626a 903c c3b7 50bd
000000d0: bacd 3b3d d3a0 973c 1c4e 833d 9fab 86bc
000000e0: 0606 353b 4ea5 ce3d 0024 d6bc ed26 7b3c
000000f0: 88b3 88bd 983c 17bd 9bef eebc d8d5 1bbd
-0.07448093 -0.075341 -0.07181838 0.017190661 0.06799295 0.11285116 0.078991875 0.09516621
-0.067851745 -0.13087238 0.106913686 -0.05605569 0.03737861 -0.07828255 0.035240017 0.03369927
-0.11450353 0.041117206 0.048605584 -0.032103278 0.16754709 -0.008484759 0.08042877 0.037078485
0.11511419 0.10134433 0.07039827 -0.03685824 -0.11497566 0.059503704 -0.035122205 0.0038723382
-0.09330219 0.11349112 -0.017347908 0.046626944 0.17395854 -0.102135055 0.049887046 -0.04515897
-0.064648554 0.04785505 0.050952084 -0.0045224098 0.062425498 -0.1532921 0.05233516 0.013559751
-0.03420393 0.07613265 0.017628852 -0.0509565 0.045850493 0.018509304 0.064113826 -0.016439257
0.0027621998 0.10090123 -0.026140213 0.015329105 -0.06674868 -0.03692302 -0.029166987 -0.038045734

model.4.weight f4 [1, 64]
00000000: 9171 b43d 0ea2 13bd f2ad e23c 1fcb 073e
00000010: 5f9a 8abd 0793 013e 5ff8 2b3d 44bb 23bd
00000020: 392e 363d ac7f e5bc d5cb 803d e0a4 b33d
00000030: 325b 803d c962 c03d 84b4 fc3c 48cf cd3d
00000040: a202 e23d 9498 c63d dbdd 85bd bf3a 913d
00000050: 978c 1f3e e0b0 d7bd 52bf 9abd a12e 9c3c
00000060: 2ba7 ce3c a953 cf3d 367d 873d e7ae e1bd
00000070: 0051 833a c5e3 68bd 2697 0e3e 2622 0a3e
00000080: cdab 28be 7616 e53d f81d 54bd 4cab eebc
00000090: a7be ef3d 81d3 85bd 113a 57bd 8437 d5bd
000000a0: d840 efbd d20c 92bd 83ed abbd 3f37 acbd
000000b0: e2d4 f7bd dadc 1fbe 6ecb dfbd f7e2 cb3d
000000c0: 0737 1d3d 03ed 39bd 7207 f63d 1656 1c3e
000000d0: 4219 32bd 811d b73d e32a 3bbd 861a 71bd
000000e0: 9e74 153e 7029 01bd f3e3 be3c 1c27 183d
000000f0: b253 9a3d a488 863d 4ebd 09be 4273 d03d
0.088107236 -0.03604322 0.027670834 0.13261078 -0.06767725 0.12653743 0.041984912 -0.039973512
0.044477675 -0.02801498 0.06288878 0.08771682 0.06267394 0.09393842 0.030847795 0.100493014
0.110356584 0.09697071 -0.06536456 0.07091283 0.15580975 -0.10531783 -0.07556023 0.019065203
0.025226196 0.10123379 0.06615679 -0.11019688 0.0010018647 -0.056857843 0.13924846 0.13489589
-0.16471787 0.11185925 -0.051786393 -0.029134415 0.11706286 -0.06534482 -0.05254561 -0.104109794
-0.1168229 -0.071313515 -0.08394911 -0.08408975 -0.12101151 -0.15611592 -0.10927473 0.099553995
0.038382556 -0.045392048 0.12013139 0.15267214 -0.04348112 0.08941174 -0.045695197 -0.058863185
0.14595267 -0.03153366 0.023302054 0.037146673 0.07535495 0.06569031 -0.1345112 0.10178234
