models/metabolic_nn.pth (torch, 275537 bytes, 6 tensors)

model.0.weight f4 [256, 4]
00000000: 9d98 9e3e 7186 b13d 2e20 aa3e bc76 813e
00000010: ccec 10bd 90c5 78be 2d63 a7be 10c1 4bbd
00000020: 8a3a ef3d 6939 08bf 0d4c fa3e 6397 babd
00000030: b620 fcbd 6bfc a33e e611 a73d ce24 ea3e
00000040: f0ef d43d 69c2 85be 2099 a23e 9f40 ad3e
00000050: 85ef f9be f4b3 82be e241 24bc 58e5 29bd
00000060: 7c26 dcbd 2b0a b4be 91a6 88be f065 dcbe
00000070: 71b3 d9be 31da 6f3e 593d b23e fc11 b83e
00000080: 42e9 a63e 5fbb fc3c 1940 8e3e 418e 1abd
00000090: 9fbd 8f3e 8a43 ec3e ca95 ed3e cc3e cf3d
000000a0: 4d24 8dbb 9af2 aebd 659b bc3e efe9 743e
000000b0: 316c 5cbd cc5e 683e f198 5b3e 99f8 acbe
000000c0: 9ed7 453e 7bf1 9fbe 0f71 bc3e fe43 893d
000000d0: 4901 373e ab64 03bf 5528 fd3a f306 e2bc
000000e0: c5fd 003e f463 5dbe 1905 ab3e 343a 5d3e
000000f0: d983 0bbe 8643 a43e 527d ab3e ac29 613e
00000100: 6a18 aa3e 05db a33e 0f0e cf3e 84e6 903e
00000110: b875 513e 24a2 dcbe cacd 21be 197a e13e
00000120: bdce 623e d697 94be adc1 2d3e 5979 75be
00000130: 9083 773d f0be cbbe baeb 563d 19e7 303d
00000140: 870e 6cbe 2323 9ebe eb8f 1fbd a594 b73e
00000150: 57f4 583e 4294 49be 40c5 33be 4bf5 8e3d
00000160: 0950 753e b4a3 5f3e b823 52be 15e9 afbe
00000170: 2540 153d 591f fc3e bc12 07bf 6f11 33bd
00000180: 6f8f 37bd 3865 1e3e e0c4 ee3d b49e 00bf
00000190: b8d3 9dbd 7752 aa3e 4baf 97bd 2f6b 06bf
000001a0: 38e2 babe 2cbf ea3e cdab d5be 47b2 bb3e
000001b0: af21 9d3e ca3b 3ebe fe30 12bf e5d4 28bd
000001c0: c0e5 003e eb3c c73e e3d6 963e 6fb4 663d
000001d0: 2b18 be3e bbe6 013f a0fb 063e e378 973e
000001e0: e69f 50be 3c91 75bd cebb 5a3e 0651 10bf
000001f0: 9332 f7bc eca0 9d3e 528b 2ebf 77d1 2b3e
00000200: f70b 933e cdd5 c3be 9dbc 533d 947c cabd
00000210: 5145 803b 26e5 babe c279 c83b c060 cb3d
00000220: 9d97 d9be 74f1 45be 706c af3c 86e8 04bf
00000230: fb28 95bd 1b82 fd3e 6a7c a2bd 89af 9fbc
00000240: 9c6d b3be 98a3 20be e090 a53e fe49 7ebe
00000250: 2de1 44be 8243 a6be e12f 4abe ae80 4dbe
00000260: fca2 2d3e 3359 1e3e 3979 b03c b464 08bf
00000270: fff4 263c e911 00bf 4fec c63e 36d6 90bc
00000280: 00ff d6bc f76e 54be 1888 16be ef25 a5be
00000290: 7179 8cbd d523 0b3e 563d 603e 65c4 c03e
000002a0: b0f0 a63e 3cf4 163c d0ef 2fbd 5cb0 5a3e
000002b0: 8091 173e feb2 ff3d 1819 aa3c 0b0a d7be
000002c0: d3a3 05bf 3f94 563e 0911 b23e ffba c2bc
000002d0: 466f b13e a5a6 c3be e95c c63e cf52 df3e
000002e0: eb23 b0be 50c4 47be 7f1b 26be c35d fabe
000002f0: 0219 d3bd 1bee c23e 5e6a 53bd 54dd 743e
00000300: 486e 173e c77f 363e 5d8a fabe bace 903e
00000310: 0311 21ba 5dba b6be 0254 113e 159a 90be
00000320: b508 ed3b 2cb3 aebe 45f8 f53e ed41 94be
00000330: b7e4 81be 2a5b 6b3d e749 a33e 40b2 02be
00000340: 8068 453e 6949 e3bd 00e3 5ebe 50ca 8d3d
00000350: fbd3 793e 9b5d ef3e e546 86be c1c9 943d
00000360: b9ba ccbe 7797 943e 4e61 27bd 183e ad3e
00000370: 0b0e ee3e 9e22 d0be 2a73 34bd deea 273e
00000380: 5bc2 f9be 93df 583e c56b 6cbe 8d2b e1bd
00000390: 63a1 e8be 6219 61be 175e 15bf 4923 4ebe
000003a0: 92a5 cc3c 900d d4bc 9d69 bd3e e4cd 7f3e
000003b0: ddc7 83be 9c56 91be 689c e2bd 46d9 d13d
000003c0: ddf9 b83e 5a02 f13c e536 1bbe 4f62 16bf
000003d0: ba74 97be 7778 9bbe 5e68 873d 011f 983e
000003e0: 9d9b ea3c 1cdf 853e cd7e fbbe e1a2 be3e
000003f0: a350 dfbe 0e39 03bf dcf6 433e 64ac 693e
0.3097581 0.08668221 0.33227676 0.252859 -0.035382077 -0.24294114 -0.32692853 -0.049744666
0.11681087 -0.532126 0.48886147 -0.09110906 -0.123109266 0.32028517 0.08157711 0.45731205
0.10397327 -0.26124886 0.3175745 0.33838364 -0.4881555 -0.25527918 -0.010025473 -0.041478485
-0.10749528 -0.35164008 -0.2668958 -0.43046522 -0.42519715 0.23423077 0.3481243 0.3595122
0.32599837 0.030851064 0.27783278 -0.03773332 0.28074357 0.46145278 0.46403342 0.101193994
-0.004307306 -0.08542366 0.36837307 0.23917364 -0.053814117 0.22692412 0.21445061 -0.33783415
0.19320533 -0.31238922 0.36805007 0.067024216 0.17871584 -0.5132548 0.0019314388 -0.027591204
0.12596805 -0.2162016 0.33402327 0.21604234 -0.13624515 0.32082766 0.3349405 0.21988553
0.3322175 0.32003036 0.40440413 0.2830087 0.20455062 -0.43092453 -0.15801159 0.44038466
0.22149177 -0.29022092 0.16968413 -0.23972072 0.060428202 -0.3979411 0.0524709 0.043189142
-0.23052417 -0.30886182 -0.03895561 0.35855594 0.21186958 -0.19685462 -0.17555714 0.0698038
0.23956312 0.21839792 -0.20521438 -0.34357515 0.036438126 0.49242666 -0.5276296 -0.043717798
-0.044814523 0.154683 0.11658645 -0.5024216 -0.07706398 0.3326604 -0.07406481 -0.525073
-0.36500716 0.45848978 -0.41732636 0.36659452 0.3068976 -0.18577495 -0.57106006 -0.041218657
0.12587643 0.38913664 0.2946082 0.05632442 0.37127814 0.5074269 0.13181925 0.29584417
-0.20373496 -0.05995296 0.21360704 -0.5637363 -0.030175483 0.30786836 -0.68181336 0.16779123
0.28720066 -0.38249055 0.051693548 -0.09887043 0.003914513 -0.3650295 0.0061180303 0.09930563
-0.42498484 -0.19330388 0.021414012 -0.519173 -0.07283207 0.49513325 -0.07933886 -0.019492881
-0.35044563 -0.15687406 0.32337093 -0.24832913 -0.19226523 -0.3247338 -0.19744827 -0.20068619
0.16956705 0.15463714 0.021542178 -0.5327866 0.010190248 -0.5002733 0.38852164 -0.017680269
-0.02624464 -0.20745455 -0.14700353 -0.32255504 -0.068591006 0.13587888 0.21898398 0.37649837
0.32605505 0.009213503 -0.042953312 0.21356338 0.14801598 0.12485312 0.020763919 -0.4199985
-0.522031 0.20954989 0.34778622 -0.023770807 0.34655207 -0.38213077 0.3874276 0.43617865
-0.34402403 -0.19508481 -0.16221426 -0.4889966 -0.10307504 0.38072285 -0.05161511 0.23912555
0.14788163 0.1782218 -0.48933688 0.2828272 -0.00061441975 -0.3568906 0.14192203 -0.28242555
0.007233704 -0.34121072 0.48040977 -0.28956547 -0.25369808 0.057459988 0.3189232 -0.1276331
0.19278145 -0.11097986 -0.21766281 0.06923354 0.2439727 0.46751103 -0.26225963 0.07265044
-0.39986208 0.29021809 -0.04086428 0.33836436 0.4649509 -0.4065141 -0.04405514 0.16398188
-0.48781094 0.21179037 -0.23087986 -0.10994635 -0.45435628 -0.21982339 -0.58346695 -0.20130648
0.024981294 -0.025885373 0.3699464 0.24980885 -0.2573842 -0.2838639 -0.110649884 0.1024652
0.3612813 0.029420067 -0.1515766 -0.58743757 -0.29581243 -0.30365345 0.06611703 0.29711154
0.028638655 0.2614678 -0.4912018 0.37233642 -0.43616208 -0.51258934 0.19137138 0.22819668

model.0.bias f4 [256]
00000000: 8a76 653d 003f f03e 5432 213e 1ba4 97be
00000010: 720c 253e b160 6f3e ac19 cbbd 3860 28be
00000020: 6d33 823e 76e0 e63e 2fbe 8f3e f184 a5be
00000030: fad3 d0be ae1b b5be b04e 3c3e 28c6 7dbe
00000040: 031e 2cbe 5b16 3a3e f003 04be 5d32 0bbf
00000050: f720 b63e da83 f73e 35ba b23d 82d4 23be
00000060: a049 89be 5a18 a73d b9cb d3be d3bc 3ebe
00000070: 40cb 093f 77ea 4bbb 3a35 97be b335 65be
00000080: 08d9 f33e 6b90 bdbd 5657 fc3d e450 3cbe
00000090: 5d9e 3b3e 062f 40be 7e17 fdbe 6196 c6bc
000000a0: 2aec c83e 48c6 fdbd 12c9 25be 62c1 d0be
000000b0: f6ea 24be 02f0 9bbb 4277 1dbe ef6f a33e
000000c0: aa5a 38be ce5a 4e3e 29a6 27be e992 84be
000000d0: 963d 4d3d 3ea2 43be 77ef adbe 729e 12be
000000e0: ef4f 02bf c5eb 5ebe 1b2d adbe ad55 c4bd
000000f0: caab b9be 7cb7 debc 796f a6be 1fd1 f2bc
00000100: 86aa cbbe d875 60be d877 b43e 9a91 8ebe
00000110: 664c 91be a25c 22be 5d32 4cbe caec b9be
00000120: 2e64 d4be d39a ab3e cc6b a43e a7cf 623c
00000130: 6ac4 1abd 4cec f23d 7c65 943d cc2b 6bbd
00000140: 1b7e c13e c204 01be a442 e73e 3857 c83e
00000150: 1d99 70be aa68 b23e 6d8e f3be e751 e9ba
00000160: 4a53 db3e ee45 de3d f024 103e 3c33 cd3d
00000170: ddae d9be 812e e3be b79b 4e3e d231 27bd
00000180: 7e60 9b3e 6c92 953e 0496 e73d 9f17 a93e
00000190: 6853 8fbe 35eb 9bbd 002c bdbe 35f0 84be
000001a0: 0a07 18bd c330 2c3e b092 afbe 12ac fa3e
000001b0: a9fe 49be f978 f83e 6099 8e3e fcff f73e
000001c0: b8c7 6a3e b8fa ddbe 6e22 0f3f 63a4 d03e
000001d0: 486f a0be c185 b73e c5b0 623e 6725 e03e
000001e0: c4d3 df3d 7b6e 173e 0999 0fbe 76c9 b7be
000001f0: 6bbc 91be ce10 f73e 432c 8f3d b9fc ddbc
00000200: 117a f53d c86b 463e b75b 7bbe 8f9c 803e
00000210: 6faa 82bd 14cc edbe 7eea b6bd 97ad f03e
00000220: 5982 963e ac6a 30bf 381e 0ebe 0801 76bd
00000230: b9fc 03bf be9f 72be 26c3 50bd 1468 ed3e
00000240: 0cc4 00be eb28 0f3f e5ce a93e 737e e8be
00000250: 54fa e53d e63b bf3e 08f8 9bbe 18f0 67be
00000260: 8e4b 54be 49b2 e8be 5bff 023f 8faf a3be
00000270: a97a cebe 8486 0a3f 9e89 d63e c0da 093f
00000280: 0192 c93e 27f2 d0bc 7cc1 3f3e 4648 d7be
00000290: 2e46 f4be d425 903e 72d2 6e3e 5859 113e
000002a0: 30b6 dabe 8148 493e 2bc6 793e 2f2d 613d
000002b0: bb50 0ebe 1a18 e83e 4f40 d0bc ce6b c63e
000002c0: 73ba 553e 65fa 583e 249a d53e 4d5d df3e
000002d0: a061 05be 30ec 9dbe aa6b 0c3f 7ada d13e
000002e0: 67f5 89be 2bd5 99be f8a7 b33e b9dc ab3e
000002f0: 77f8 28bd 315a 483e 01e8 60be 576c 233e
00000300: c5e4 afbe 64aa eb3d 633b 833e af37 d53e
00000310: e76e f8be a866 333e e764 243e 5201 09bf
00000320: 19be e0be 5fae 983e d5a8 2e3d 2812 c63d
00000330: b353 053f 8de9 ee3e ae17 aabe 4486 26be
00000340: 103f ebbc 03f9 8bbe 163f ca3a 6bcc 1b3e
00000350: 77db 973e 55b3 e3be c732 943e b310 c33e
00000360: a810 b6bd 0534 0e3e cf54 a9be 74cb f4be
00000370: 587b e03e 97a6 f5bd d6a9 f4be f0e8 733e
00000380: 30d9 5a3d 32bb 173d ac9b 90bd 0945 14be
00000390: 8403 d8be 766b 3c3e b195 103f bcf4 99bd
000003a0: 7213 4f3e 3f83 ce3d 8646 bd3e 10a9 cdbc
000003b0: c493 9f3d ed85 e53e 1ea6 2f3e ebe8 783e
000003c0: b495 763e 672d a1be d109 143c ec51 4a3e
000003d0: 24ab ed3e 5445 853d b938 903e 510e c43e
000003e0: 04c6 be3d a19a 5b3e 0a19 4e3e b839 953e
000003f0: 92e5 ea3d 772d 9bbe 9691 ee3c bcf1 1dbd
0.05602125 0.46923065 0.15741855 -0.2961739 0.16118029 0.23376729 -0.09917006 -0.16442955
0.2542986 0.45093125 0.28074786 -0.3232799 -0.40786725 -0.3537268 0.18389392 -0.24782622
-0.16808324 0.1817259 -0.12892127 -0.54373723 0.35572025 0.48342782 0.087269224 -0.15999034
-0.26813984 0.081589416 -0.41366366 -0.18626718 0.5382576 -0.0031115094 -0.29532796 -0.22383766
0.4762652 -0.09256061 0.123213455 -0.18390232 0.1832213 -0.18767938 -0.49431986 -0.024241628
0.3924268 -0.12391335 -0.16189983 -0.4077254 -0.16105255 -0.004758836 -0.15377524 0.31921336
-0.18003336 0.20151827 -0.16371979 -0.25893334 0.05010756 -0.19104859 -0.3397176 -0.14318255
-0.5090322 -0.21769626 -0.33823475 -0.09586654 -0.36263877 -0.027187102 -0.32506922 -0.029640732
-0.39778537 -0.21919954 0.35247684 -0.2784546 -0.283786 -0.15855649 -0.19941087 -0.36313468
-0.4148268 0.3351656 0.32113492 0.0138434535 -0.03778497 0.11861476 0.07245919 -0.057414815
0.37791523 -0.12599471 0.4516803 0.39129043 -0.23495908 0.34845477 -0.475696 -0.0017800898
0.42836982 0.10853182 0.1407659 0.10019538 -0.42516223 -0.44371417 0.20176588 -0.040818997
0.30347055 0.29213274 0.1130791 0.33025834 -0.2799332 -0.076132216 -0.36947632 -0.25964513
-0.037116088 0.16815476 -0.342916 0.48959404 -0.19726051 0.48529795 0.2785139 0.48437488
0.22927749 -0.43355346 0.5591191 0.40750417 -0.313349 0.35844234 0.22137745 0.43778536
0.10929063 0.14788239 -0.14023222 -0.3589589 -0.28464064 0.48255008 0.06990864 -0.027098047
0.11986173 0.19377053 -0.24546705 0.25119445 -0.06380164 -0.46444762 -0.089314446 0.4700744
0.29396322 -0.6891277 -0.13878715 -0.060059577 -0.515575 -0.2369375 -0.050967358 0.46368468
-0.12574786 0.5592181 0.3316566 -0.45408973 0.11229387 0.37350386 -0.3046267 -0.22650182
-0.20731947 -0.4544852 0.5117089 -0.31969878 -0.40327957 0.54111505 0.4190187 0.5384941
0.39369205 -0.025506092 0.18726152 -0.42047328 -0.47709793 0.2815386 0.23322466 0.14194238
-0.42717123 0.19656564 0.24392001 0.05497473 -0.13897984 0.45330888 -0.02542129 0.38754123
0.20871906 0.21189268 0.41719162 0.4362587 -0.13025522 -0.3084426 0.5485178 0.40986997
-0.2694504 -0.30045447 0.35089087 0.33566836 -0.04125258 0.19565655 -0.21963502 0.15959297
-0.34354225 0.11507109 0.25631246 0.41644046 -0.48522112 0.17519629 0.16054116 -0.5351764
-0.43895033 0.29820535 0.04264148 0.09671432 0.5208084 0.4666256 -0.3322119 -0.16262156
-0.028716594 -0.27338418 0.0015430178 0.15214698 0.29659626 -0.44472757 0.2894499 0.38098678
-0.08889896 0.13887031 -0.33072516 -0.47811472 0.43844104 -0.11994665 -0.47785825 0.23819327
0.053429782 0.037043758 -0.07060942 -0.1447946 -0.42190182 0.18400368 0.5647841 -0.075173825
0.20222262 0.10083627 0.36967868 -0.02510503 0.07791856 0.4482874 0.17153212 0.24307601
0.24080545 -0.31479952 0.009035544 0.19757813 0.46419632 0.06507364 0.28168276 0.38292173
0.09315112 0.21445705 0.20126739 0.29145598 0.11469568 -0.30308124 0.029122155 -0.038560614

model.2.weight f4 [256, 256]
00000000: 1272 2ebd f97f b63c 5839 34bd 5852 2b3a
00000010: 5823 e93c cdd1 1fbd 98f4 44bd f6e2 72bd
00000020: 833b 6c3d 3ce0 313d dfea 61bd a5cb 90bd
00000030: 91ec 4ebd 75b5 a5bd 0377 89bd ba15 3ebd
00000040: 048b 46bd ef49 d53c df9e c9bc 2f29 963c
00000050: 8fd7 b1bc 3522 7d3c 1996 5a3d 4098 78ba
00000060: c03f 34be 25bb 883d 4469 5a3d 3bdb 28bd
00000070: b37c 1cbd 69d7 11bc 200a c8bc 4169 0bbc
00000080: bdbc 64bc 7ab1 3dbd 6930 91bd 8d73 83bb
00000090: ae05 20bd 947c 11bd 75ba 8abb 5768 8a3c
000000a0: ae4b f53c 980d babd e781 f03c 37d4 853d
000000b0: 67a0 debd 9502 61bd 38e8 2abe 1877 b6bc
000000c0: 167a 0cbd 8294 903a 1738 2a3d 408a 84bd
000000d0: 8787 163c d7e3 c03c e008 68bd 8da0 adbd
000000e0: 1052 a73c 4c29 9ebc 5b23 5ebd 3381 033d
000000f0: ba08 8cbd 0e7e ea3b 8286 92bc b781 0c3d
00000100: 9fc4 8bbc d9b3 e73b c196 0b3d 9810 a3bc
00000110: a483 a13c ebde 92bb ce7b e33c 8e09 b0bd
00000120: 5685 1e3c cc0e 813d d2f4 eb3c c648 c23b
00000130: 738d 0cbd 1199 cb3c 3da8 0dbd eb65 113d
00000140: a4a3 6c3d 559b 7abd 7e33 94bd eea3 c83b
00000150: 368b 10bc 617f 94bb 0e06 3c3d 1ddd c43c
00000160: c702 b3bd 9340 eebc 0ae8 4e3d 2f8d ff3c
00000170: 2420 f5bc 2f46 523d a5a1 323d 61fb e83b
00000180: 7a72 30bd b86a 6bbd 8bfd f2b9 dbf0 8ebd
00000190: 594a 15be 526e a0ba a4a9 303d cb3b 4d3d
000001a0: c67a 67bd ef29 3abd a63c 523d e96f 8a3c
000001b0: 9eda 51bc 0e9f 283d 93ab f93c 500a 323b
000001c0: 522c 1dbd b1ce aa3d 8d72 d9bc 8ff9 29bd
000001d0: 7a47 a13d f1e7 7a3c 6cd0 883d 8d08 b53b
000001e0: 1094 7cbc 3d47 7d3c dbe7 8abc dda0 eebc
000001f0: 89c3 133a ab43 4cbd 264c b5bc fca0 263d
00000200: a2e8 113d 2054 17bd 31d3 82bb 6890 fcbc
00000210: 42e7 25bd 7589 9e3c 462b ec3a 29e0 753d
00000220: 3f29 c8ba 2100 b8bb 2eeb 04bd da19 08bd
00000230: b082 4cbe e495 93bd a5eb 0bbd cc7d b93c
00000240: d39c b5bb 5c37 523d a39c a13d 1162 2c3b
00000250: 56b5 613c b3ef fabc e04c a5bd 907b 00bc
00000260: 32dd 0d3d e86b 2cbe 82ed f7bc 1ac2 70bd
00000270: 58d4 74bd 0c3a b7bc 93bc 2a39 5fae dd3b
00000280: c56a 163d df00 56bc 4b8d 54bd 7087 583d
00000290: 25a5 993c dff8 9fbc b7d7 97bd 123e 963c
000002a0: 4afd 19bd c7a6 833b f7f2 d2bc b1d6 77bd
000002b0: 1b1e 223c 1f8f 03bd a38c 60bc fa71 763b
000002c0: 66ff 95bc 5115 bb3c 68a4 933d 91f0 14bc
000002d0: bf77 bebd d504 013e 658e 1ebd f34f 6b3a
000002e0: 95cd 933c a21e a7ba 65ba abbd 117a c43c
000002f0: a6d3 3bbc 4131 23bd 5665 0fbe 67d3 613c
00000300: 4ee9 aa3d 7663 6f3b 12f4 6d3d 3d0b 4bbd
00000310: ac0a aebd db0a 86bc 3eb4 9cbd 3c2c 99bc
00000320: ef09 afbd 737e febc d6fc 7fbd 5135 3c3c
00000330: 87bf a1bc c45f 38bd 1243 efbd 987c a63b
00000340: 66f5 82bc dfc0 aabd 0bd1 513c f93b 5bbd
00000350: 8424 d53c d8f4 f43b f87c d0bc 4b7c ecbb
00000360: 328b 46bd 5a03 86bc 3e7f b2bc 1315 19bd
00000370: 2fd0 02bd 417c bcbd b776 82bd 6c0b 9dbb
00000380: ea28 4cbd ad8a 2fbd 6d0e 9239 2426 a4bc
00000390: f1f7 c4bd e180 823d a480 3f3d 7fb0 113d
000003a0: 5ec6 08bd ca51 333d f586 ca3c 82c1 eebc
000003b0: 1ba2 4eba 8038 8f3d 8c67 92bd f66d 73bc
000003c0: 81a8 3bbd f44e 523d 3061 adbd eaa7 70bd
000003d0: 867d 293d 5916 213c 67f1 1fbd 3f10 74bd
000003e0: 8434 17bd ad2a d93c bbd9 213d 5421 c0bc
000003f0: 5f00 dcbc 08aa 34bd 8256 a2bc 279f b1bd
-0.042589255 0.022277819 -0.044 0.00065354025 0.028459236 -0.03901844 -0.048084825 -0.059298478
0.057673942 0.043426737 -0.05515563 -0.07070092 -0.050518576 -0.08091251 -0.06712153 -0.04640744
-0.04847242 0.02603623 -0.024611888 0.018330185 -0.021709232 0.01545005 0.0533658 -0.0009483136
-0.17602444 0.0667632 0.053323045 -0.0412247 -0.03820486 -0.008901455 -0.02441889 -0.008508981
-0.013961014 -0.046311833 -0.07089312 -0.0040115775 -0.039067917 -0.035519198 -0.004233653 0.016895456
0.029943313 -0.09084624 0.029358817 0.065346174 -0.10870438 -0.054934103 -0.16690147 -0.022273585
-0.034296118 0.0011030587 0.041557398 -0.064716816 0.009187586 0.023546143 -0.05664909 -0.08477888
0.020424873 -0.019306801 -0.054232936 0.032105636 -0.06837602 0.00715614 -0.017886404 0.034303393
-0.01706153 0.007071 0.034079317 -0.019905373 0.019716091 -0.0044821403 0.027768996 -0.085955724
0.009675344 0.063016504 0.028803263 0.0059290854 -0.034314584 0.024853261 -0.034584273 0.035497587
0.057773247 -0.061183292 -0.07236384 0.0061230576 -0.008822253 -0.0045317863 0.04590421 0.024031216
-0.08740764 -0.029083526 0.05051426 0.031195251 -0.029922552 0.051336464 0.043611187 0.007110045
-0.043077923 -0.05747482 -0.0004634674 -0.06979533 -0.14579143 -0.0012239909 0.043130532 0.05010585
-0.05651357 -0.045450147 0.05132737 0.016899066 -0.01280847 0.04116731 0.03047732 0.0027166791
-0.038372345 0.083402045 -0.02654388 -0.041497763 0.07874961 0.015314088 0.06680378 0.005524701
-0.01541616 0.015458879 -0.01695626 -0.02912944 0.0005636742 -0.04986922 -0.022131037 0.04068087
0.035622247 -0.036945462 -0.003992461 -0.030830577 -0.040503748 0.019352654 0.0018018268 0.06002823
-0.0015271081 -0.0056152497 -0.032450847 -0.03322778 -0.19971728 -0.07206324 -0.034160275 0.022642992
-0.0055423765 0.051322326 0.07891204 0.002630357 0.013776144 -0.030631876 -0.08071303 -0.00784196
0.034634776 -0.16838038 -0.03026462 -0.05877886 -0.05977282 -0.022366546 0.00016282713 0.0067651714
0.036722917 -0.013061731 -0.05189256 0.05286354 0.018755505 -0.01952785 -0.07414191 0.018340144
-0.03759507 0.004017684 -0.02575062 -0.06050748 0.009894873 -0.032118913 -0.013705405 0.0037604556
-0.01831026 0.022837313 0.072090924 -0.009090559 -0.093001835 0.125995 -0.038710017 0.0008976452
0.018042365 -0.0012750218 -0.08385161 0.023983987 -0.011464035 -0.039841894 -0.140035 0.013783312
0.083452806 0.003652779 0.05809409 -0.049571265 -0.08498129 -0.016362598 -0.07651566 -0.01869785
-0.085468166 -0.031066155 -0.062496983 0.011487321 -0.019744648 -0.045013204 -0.116827145 0.0050807707
-0.015986156 -0.083375685 0.012806187 -0.05352399 0.026018389 0.0074754767 -0.025450215 -0.0072169653
-0.04847259 -0.01635902 -0.02178919 -0.037373614 -0.03193682 -0.09203387 -0.06370299 -0.0047926214
-0.049843706 -0.04285686 0.00027858038 -0.020037718 -0.096176036 0.06372238 0.04675354 0.03556871
-0.033392303 0.043779172 0.024722556 -0.029145006 -0.0007882432 0.069931984 -0.07148656 -0.01485776
-0.045814995 0.051344827 -0.08465803 -0.058753885 0.041379474 0.009831988 -0.03904858 -0.059585806
-0.036915317 0.026509607 0.039514285 -0.023453392 -0.026855646 -0.044107467 -0.01981664 -0.08672934

model.2.bias f4 [256]
00000000: a9d1 5abb 68bf 783d bd66 23bd f9bf b2bc
00000010: 3f83 b13c 1418 b93d c8c8 80bd 6263 643d
00000020: 2d99 82bd 3637 923d 1296 1abd c593 1a3c
00000030: 26b3 e2bc 2b01 8bbb 3790 58bd a451 92bc
00000040: 9af0 ccb8 ddb0 fcbc 09fe 943d eb1f 923d
00000050: c87f 2dbc 9ad5 16bd 5f14 613d 31a8 7e3c
00000060: e73e 0abd e822 743c 9768 e73c 8383 4b3d
00000070: 84c9 74bd 1a8a dbbc 9f72 c53c 30b0 7abd
00000080: 38e7 90bd 9d37 dfba e87c c13b afd3 0bbc
00000090: 3b65 f83c da78 843d 056a 483c 242c 93bd
000000a0: c266 803d bdf8 46bd 685a cfbc b7d1 a13b
000000b0: 6e8c 2cbc 9d41 fcbb c476 67bd 357c 34bb
000000c0: 0f25 babd e09d 2f3d 9d0e 0abc c71d 8ebc
000000d0: 47b3 98bd f34f d9bd 13cc 873d c35c 2dbd
000000e0: 1e22 bb3d 6042 183c 200c 8f3d 1df4 2d3d
000000f0: 4e36 da3c 36ef f4bc 15fb 8cbb a6b0 bfbc
00000100: a320 19bd a0dc 403d 242e afbc 212b 303d
00000110: c6c0 84bd 0f0f 6c3d 3e10 f0bb 8f72 b23c
00000120: eed1 88bd 7dfe 843d 0d37 5ebd b057 d73c
00000130: 3c3b 2c3d 8506 883d 4f40 9cbd 1abf b23b
00000140: 5beb fbbc d6c6 8a3c bbfe 753c 32ae 023d
00000150: 63ad 663d 0aac 11bd 40db 8bbd d588 6e3d
00000160: 32a3 a7bd 4134 bf3c deea 413c 2211 213d
00000170: 24aa 453d 71a1 f43a 06fe 473d 6fe9 d13c
00000180: 59c8 b53b 1690 b7bb 48dd 063d 5c1c 573d
00000190: 388e e1ba d1e9 39bd b9b2 1fbd 4c20 7abb
000001a0: 9d48 d6bc a6d1 ef3c 8435 91bd 963d 373d
000001b0: 3007 4d3c d714 f1bc 703e ebbc d6aa bdbc
000001c0: bc14 c1bd b9d9 383d ced9 9d3c f452 bd3c
000001d0: 8f6b d2bc cb21 3abc 6b66 a03d c1ee 233d
000001e0: a29b 923d 1b65 413d f775 1fbd 9296 7b3d
000001f0: e43f 5c3d a021 95ba 390b fc3c b4a2 a43d
00000200: b333 7e3c b04d 1fbd 5c8e 8cbd 1a13 67bb
00000210: b363 dbbc e1a8 74bd 7522 febc 790c 89bd
00000220: 7a7c 663d 3fcb 31bc d91a dcbc b35e cc3c
00000230: 1f8b 233d 62cb ec3b 06ab 69bd 0d04 993c
00000240: 2506 803d 7f00 dfbb 175e 55bc f5bc 253d
00000250: 25f6 76bd 7fb8 943c aa51 f43c 800a 8b3c
00000260: 5ae5 33bd c024 703d 13ea 9b3d 07ed 4abd
00000270: 0ef2 793c a502 c83c 6930 7dbd f2a4 bfbc
00000280: 66f4 2b3c 4325 bb3b e035 6dbd ae86 5abd
00000290: 3a5d fe3c d9f3 1fbc 1fc9 453c a79c 703d
000002a0: aac1 c03a 61d1 cebc 0c60 6ebd 15d3 973c
000002b0: 195a 8b3d 7d05 173d 9ba5 43bd a35c 903d
000002c0: a480 763c ed94 fcbc a169 6ebd f266 37bd
000002d0: 9892 8fbd 9599 a03c c168 213d 8960 92bd
000002e0: 89f8 783c b08f 85bc 573c 373d 8330 55bc
000002f0: cf8d 5cbd d3cd dfbc e9c7 91bc 30b3 e1bc
00000300: 16aa a23d ece1 da3b 6ca7 03bc 9643 8bbd
00000310: 3e4a 84bd 4bc8 683d c652 9a3d a76a 0ebd
00000320: 8cba 623d 6e23 d13c 1cd4 10bd d3bf abbb
00000330: 3a0c c93c dfe6 debb c1b8 8cbd 3970 5fbd
00000340: 6bed 31bd b220 583d cd5f bbbc 3f13 a93c
00000350: cc66 333d 68ae 233d 809b 80bc c1ca c9bc
00000360: 75ea 85bd ea98 3fbd 5030 87bc 82b3 b03c
00000370: 38e0 2f3b 3ea4 153d 5251 88bc 5a4e 51bd
00000380: 3ac3 4ebd 1752 6bbd 57b9 8ebc 82da dcbc
00000390: 037f 263d 97a7 c9b9 137d c13c a45e 453b
000003a0: fc2f 42bd a96b 2b3d 5b59 4abc 74d0 f7bc
000003b0: 557d 57bb 43d8 123c de00 c63b 443a 12bd
000003c0: e6ee c0bb 2ab7 793d 36fd 3b3d 3d25 103d
000003d0: fbdc 6dbc 2f82 45bc f07d 893d f463 aabc
000003e0: a831 d13c 2fb4 353d b233 acbc fe51 e93c
000003f0: 2b48 c0bc 3c69 57bd 7303 95bd 3eb0 5ebd
-0.0033389127 0.060729414 -0.0398929 -0.021820055 0.021669028 0.09037796 -0.06288296 0.05575884
-0.06376872 0.07139437 -0.037740774 0.009434645 -0.027673315 -0.0042420826 -0.05287191 -0.017861195
-9.7722936e-05 -0.030846054 0.07275016 0.07134994 -0.010589547 -0.0368248 0.054951068 0.01554303
-0.033751395 0.0149009 0.028248115 0.049685966 -0.059762493 -0.02679925 0.024102507 -0.06120318
-0.070753515 -0.0017030124 0.0059047826 -0.008534356 0.030321708 0.06468363 0.012232308 -0.071861535
0.062695995 -0.04857706 -0.025311664 0.00493833 -0.010531528 -0.0076982514 -0.056509748 -0.0027539853
-0.090890996 0.04287517 -0.008426336 -0.017348183 -0.074560694 -0.10610952 0.06630721 -0.042324793
0.09137367 0.009293169 0.069847345 0.042469133 0.026637223 -0.02989922 -0.0043023922 -0.023399662
-0.03738464 0.047085404 -0.021384306 0.04300988 -0.06482081 0.05763155 -0.007326155 0.021783141
-0.06680666 0.06493852 -0.05425172 0.02628693 0.042048678 0.066418685 -0.076294534 0.00545491
-0.030751875 0.016940515 0.015014346 0.031904407 0.0563177 -0.03556446 -0.06828928 0.058235962
-0.08185424 0.023340346 0.011835782 0.03932298 0.048257962 0.0018663836 0.04882624 0.025624005
0.005547565 -0.005601893 0.032925874 0.05251728 -0.0017208522 -0.045389 -0.038988803 -0.0038166223
-0.026157672 0.029274773 -0.070902854 0.044736467 0.012513921 -0.029428883 -0.028716296 -0.02315275
-0.09427783 0.04512951 0.019268896 0.023110844 -0.025686054 -0.011360596 0.07832035 0.040022615
0.07158591 0.047215562 -0.03893086 0.061422892 0.05377187 -0.0011377819 0.03076707 0.08038846
0.015515256 -0.038892448 -0.068630904 -0.0035259188 -0.026780939 -0.059731368 -0.03102229 -0.06691832
0.056271054 -0.01085168 -0.02686827 0.0249475 0.039927598 0.0072263936 -0.057047866 0.01867869
0.06251172 -0.006805479 -0.013022921 0.040463407 -0.060293335 0.01815438 0.029824097 0.01697278
-0.0439199 0.058628798 0.076130055 -0.049542453 0.015255464 0.024415324 -0.061813746 -0.023394082
0.010495281 0.005711229 -0.057912707 -0.053351097 0.031050313 -0.009762728 0.012071877 0.058743145
0.0014706154 -0.025246324 -0.058197066 0.018533269 0.06804294 0.03687047 -0.047765356 0.07048919
0.015045319 -0.030832732 -0.058206204 -0.04477591 -0.070103824 0.019604484 0.03940654 -0.07147319
0.015195974 -0.016303867 0.04473528 -0.013012054 -0.053846177 -0.027319824 -0.01779552 -0.027551264
0.079425976 0.006679764 -0.008035522 -0.068 -0.06459473 0.05683164 0.07535319 -0.03476968
0.055353686 0.02552959 -0.035358533 -0.005241373 0.024541963 -0.0068024243 -0.068711765 -0.054550383
-0.04343931 0.052765556 -0.02287283 0.02063906 0.043799207 0.03996125 -0.015699148 -0.024632813
-0.0653886 -0.04677669 -0.01650253 0.021569971 0.0026836526 0.036533587 -0.016640339 -0.051100112
-0.05047915 -0.057451334 -0.017422361 -0.026959661 0.04064847 -0.00038462572 0.02361921 0.0030116225
-0.047409043 0.04185072 -0.012350406 -0.030250765 -0.00328811 0.008962694 0.006042584 -0.035700098
-0.005887854 0.060965694 0.045895778 0.035191763 -0.014518018 -0.012054964 0.06713474 -0.020799614
0.025536373 0.04436129 -0.021020744 0.02848148 -0.023471912 -0.052590594 -0.072760485 -0.054367296

model.4.weight f4 [4, 256]
00000000: bd94 ae3d f19d 7a3d 63fe 66bd 09a5 5c3c
00000010: 5247 83bd dfa9 a23d 2880 46bc b444 963d
00000020: 022c 00bd 7a01 8cbc 5a8f debd 51db 1d3d
00000030: 052c 303d 14f7 2bbd 5691 ccbb 0ded a6bc
00000040: 7141 7a3d 212f 36bd a548 5a3c b1f4 3c3d
00000050: 5003 243d 725c 073d c639 e33c f329 843d
00000060: eb12 673d 64ac 193d b217 89bd 84cf 403c
00000070: cf25 9ebc 7eaa 193d 6dca 0fbd 8c22 27bd
00000080: 5ace 173d 86e1 b6bd 9049 54be fbd4 88bd
00000090: fd79 6ebd 5a76 283b 18cf 1eba 58cd fcbb
000000a0: c124 453d 5363 3a3d 88c9 07bc d2b4 653d
000000b0: 0708 bbbd 28a8 9b3d 9a59 35bd 89d9 88bd
000000c0: 43b1 43bc 7410 1abd d792 cabc 7cc7 febc
000000d0: 02eb b9bd 4c1f bc3e 2f7c c0bc 15cd 30bd
000000e0: ffdf b3bb a093 a0bc 545d a93d 368c 603d
000000f0: 5610 21bb 41c9 4f3d 48ac 073d 4ab2 e13c
00000100: 834e 0cbd 7e69 bebc 81f0 4b3d e2d8 303d
00000110: b99c f03c 97ae 5cbc 9d51 4d3c 6748 50bd
00000120: 35e0 e43c f817 0d3e c27f 46bd 1a83 323d
00000130: bff8 96bd 9432 08bd 5e0f 853d 0051 eb3c
00000140: 4d06 65bd b638 983d a1a4 e43d 216c 65bd
00000150: c444 6b3d 08ef 593d 496e e4bb 9c19 0dbd
00000160: 56db 54be 71b7 c83c 5a42 80bd 8319 0d3d
00000170: d790 3a3d 315c 7c3b 2695 cebd b25c 533d
00000180: 0a37 103d c7ef 8ebd c1da 07bc 1645 0dbd
00000190: 1b58 d7bd a253 2b3d 0b56 17bd 49fb 4abc
000001a0: 5fc1 ab3d 561d d53d 582a 12be afd5 35bd
000001b0: 20fe c3bb e1e8 253c be8d 16bc b13b 0dbe
000001c0: 55b6 0b3e 72e9 9f3d b842 e93c 4720 a63d
000001d0: 9e7a 13bd 5383 133d 854c 793d 54b1 ce3c
000001e0: a30e 21bd 4724 b23d d7e9 a3bd bf90 d5bc
000001f0: 9785 a8bc fe8d 67bd a56f c6bd 6127 16bc
00000200: e78b 85bd 3a9d c2bc a8c0 ba3c c332 5abb
00000210: f3f9 18bb f3f0 b2bd 8150 c13c 853a 1dbd
00000220: b4dc 20be 5bbd b7bc 3720 233d a66f aebc
00000230: e139 8a3d 289c 353d e3e3 72bd f1bc 4bbd
00000240: 475b b43d 54e1 86bd 4f20 a0bc 0082 46bd
00000250: 96f1 503d c743 be3d e983 643d c3d8 fc3d
00000260: 1492 fbbc d40f e23c 90cd 9dbb d955 533c
00000270: a5cc 63bd a9da 47bd 1e55 d43d cfb5 d43c
00000280: 5623 513d a3b6 063d 7ae1 24b9 563c 633c
00000290: 940c 95bd 117b aa3c 1777 ab3d 07bd 6fbd
000002a0: 0821 2c3c 6ce5 123d 4fa7 e5bc 25de 693c
000002b0: 9ec3 24bd d68a 353c b744 89bc a16a df3c
000002c0: 1aa5 f8bc cc9c a3bd 926c 6a3d 6aff bbbd
000002d0: 96e0 54bd bf76 17bc 85a5 6a3c 310f bfbc
000002e0: dec0 743d ce3c 14bd e786 423d ea27 05bd
000002f0: a8ab aa3c cb9e bcbc 2b02 d9bc 2fba 4e3d
00000300: a126 c73c 2119 c2bc f2ad 253d 8931 8abe
00000310: f092 0fbe fa56 3fbc 65e4 923d cffa 27bd
00000320: ccd8 2bbd ac20 eebd eb75 4abd 9ee7 c33d
00000330: 7ce0 0cbd 2893 943d f9ed ea3a 35b8 b13a
00000340: 2bea 7b3c 00d5 a43d 14da 2c3c e860 e0bd
00000350: 5c76 40bd f733 95bd 5bda 773b c7dd 02bc
00000360: 21f9 9fbd 1bf4 c0bd 16f1 7d3d dcf6 bbbd
00000370: 5acd 9fbc b611 37bd 1ec3 8b3d 777a 6b3c
00000380: 1d01 33bd 763c 1b3d 4857 ddbd fd36 8c3d
00000390: baf3 b1bd 0f6c a4bc f061 953d f282 44bd
000003a0: 40d6 82bd 4509 603d 9704 3a3d 30ca 35bd
000003b0: f0ce 7dbc 0562 2fbd 2aa1 d7bd 367f 8f3d
000003c0: 5d12 163d 4e16 75bd ff68 ad3c 04fa cbbd
000003d0: a86d 383e e7f7 8fbd 6973 96bb 0d44 a4bc
000003e0: b367 693c 3c4b c8bd 87ce 853d 701c f2bc
000003f0: 8f54 d23c 3681 3abd 2ba4 8a3c 75db 063d
0.08524463 0.06118578 -0.056394946 0.013467082 -0.06410088 0.079425566 -0.012115516 0.07337323
-0.03129197 -0.017090548 -0.10867186 0.038539235 0.04301073 -0.04198368 -0.0062429113 -0.020376706
0.061097566 -0.04447854 0.013322984 0.046131793 0.04004222 0.033047147 0.02773751 0.06453314
0.056414526 0.03751792 -0.06693973 0.011768226 -0.019305138 0.03751611 -0.035105158 -0.04080443
0.037062027 -0.08929734 -0.20731187 -0.06681248 -0.058221806 0.0025705309 -0.0006058081 -0.0077149086
0.048130754 0.04550488 -0.008287795 0.056080647 -0.091323905 0.07600433 -0.044274904 -0.066821165
-0.011944118 -0.037613347 -0.024728222 -0.031100981 -0.09078027 0.36742628 -0.023496715 -0.04316433
-0.005489349 -0.019601643 0.08269754 0.054821216 -0.0024576387 0.05072904 0.033123285 0.027550835
-0.034254562 -0.023243662 0.04978991 0.043175586 0.029371606 -0.01346936 0.012531665 -0.0508503
0.027938941 0.13778675 -0.048461683 0.04358206 -0.07371663 -0.03325136 0.06497072 0.028725147
-0.055914212 0.07432692 0.11164213 -0.056011323 0.057438627 0.053206474 -0.006971155 -0.03444825
-0.20786795 0.024501534 -0.062626556 0.034448158 0.045548286 0.0038507099 -0.100870416 0.051602073
0.03520874 -0.06979328 -0.008291901 -0.034489714 -0.10514852 0.041827805 -0.03694729 -0.012389013
0.08386492 0.10405986 -0.14273965 -0.044393238 -0.005981222 0.010126323 -0.009189067 -0.13792302
0.13643773 0.07808198 0.028474197 0.08111625 -0.03600561 0.036013912 0.06086399 0.025231041
-0.0393206 0.086983256 -0.08003586 -0.026069997 -0.020571513 -0.0565319 -0.09689263 -0.009164662
-0.06520825 -0.023756612 0.022796944 -0.0033294416 -0.002334234 -0.08737364 0.023597958 -0.038385887
-0.15709192 -0.022429159 0.039825644 -0.021293472 0.06749321 0.044338375 -0.05929936 -0.049740735
0.08806472 -0.06585947 -0.019546656 -0.04846382 0.051011644 0.09290271 0.05578986 0.123460315
-0.030709304 0.027595438 -0.0048157647 0.012898886 -0.055615086 -0.048792515 0.10367797 0.0259656
0.05105909 0.03288902 -0.00015724255 0.013869366 -0.0727779 0.020810636 0.08372324 -0.05852988
0.010505922 0.035863325 -0.02803388 0.014274155 -0.040225618 0.011080464 -0.016756399 0.027272524
-0.030352164 -0.07988891 0.057232447 -0.09179576 -0.051971994 -0.00924462 0.0143216895 -0.023322674
0.059754245 -0.0361908 0.047491934 -0.03250877 0.020833805 -0.023024937 -0.026490292 0.050470527
0.024310412 -0.023693623 0.04044909 -0.26990917 -0.14020896 -0.011678452 0.07172469 -0.041010674
-0.0419548 -0.116273254 -0.04942886 0.09565662 -0.034393772 0.0725463 0.0017923705 0.0013558926
0.015375654 0.08048439 0.010550041 -0.109559834 -0.046987876 -0.07285302 0.003781936 -0.007987446
-0.078111894 -0.094215594 0.061997496 -0.09177944 -0.019507099 -0.044694625 0.06824325 0.01437246
-0.043702234 0.037899457 -0.10807663 0.06846426 -0.08689065 -0.020071058 0.07294071 -0.04797644
-0.06388521 0.05469634 0.045414533 -0.044382274 -0.015491232 -0.042818088 -0.105287865 0.070066854
0.036638606 -0.059835725 0.02116823 -0.09959796 0.1801058 -0.070297055 -0.0045913947 -0.02005198
0.014245915 -0.09779975 0.065335326 -0.029554576 0.025675086 -0.04553338 0.016923985 0.032924134

model.4.bias f4 [4]
00000000: a1b1 fe3c 766c 2f3d 72cd e13c 7afe d8bc
0.03109056 0.042828046 0.027563784 -0.026488531
