models/metabolic_nn.pth (torch, 20817 bytes, 5 tensors)

model.0.weight f4 [64, 2]
00000000: 10f5 e2bd 1e80 57bc ff1a ef3e 412c f5be
00000010: e8b9 37bf 6e0d f23d b6d1 eebe 4093 ca3e
00000020: 9bb4 5fbe 2108 5bbe 43ee 2c3f dc6e e3be
00000030: 92f9 0cbe 2f5a e0be e23c 223f bda6 033e
00000040: 581f 123e a9e8 2e3f 7391 7cbe 4c40 243f
00000050: 3b61 1ebe 048c 593e a852 0e3f 1dbc dbbe
00000060: 87eb c93e a3d1 38bf 8fb7 403c 3976 a53e
00000070: 5529 0ebe 15e1 6ebe 6d77 ef3e fcd3 173f
00000080: 7a7e 15bf 0075 383e 688d 393f 50ff 263f
00000090: d7d1 da3d 314e 3abe 69a7 303f 8ec8 d43e
000000a0: e82a b93e 9c7f b33e 8070 32bc fc69 4abe
000000b0: ad83 17bf e4bb 10bf 4730 1e3f bf93 ba3c
000000c0: 1321 cf3e 1b02 853e 2c97 c23e 547e 3bbf
000000d0: 25be 85be 0d47 0ebf 7508 c63d c875 c73c
000000e0: 878d ea3e 9f9c d53e 506b 5e3e 805d 2ebf
000000f0: 34c6 083f 30b4 dabd 5d51 b03e 4456 283f
00000100: 33fb a83c b8ce 463b fa59 cd3e 5f65 113f
00000110: e528 313f 09ac 363f 0080 8bbd d73c 15bf
00000120: cbbf d63e 8a39 273e 426e e13e 6b4e 0c3e
00000130: b03f d1bd 6562 0c3f 47ae 2bbf a894 b6be
00000140: c859 453e 3951 9cbe cba5 d0be 5fb2 0d3e
00000150: b77e 13bf 9ced 0ebd 437b 35bf b1d3 2ebf
00000160: 8b4e 30bf 9119 a1be 0aa1 5ebe 59ba cbbe
00000170: 4929 783e 1bef 18bf ce52 06bf 810d 2c3c
00000180: c2b6 2fbe e9de f43e 102d 123f a061 a03d
00000190: dfcb 82be 0ba0 96be 9dbf 513e 116f 073f
000001a0: 5243 b3be efb4 223f 3442 bd3c 5944 a93e
000001b0: 698c e03e 50ec 0a3e 1dd9 033f bfb9 873e
000001c0: 302f 2c3e e141 b0be 5e85 2b3e 072e f53e
000001d0: c0f1 fb3d 89f9 f63e 8962 a8be 1fa6 2d3f
000001e0: a4bd ba3e ebd0 48be dc32 f6be b2fc 893d
000001f0: 2e73 9e3d 54f0 79be 456b 673b 4769 82be
-0.11081898 -0.013153104 0.46700284 -0.47885326 -0.71768045 0.11818968 -0.46644372 0.39565468
-0.2184624 -0.2138982 0.6755106 -0.44420516 -0.13767079 -0.43818805 0.6337415 0.12856574
0.14269769 0.6832376 -0.2466486 0.6416061 -0.15466778 0.21244818 0.55594873 -0.42916957
0.39437506 -0.7219488 0.011762514 0.3231676 -0.13882954 -0.2332805 0.46770802 0.5930784
-0.5839611 0.18013382 0.72481394 0.65233326 0.10684555 -0.1819389 0.6900545 0.4155926
0.36165547 0.35058296 -0.01089108 -0.19766992 -0.59185296 -0.565367 0.61792415 0.022775529
0.4045492 0.2597817 0.3800596 -0.73239636 -0.2612163 -0.55577165 0.09669582 0.024348155
0.45811102 0.41721055 0.21720624 -0.6811142 0.53427434 -0.10678899 0.34437075 0.6575663
0.020627594 0.0030335616 0.4010771 0.56795305 0.69203025 0.71356255 -0.068115234 -0.5829596
0.419432 0.16330543 0.44029433 0.13701789 -0.102172256 0.5483764 -0.670628 -0.3566029
0.1927253 -0.30530718 -0.4075149 0.13837574 -0.57615227 -0.03489457 -0.7089121 -0.68291765
-0.6886985 -0.31464818 -0.21741119 -0.3979061 0.24234499 -0.59739846 -0.524701 0.010501266
-0.1715956 0.47826317 0.5710001 0.078311205 -0.25546166 -0.29418978 0.20483251 0.5290385
-0.350123 0.6355733 0.023102857 0.33059958 0.43857124 0.13566709 0.51503164 0.265089
0.16814876 -0.34425262 0.16750094 0.4788668 0.123019695 0.48237255 -0.32887676 0.67831606
0.3647281 -0.19610946 -0.48085678 0.06737651 0.077368125 -0.24408084 0.003531174 -0.25470945

model.0.bias f4 [64]
00000000: 2686 eebe 1251 55be 4011 a3be 2698 d13d
00000010: 04a7 cfbe 738f 0f3f e6f0 253f 75f8 623e
00000020: b6d5 07bf f098 aa3c 538d e0be 492b 083f
00000030: c7ef 97bb 52f3 a03e 2676 2fbe d924 a6bc
00000040: 2c3b c03e e219 04be 4cae 6d3d 80f6 0dbf
00000050: b627 ac3e ceec 2c3f 2aba c43e 7ae4 0b3d
00000060: 5648 29bf 89d2 263f afca babe f757 a53e
00000070: a7b1 4cbe ee1e bbbd 892e 61be 44c1 24bf
00000080: 3386 21bf 050e af3e 2c41 f13e d7a4 f63d
00000090: 38ab 543e 9262 0e3d e6fc f4bd 627b e0bd
000000a0: 2b5e 75bd 65d8 b9be 0040 de3e 4a33 25be
000000b0: f601 60bc ba22 07bf e344 433e 3f7f 3f3c
000000c0: a1a5 d23d 93ab 57be c415 e4be 2689 173f
000000d0: 5b53 0a3e 88e4 a1bb 9922 ce3e 2b09 04be
000000e0: 13fe 21bd 298c 30bd 1064 333f fc08 973c
000000f0: b338 eebe 7ea9 c7be 562e 9a3d ac52 37be
-0.46586722 -0.20831707 -0.31849098 0.10234098 -0.4055711 0.5607826 0.64820707 0.22165091
-0.5306047 0.02082488 -0.43857822 0.5319105 -0.004636738 0.3143564 -0.17134914 -0.020281242
0.37545145 -0.12900499 0.05802755 -0.55454254 0.33624047 0.67548835 0.38423282 0.03415344
-0.66126 0.65165 -0.3648276 0.32293674 -0.19989644 -0.09136759 -0.21990408 -0.643574
-0.63095397 0.34190384 0.47120035 0.120431595 0.2076844 0.034761973 -0.11962299 -0.109610334
-0.05990426 -0.36297908 0.43408203 -0.16132846 -0.0136723425 -0.52787364 0.19069247 0.011688053
0.102854975 -0.21061544 -0.44547856 0.59193647 0.1350836 -0.004940573 0.4026077 -0.12894122
-0.039548945 -0.043102417 0.7007456 0.018436901 -0.46527633 -0.389965 0.07528369 -0.1790263

model.2.weight f4 [64, 64]
00000000: 08a0 e8bd a1fb 98bd ea78 66bb 0e69 3f3d
00000010: a740 c9bd 0fee 603d 2227 db3d 6a2b 74bd
00000020: 5e5a bf3d ae3d 723d eb7e b93d 3479 fa3d
00000030: 0c11 a4bd 4640 053e 342f 933d c518 a63d
00000040: 37e5 a23d d901 a2bb 7e1f b73d e28a c6bc
00000050: 9fcf f6bc f7de 3b3c 79ef ecbd e349 23bd
00000060: ccc5 db3d 0224 ac3b 801d 35bd 1a25 8bbd
00000070: 4fdc 173e dbf7 cbbd 8141 47bd 4a5d b63d
00000080: 06e6 f83d 4948 57bd 99ae 8c3d f39e a23d
00000090: cd9f 9ebd 4ae1 683d dc08 c739 9791 c8bb
000000a0: a208 c83d 5af1 aabd 682c a8bd 5db8 073d
000000b0: 3d97 29bd ba4f 9fbd cf6f b2bd 6317 203d
000000c0: f9d8 dbbd 5a9f 313c c57d 443d d487 4b3b
000000d0: 4f06 233c 8d7b 87bd f93a e83d 1485 57bd
000000e0: f459 c2bc 6557 193e f4ae f03d 71d2 09be
000000f0: 0183 38be a838 09be 84d3 07be 9822 7f3c
00000100: b823 f1bd f55f 0bbe 73cd 0dbe ebb0 fa3c
00000110: 508d 87bc ca93 fc3d aba2 863d 7167 dc3d
00000120: fc6f 4a3d 734b b83d 6e21 713d e124 f23d
00000130: 801f 2f3c 39ab 843c 8a0c c7bd 78c5 023e
00000140: 0a32 543d 460e 263d 6869 d7bb 693e 81bd
00000150: efd2 5ebd 4217 853d 6477 ec3b dd0f 0e3e
00000160: 737b b6bd 5a81 c13d 9e6c 12be 9c73 d13d
00000170: 12ab 823c 1269 a43c 4f5d f63d 3845 a83c
00000180: 96ca 993d 8ed2 373d 0d3d 0d3d 7d40 053d
00000190: 7e95 bd3d f9c0 a4bd f538 acbd d721 863d
000001a0: c09f 733d 0106 343c fa50 06be f58e 7ebd
000001b0: 2378 043d 7884 8f3d eef4 e6bd 62dd 02be
000001c0: 27d7 b83c c85d bebd 4998 4d3d 8163 fa3d
000001d0: ed6b d8bd a99a 423d 30d1 fb3d 9839 013e
000001e0: cc98 23be f08f a13c d42e f03c e621 853d
000001f0: a8e8 02be 0f56 51bd 6e63 0fbd 6983 2cbd
00000200: 50b1 6b3c 0dc9 433e b874 80bd 9250 f43d
00000210: 0afd 083e fdfe 703d f67d c8bd b65c db3c
00000220: 5e3a 1a3e c54a b83d 2924 c03d 9f00 c53d
00000230: 806c aebd 5716 023d c321 ac3d 1211 ac3d
00000240: ffb4 663d fce2 8c3d 472e 0d3e 797e edbd
00000250: c5d0 02be f1ed 94bd 9a6b cf3d 4584 24bd
00000260: 7edb 97bd 356d 0c3e 3a70 97bd 2eda 523d
00000270: ed4f c4bc 00aa 87bd 1b71 5e3d 7aa3 433d
00000280: 28cb f8bc b76d 18be a016 09be 7d68 c13d
00000290: 18a7 b73d b461 4fbd d82e 3ebd da3d 11bd
000002a0: d410 11bd 2532 4bbd e361 b13d 3d9b a73d
000002b0: 957a 653d be01 fc3d 96fb 093e dfee 983d
000002c0: 48d2 26bd 2b93 b3bc 3929 133e c907 793c
000002d0: 1c7e 923c b6c5 d43c ad1d bcbd 7bdc c2bd
000002e0: 0b53 373b 59c7 d3bd cb71 d23c 89e5 96bc
000002f0: 570b 523d abcd abbd 7297 093e 578f 96ba
00000300: c0ad 043d 1831 d3bd 18f7 f4bd a59f 2e3d
00000310: b65d d2bd ac62 e1bd 96f8 ebbd e9d6 ee3b
00000320: 8e35 f83c 6953 54bd 5b11 133d 9e38 e1bc
00000330: c0cf 04be b3a7 6abd c088 733c 1f7b 0bbe
00000340: 820a 64bc 9b60 04be 4215 a63c 20fe 4f3c
00000350: c03a aebc f0ec 56bc da86 f5bd 86c6 ec3d
00000360: 2af7 f1bd abd2 3abd dd68 b9bc c026 a33d
00000370: 3aa3 4abd 1cf8 e1bc 4e3e 9cbd ae2f 1bbd
00000380: b624 8ebd 8528 b53d 8b71 1fbd 3e50 62bd
00000390: 1f61 a23b 043e b8bb c534 09be 4c47 113d
000003a0: 253f 11bc 0d91 373d fd0c b03d 04fc d03d
000003b0: ecbe 47bd c335 adbd 2d4e 763d 23f4 c63d
000003c0: 4084 b63d e2c3 d2bd 834d acbd 6870 ffbd
000003d0: 975a 433d 2d3e b33d 2d21 04be b61e cbbd
000003e0: 9819 bcbd 9f85 f3bc c9fc 08bd bcc6 753c
000003f0: 0ea5 f13d 5b1d 07be d444 c3bc 9620 fcbd
-0.113586485 -0.074698694 -0.0035167285 0.046731047 -0.098267846 0.05491453 0.10700823 -0.059611715
0.09343408 0.059140854 0.09057411 0.12230149 -0.08011064 0.130128 0.07186738 0.08110193
0.079538755 -0.004944068 0.089415535 -0.024236146 -0.030128298 0.011466733 -0.11569113 -0.039865386
0.10731086 0.005253316 -0.044217587 -0.06794186 0.14830135 -0.09959384 -0.048646454 0.08904512
0.121532485 -0.05255917 0.06869239 0.079404734 -0.07745323 0.056855477 0.00037962839 -0.0061208713
0.097672716 -0.083468154 -0.08211595 0.033134807 -0.041403998 -0.077788785 -0.08712732 0.039084803
-0.107347436 0.010841215 0.047971506 0.0031056302 0.009950235 -0.06615362 0.11339373 -0.052617148
-0.023724534 0.14974745 0.1175212 -0.13459183 -0.18018724 -0.13400519 -0.1326428 0.015572213
-0.11774391 -0.13610823 -0.13847904 0.03060194 -0.016546875 0.12332876 0.06573995 0.107619174
0.049423203 0.08998766 0.05886977 0.1182344 0.0106886625 0.016194927 -0.097191885 0.12770641
0.051805533 0.040540956 -0.0065738447 -0.06310732 -0.05440038 0.06498577 0.007216381 0.13873239
-0.08910265 0.094485 -0.14299247 0.10227129 0.015950713 0.020069633 0.12029516 0.020540819
0.07509343 0.044878535 0.03448205 0.032532204 0.09257029 -0.08044619 -0.08409301 0.06549423
0.05947852 0.01098776 -0.13116828 -0.062148053 0.032341134 0.07007688 -0.112771854 -0.12779763
0.02256353 -0.09295231 0.05019406 0.1222601 -0.1056746 0.047510777 0.12295759 0.12619627
-0.15976256 0.019721955 0.029319204 0.06500606 -0.12784064 -0.051107462 -0.035006933 -0.04211751
0.014385536 0.19119664 -0.06272262 0.1192943 0.13377777 0.058836926 -0.0978965 0.026777606
0.15061328 0.08998636 0.09381897 0.09619259 -0.085167885 0.031759586 0.08404877 0.084016934
0.056324955 0.06879231 0.13787185 -0.11596388 -0.12774952 -0.07271946 0.10127945 -0.040165205
-0.07414912 0.13713534 -0.073944524 0.051477604 -0.023963893 -0.06624222 0.054307085 0.047763325
-0.03037031 -0.14885603 -0.13387537 0.09443758 0.089674175 -0.050630286 -0.046431392 -0.035459377
-0.03541644 -0.04960837 0.086612485 0.08183906 0.056025106 0.1230502 0.13474879 0.07467436
-0.040727884 -0.021920761 0.14371194 0.01519961 0.0178824 0.025973182 -0.09185348 -0.095147096
0.0027973081 -0.10340757 0.025689026 -0.018419998 0.051280346 -0.083888374 0.13436678 -0.001148681
0.032392263 -0.10312098 -0.11961192 0.042632718 -0.1027178 -0.11005148 -0.115220234 0.007288803
0.030298974 -0.05183736 0.035905223 -0.027492817 -0.12969875 -0.057288837 0.014864147 -0.13621186
-0.013918521 -0.12927477 0.020273808 0.012694865 -0.021268249 -0.013118014 -0.119886115 0.11561303
-0.11814721 -0.045611065 -0.02263301 0.07966375 -0.04947207 -0.027584128 -0.07629071 -0.037887268
-0.06940596 0.08845619 -0.038926642 -0.055252306 0.0049554254 -0.005622627 -0.13399036 0.035468385
-0.0088651525 0.044816066 0.08596227 0.10204318 -0.04876606 -0.0845752 0.060133148 0.09714534
0.089119434 -0.10291268 -0.08413222 -0.12472612 0.047693815 0.087520935 -0.1290328 -0.09917967
-0.09184569 -0.029726801 -0.0334442 0.015000995 0.1179906 -0.13194792 -0.02383653 -0.12310903

model.2.bias f4 [64]
00000000: bd22 bd3d f67f 9c3d 8dce 973d 34ce babc
00000010: 37ec d43d 77a3 153e 92d7 d8bd d597 163d
00000020: 3423 813d 796f b03c 1a25 ba3d c287 c3bc
00000030: 8e37 d93d 555a 473d f96e 8b3d 626c d53d
00000040: 22b3 3d3d 4a9c 65bb b5a7 bcb9 a3b0 853c
00000050: 9e33 e1bd 5e4b 0bbd 435f 43bd 219d 073e
00000060: d259 dbbc 911a 963d 722c d4bd 8a18 053d
00000070: c2cd 04be 4168 f53d dcca 94bd 634d 063e
00000080: 848b 2fbc 14f3 8cbb dabf 5cbc 900d ff3d
00000090: df2a ec3d 8068 2f3e d7b0 73bd 0db0 fbbc
000000a0: 5944 85bd 57a9 8b3d 99f4 92bd f6d7 15bd
000000b0: fde3 0b3d 73a2 63bd 7b34 1f3e 6c4f 5dbc
000000c0: 315d 003e 4934 773d 77a1 2ebd 2186 21bc
000000d0: 1e47 c63c bae3 cc3d c209 0c3e 3cc9 fcbd
000000e0: 60e0 f0bd d358 013d 2f3f ab3d 5bbf 913d
000000f0: f99b 7ebc ff51 ca3d f64a 993d e7dc a03d
0.092351414 0.07641594 0.07412443 -0.022803403 0.10396617 0.14613138 -0.10587992 0.036765892
0.063055426 0.02153753 0.09089108 -0.023868445 0.10606299 0.04867013 0.06808276 0.10421063
0.046313412 -0.0035035782 -0.00035983106 0.016319579 -0.10996173 -0.034007423 -0.04769827 0.13243534
-0.026776228 0.07329286 -0.1036004 0.032494105 -0.12969115 0.119827755 -0.07265255 0.13115458
-0.010714415 -0.004301438 -0.013473475 0.12453759 0.115316145 0.17129707 -0.05949482 -0.030723596
-0.06507177 0.068194084 -0.071755596 -0.03658291 0.034152973 -0.055574846 0.15547363 -0.013507705
0.1253555 0.060352597 -0.042634454 -0.009858639 0.024203833 0.10004373 0.13675597 -0.1234307
-0.11761546 0.03157885 0.08361661 0.07116576 -0.0155401165 0.09878921 0.07485001 0.07854634

model.4.weight f4 [1, 64]
00000000: 9f81 b53d 89e7 b43d c987 13be 19e8 a53d
00000010: 9c73 143e 48db a0bd e04b 03bd 77dc d53a
00000020: 1db1 933c ed9d 4bba ad4a b23d 35e4 1abd
00000030: 2d83 d0bd 0997 943d e3aa 98bd fe84 fb3d
00000040: cec2 1e3d 4e02 c63d f61f fcbd 3599 123d
00000050: 3e7f c3bd d454 0c3e f851 af3d 98d5 babd
00000060: 94b5 24bd 9453 ad3d e80c 56bd 05f7 0ebd
00000070: 2193 e5b9 1d68 18be ca58 fa3d d9fb 363d
00000080: 2377 12be 0814 0f3e 4815 423d e356 dbbd
00000090: 7b90 033e 724f 043e 1bd1 b8bd 3807 c3bd
000000a0: f8d7 873d af9d 82bd 705e 7f3b 4497 aebd
000000b0: 64d9 8cbd a5a7 1cbe e0ff 95bd 3e18 f4bd
000000c0: 3b18 b6bd fea9 d0bd 304b b73d 4e81 f6ba
000000d0: a0d1 6dbd a7a7 c93d a10e cb3d 0ce3 033d
000000e0: 0012 963b a127 e6bd 4a2d dbbd aa5c 84bd
000000f0: 449c ca3d 7005 b13d ae77 513d 16a9 153e
0.08862614 0.08833224 -0.14407267 0.0810091 0.14497226 -0.078543246 -0.032054782 0.0016316314
0.01802879 -0.0007767368 0.087056495 -0.03781529 -0.1018127 0.0725537 -0.07454469 0.122812256
0.03876 0.09668408 -0.123107836 0.03579064 -0.09545754 0.13704234 0.08560556 -0.09122771
-0.04021223 0.08463207 -0.052258402 -0.034903545 -0.00043787903 -0.14883466 0.122239664 0.044673774
-0.1430326 0.13972485 0.047383577 -0.10709932 0.12848084 0.12920931 -0.09024259 -0.09522861
0.0663299 -0.06377732 0.0038966201 -0.085249454 -0.068774015 -0.15298326 -0.07324195 -0.11918686
-0.0889134 -0.101886734 0.08949888 -0.0018806846 -0.058061242 0.0984643 0.099148996 0.03219895
0.0045797825 -0.11238027 -0.107019976 -0.06462987 0.098930866 0.08643615 0.051139526 0.14615282
