models/simple_metabolic_nn.pth (torch, 21413 bytes, 5 tensors)

model.0.weight f4 [64, 4]
-0.34910733 -0.22918145 0.40198144 0.52456844 0.27008367 0.33720088 -0.4488128 0.19672832
0.23283589 0.40153778 0.15789811 0.18882614 0.36107308 0.021891605 0.23929045 0.1741319
0.48980004 0.4202973 -0.4303389 -0.5841019 0.2541038 0.43089193 0.038811103 -0.29936963
0.23301001 0.4613878 0.10050272 0.35070723 0.5564998 -0.7790137 0.02991933 0.06263929
0.28410563 -0.072040364 0.14438856 -0.6024026 0.35308522 0.3510853 -0.48295552 0.079954535
0.087379076 0.36198783 0.06129518 -0.04439286 -0.41467145 0.19187361 0.13821672 -0.4518371
-0.40528786 -0.09466574 -0.5564457 -0.45783362 -0.18547091 -0.09519285 -0.5173725 -0.25719526
0.35992303 0.07293739 0.28332093 -0.14043294 0.086320244 -0.41460237 0.07027269 0.21324019
0.46212465 -0.27605984 0.17289126 -0.46541375 -0.4298784 0.50816655 0.27681884 -0.2777308
0.35157055 -0.0810751 -0.1056327 0.19637112 0.33147955 0.26922905 0.41575372 -0.27807403
0.409256 0.38217926 -0.27502352 0.124336496 0.13184342 -0.2501344 -0.59234256 0.15817727
0.4844753 0.40291923 0.45231274 0.49085426 0.38661802 0.09844518 -0.43126732 0.3604679
0.46059835 -0.009774042 0.3294723 0.4380779 -0.51865643 -0.43778932 0.3570685 0.114779346
0.002255465 0.024759559 -0.50803125 0.42084852 -0.32750127 -0.19043835 -0.34017512 -0.35592288
0.12932386 -0.15577939 0.34104156 -0.5407161 -0.44956586 0.45416373 -0.23478436 0.20199996
-0.3704819 -0.23657568 0.3157993 -0.50651765 -0.06964949 -0.42549184 -0.41787124 0.5242298
0.23219872 -0.113029644 0.045432407 -0.40456212 0.096488334 0.19891846 0.014435686 -0.48607954
-0.5263267 0.19296822 -0.18773645 0.27332482 -0.134499 -0.04945661 0.32176846 -0.012873907
-0.20023471 0.038755465 0.18579999 0.30152178 0.4863707 0.2183309 -0.417998 -0.42134908
0.065910466 0.53211 -0.11464296 -0.38230437 -0.27463338 -0.39679158 -0.41659665 0.34028593
0.4828604 -0.022692177 -0.46822476 0.11628783 -0.42134917 0.005001269 0.041070055 0.54764235
0.3322126 0.3519687 0.12529424 -0.043736834 -0.3754792 0.18306422 0.115869656 0.15087083
0.22277215 -0.061145846 -0.5346079 0.2983313 -0.0997777 -0.38751584 0.015039081 0.6546969
-0.08056526 -0.508618 0.44527674 0.004396823 -0.45720688 0.0732441 -0.033386454 -0.0029384454
0.33569854 0.114239745 -0.7149514 -0.05744443 -0.17770071 0.3996397 -0.025090488 0.40000215
-0.14276242 -0.17821534 -0.57426107 -0.24403241 0.24159455 0.18680482 0.011487739 0.02805985
0.40259656 -0.33606917 0.284873 0.10521334 0.15596393 -0.36056802 0.45736903 -0.102200545
0.1912496 -0.46316975 -0.3324313 0.44731295 0.3431485 0.07157586 0.35777807 0.11555889
-0.22228804 0.3736912 0.35002884 0.062448565 0.32836708 -0.15654035 0.48677456 0.38270822
-0.1242153 0.28635493 -0.58433264 0.36317015 -0.17703845 -0.23409419 0.3043872 -0.16023077
0.032416213 0.4900215 -0.011294205 -0.6084279 0.15357713 -0.53717077 0.38651058 -0.36983788
0.0152219795 -0.5194908 -0.15399066 -0.41152897 0.18853982 0.08157059 0.03516948 -0.49322128
00000000: 32be b2be 8bae 6abe 83d0 cd3e 1e4a 063f
00000010: 6848 8a3e 98a5 ac3e cbca e5be 2673 493e
00000020: 886c 6e3e 5c96 cd3e 0bb0 213e a45b 413e
00000030: 92de b83e 0656 b33c 8e08 753e a24f 323e
00000040: 12c7 fa3e 3531 d73e 6155 dcbe b487 15bf
00000050: e519 823e de9d dc3e 64f8 1e3d fa46 99be
00000060: 2d9a 6e3e 063b ec3e 5fd4 cd3d e68f b33e
00000070: c576 0e3f 716d 47bf 6219 f53c 0749 803d
00000080: 4b76 913e e689 93bd 98da 133e 0f37 1abf
00000090: 96c7 b43e 74c1 b33e f245 f7be 34bf a33d
000000a0: cdf3 b23d 7856 b93e a810 7b3d 4ad5 35bd
000000b0: d14f d4be 847a 443e af88 0d3e 3157 e7be
000000c0: e481 cfbe 1de0 c1bd 3a73 0ebf 2b69 eabe
000000d0: 16ec 3dbe 78f4 c2bd 8672 04bf 19af 83be
000000e0: d547 b83e 3360 953d 710f 913e a7cd 0fbe
000000f0: abc8 b03d c346 d4be 21eb 8f3d a35b 5a3e
00000100: 9a9b ec3e b757 8dbe 680a 313e b64a eebe
00000110: 0619 dcbe 3417 023f 33bb 8d3e bb32 8ebe
00000120: 0e01 b43e b40a a6bd f555 d8bd 8315 493e
00000130: b0b7 a93e 64d8 893e acdd d43e b85f 8ebe
00000140: 018a d13e 00ad c33e e2cf 8cbe 22a4 fe3d
00000150: f601 073e 9e11 80be c3a3 17bf 39f9 213e
00000160: 260d f83e 6e4b ce3e 8995 e73e 4051 fb3e
00000170: ccf2 c53e a09d c93d 12cf dcbe 408f b83e
00000180: 8cd3 eb3e 4e23 20bc 98b0 a83e bf4b e03e
00000190: abc6 04bf ec25 e0be afd1 b63e 6f11 eb3d
000001a0: 6cd0 133b 8fd4 ca3c 560e 02bf 7579 d73e
000001b0: 3fae a7be 4502 43be 6f2b aebe 863b b6be
000001c0: 796d 043e a284 1fbe 009d ae3e 5f6c 0abf
000001d0: 7f2d e6be 2688 e83e 506b 70be 14d9 4e3e
000001e0: ceaf bdbe e540 72be 72b0 a13e 24ab 01bf
000001f0: 64a4 8ebd 11da d9be 38f3 d5be ed33 063f
00000200: 80c5 6d3e 167c e7bd 5517 3a3d c422 cfbe
00000210: ad9b c53d 48b1 4b3e a883 6c3c 6bdf f8be
00000220: 59bd 06bf 7699 453e fc3d 40be 3bf1 8b3e
00000230: 1bba 09be 0493 4abd d6be a43e 14ed 52bc
00000240: 540a 4dbe 0dbe 1e3d 5a42 3e3e 1061 9a3e
00000250: 9505 f93e 2392 5f3e d503 d6be 11bb d7be
00000260: 11fc 863d 5c38 083f eec9 eabd 66bd c3be
00000270: bf9c 8cbe 4428 cbbe 284c d5be f539 ae3e
00000280: 7a39 f73e f2e4 b9bc 28bb efbe 5028 ee3d
00000290: 14bb d7be afe1 a33b 1339 283d 4a32 0c3f
000002a0: c517 aa3e 3e35 b43e 224d 003e 6525 33bd
000002b0: cf3e c0be 3075 3b3e 124d ed3d e27d 1a3e
000002c0: 621e 643e 1174 7abd 10dc 08bf e1be 983e
000002d0: 4058 ccbd 7a68 c6be 7a66 763c 379a 273f
000002e0: 66ff a4bd ca34 02bf 50fb e33e 3913 903b
000002f0: 0517 eabe 0101 963d 3cc0 08bd ef92 40bb
00000300: aee0 ab3e 87f6 e93d 0e07 37bf da4a 6bbd
00000310: 2df7 35be 939d cc3e 918a cdbc 15cd cc3e
00000320: 5030 12be 157e 36be c602 13bf a2e3 79be
00000330: 9064 773e c349 3f3e 1237 3c3c c5dd e53c
00000340: 2321 ce3e 4211 acbe e0da 913e 177a d73d
00000350: 02b5 1f3e 5f9c b8be 462c ea3e 854e d1bd
00000360: efd6 433e 9624 edbe 6f34 aabe 3406 e53e
00000370: 29b1 af3e 5d96 923d b02e b73e 24aa ec3d
00000380: 7a9f 63be 7454 bf3e fb36 b33e 11ca 7f3d
00000390: bb1f a83e 1d4c 20be 843a f93e 55f2 c33e
000003a0: 9764 febd 1d9d 923e d396 15bf 70f1 b93e
000003b0: 9149 35be 63b6 6fbe a4d8 9b3e 8913 24be
000003c0: ddc6 043d 19e4 fa3e 540b 39bc eec1 1bbf
000003d0: 5343 1d3e 0684 09bf b7e4 c53e 645b bdbe
000003e0: 9c65 793c 59fd 04bf baaf 1dbe edb3 d2be
000003f0: 9510 413e 7b0e a73d df0d 103d 8087 fcbe

model.0.bias f4 [64]
0.13791603 -0.120697536 -0.025898593 0.36045966 -0.5565169 -0.11981449 -0.035896078 -0.08343206
-0.071730785 0.41715497 -0.016392516 -0.101890795 -0.34893098 0.3537258 -0.4182012 -0.3574249
-0.07611505 0.4648588 0.55555123 0.2957932 0.5524971 -0.02473258 -0.31209764 -0.4821997
-0.015424348 -0.34631145 -0.09091394 0.26509658 -0.07260689 -0.04469927 -0.04181403 0.6186984
0.37718564 -0.42423368 -0.3150288 0.36807862 0.6254234 0.059712958 0.47028002 0.07239179
0.39084557 0.37688348 -0.16755043 -0.079775006 -0.082876615 0.42178434 -0.27206278 -0.50236374
-0.13581042 -0.24104397 0.2504431 0.34557825 0.4154413 0.47387248 -0.10313551 0.03861754
0.5699823 -0.29352215 -0.5823035 0.48527208 -0.18483624 0.61557746 -0.2328413 -0.51054317
00000000: dc39 0d3e 4530 f7bd 4929 d4bc 2b8e b83e
00000010: e477 0ebf 4d61 f5bd c407 13bd 6ede aabd
00000020: 97e7 92bd 5695 d53e 9949 86bc 1fac d0bd
00000030: 15a7 b2be 8c1b b53e 781e d6be 6600 b7be
00000040: 35e2 9bbd f901 ee3e 9b38 0e3f 3572 973e
00000050: 7370 0d3f fb9b cabc 43cb 9fbe e1e2 f6be
00000060: 68b6 7cbc bc4f b1be 1631 babd bdba 873e
00000070: ecb2 94bd 9516 37bd 3045 2bbd 0563 1e3f
00000080: 7a1e c13e 2835 d9be 744b a1be cd74 bc3e
00000090: bf1b 203f 9395 743d 8bc8 f03e 2642 943d
000000a0: e91c c83e dff6 c03e 5792 2bbe 1461 a3bd
000000b0: 37bb a9bd 1ef4 d73e d04b 8bbe e99a 00bf
000000c0: e311 0bbe 3bd4 76be 143a 803e a2ef b03e
000000d0: b9b4 d43e 6a9f f23e b638 d3bd 6d2d 1e3d
000000e0: 5cea 113f 8948 96be d811 15bf 9575 f83e
000000f0: b645 3dbe 7c96 1d3f f36d 6ebe f5b2 02bf

model.2.weight f4 [64, 64]
-0.010880411 0.022520661 -0.07820743 0.00026224554 -0.11133416 0.08910701 0.03930606 -0.088083774
-0.028116077 -0.081377596 0.081993 -0.06847574 -0.042802885 -0.08253001 -0.07154861 -0.049234092
-0.015113369 0.021132857 0.10766892 0.03476174 0.017477289 -0.05010058 0.050341338 -0.09946804
-0.05287601 0.0022809058 0.051620856 0.009413645 -0.097850904 -0.044904456 0.010758355 -0.063941345
-0.066031694 -0.05855301 -0.0803632 -0.052651748 -0.104692295 0.04482837 0.042126283 0.055291876
-0.10823466 -0.12006797 -0.11641504 0.071837574 -0.096385375 0.108843714 -0.102370724 -0.028305113
0.048467427 0.054233283 -0.04095164 -0.042069137 0.03333053 -0.093477935 -0.10230936 0.06679864
0.02033177 0.038475424 0.009576932 -0.08816439 0.096974075 -0.040356085 -0.11719474 0.08370362
-0.018616274 -0.048636705 0.072875515 -0.00031681376 0.0028165963 -0.08752432 -0.11303248 0.12195468
-0.023980485 0.0011763202 -0.109440185 -0.077689305 -0.007028368 0.13012736 0.029087897 0.24198362
-0.04594214 -0.14168452 -0.17746343 -0.06466576 0.05304827 0.05480864 0.080598876 0.018803397
-0.0109862 0.13873807 0.067438856 -0.017698638 0.044938367 0.10686348 0.010883449 -0.0044976384
-0.17039286 -0.053566415 0.057909086 0.07418821 0.01819448 0.027904004 0.008699252 0.037721485
0.0054401085 -0.16257805 -0.08689204 -0.05911077 -0.16411476 0.073022686 0.31444877 0.11321944
0.130008 0.09142261 0.0986459 0.028888136 0.061368626 0.014320311 0.1095468 -0.009362545
-0.16293262 -0.120275274 0.20361759 -0.018830659 0.030914987 -0.02961717 0.18779698 -0.4427372
-0.045494583 0.08521833 0.11474546 0.04498144 -0.050863937 0.0004961679 0.09868271 0.02838353
0.21157499 0.06358006 0.11308204 0.078637965 -0.061273642 0.003274915 -0.055678878 -0.0126884775
0.103977054 0.11231489 -0.028387893 0.04177025 0.16512445 0.05685973 0.14950922 -0.02214885
-0.04975316 -0.07098468 -0.03594647 -0.14004199 -0.050336227 -0.025083518 -0.07710073 0.007307608
0.17196853 -0.09342823 -0.09393845 0.10994562 0.10759793 -0.061975166 0.09645568 -0.0026869979
0.1359081 0.03754037 0.08466668 -0.110316135 -0.008657985 -0.03241268 0.040506933 -0.039197024
-0.080189876 0.11717897 -0.060223725 0.14121896 -0.059946038 0.19400144 0.04551589 0.0074571096
0.00958045 0.096888356 -0.09069415 -0.11707788 -0.037189756 0.08307655 -0.08526625 -0.37696055
-0.023754837 0.10965974 -0.0402424 0.10973054 -0.013409892 0.020485975 -0.062740296 0.02447142
0.30079782 0.14332832 0.16552255 0.055705696 -0.09370139 -0.04613492 0.14110473 -0.049918722
-0.046707127 0.11884128 0.17713605 -0.042935237 0.1831308 -0.1466061 0.0007577933 0.055418156
-0.028739078 -0.09571899 -0.16435097 -0.11344708 0.07784244 0.089270815 -0.15335533 -0.10556803
0.15918823 -0.11474891 -0.112666704 0.09910563 0.16046226 0.091066204 0.15207556 0.035937965
0.15225294 0.014792712 0.05585032 0.07071348 -0.045610897 0.08281008 0.058136586 -0.11972805
0.08010118 -0.05843992 -0.11235051 0.050007075 0.07878354 0.13268352 -0.091559894 0.11113055
0.20665157 0.13318093 0.027170904 0.07339162 -0.11357751 0.15499394 0.043035366 -0.26999626
00000000: c043 32bc 407d b83c 382b a0bd 007e 8939
00000010: 2a03 e4bd bc7d b63d 64ff 203d 4465 b4bd
00000020: b053 e6bc 4ca9 a6bd f2eb a73d 023d 8cbd
00000030: 1452 2fbd 7e05 a9bd 1488 92bd b0a9 49bd
00000040: 109e 77bc d01e ad3c 8681 dc3d 5462 0e3d
00000050: 882c 8f3c 4436 4dbd b832 4e3d e6b5 cbbd
00000060: 8494 58bd 407b 153b 6470 533d b03b 1a3c
00000070: 0e66 c8bd bced 37bd d043 303c aef3 82bd
00000080: a03b 87bd 48d5 6fbd 7695 a4bd 5ca9 57bd
00000090: ea68 d6bd f49d 373d 9c8c 2c3d bc79 623d
000000a0: 22aa ddbd 32e6 f5bd 026b eebd 941f 933d
000000b0: b265 c5bd 74e9 de3d bea7 d1bd 20e0 e7bc
000000c0: c885 463d b823 5e3d e8bc 27bd b050 2cbd
000000d0: 9885 083d 5c71 bfbd 9287 d1bd bacd 883d
000000e0: d08e a63c 6898 1d3d 90e8 1c3c 888f b4bd
000000f0: 589a c63d 6c4c 25bd cc03 f0bd ce6c ab3d
00000100: 2881 98bc 4837 47bd c23f 953d 061a a6b9
00000110: a596 383b f33f b3bd 937d e7bd 60c3 f93d
00000120: b972 c4bc c22e 9a3a 2d22 e0bd 921b 9fbd
00000130: 394e e6bb 1b40 053e be49 ee3c 8eca 773e
00000140: d32d 3cbd bf15 11be f9b8 35be 7b6f 84bd
00000150: 2549 593d 067f 603d 0611 a53d 9509 9a3c
00000160: 76ff 33bc 5a11 0e3e 621d 8a3d bcfc 90bc
00000170: 4b11 383d 3ddb da3d 7e50 323c ed60 93bb
00000180: 777b 2ebe 7568 5bbd 1432 6d3d fdef 973d
00000190: 970c 953c f096 e43c 4f87 0e3c d881 1a3d
000001a0: f042 b23b dc7a 26be 74f4 b1bd 221e 72bd
000001b0: b30d 28be eb8c 953d 6eff a03e 98df e73d
000001c0: d120 053e c73b bb3d dd06 ca3d d0a6 ec3c
000001d0: ab5d 7b3d bd9f 6a3c 135a e03d 5c65 19bc
000001e0: cfd7 26be e252 f6bd 2181 503e c142 9abc
000001f0: 6d41 fd3c b59f f2bc da4d 403e 73ae e2be
00000200: 8758 3abd f386 ae3d abff ea3d 753e 383d
00000210: b456 50bd 4411 023a 291a ca3d 9484 e83c
00000220: 1da7 583e 4336 823d 8e97 e73d f10c a13d
00000230: 12fa 7abd f59f 563b 890f 64bd 55e3 4fbc
00000240: ecf1 d43d 5905 e63d ba8d e8bc 4817 2b3d
00000250: 6216 293e c0e5 683d f218 193e 8171 b5bc
00000260: f8c9 4bbd 6a60 91bd 9b3c 13bd 2b67 0fbe
00000270: 5c2d 4ebd f37b cdbc fde6 9dbd a974 ef3b
00000280: 8518 303e 4d57 bfbd cd62 c0bd 2b2b e13d
00000290: 4e5c dc3d acd9 7dbd 8e8a c53d 5818 30bb
000002a0: 7e2b 0b3e eec3 193d b965 ad3d 6ded e1bd
000002b0: 39da 0dbc 29c3 04bd 99ea 253d 0f8d 20bd
000002c0: 973a a4bd 87fb ef3d 27ad 76bd b49b 103e
000002d0: fa89 75bd 50a8 463e df6e 3a3d c55a f43b
000002e0: 52f7 1c3c 676d c63d dbbd b9bd 87c6 efbd
000002f0: 4954 18bd 0a24 aa3d 12a0 aebd f900 c1be
00000300: 8199 c2bc 4995 e03d 37d5 24bd 68ba e03d
00000310: 2ab5 5bbc 34d2 a73c fc7d 80bd 4a78 c83c
00000320: 2c02 9a3e a9c4 123e be7e 293e a82b 643d
00000330: 84e6 bfbd f8f7 3cbd c27d 103e 9377 4cbd
00000340: f94f 3fbd 0f63 f33d 2763 353e dcdc 2fbd
00000350: a486 3b3e e91f 16be a6a6 463a 26fe 623d
00000360: 376e ebbc 5108 c4bd 9f4b 28be f156 e8bd
00000370: db6b 9f3d 9ed3 b63d 2e09 1dbe 0d34 d8bd
00000380: 3d02 233e 7a01 ebbd cdbd e6bd e4f7 ca3d
00000390: 3850 243e eb80 ba3d b2b9 1b3e b033 133d
000003a0: 32e8 1b3e 225d 723c 4ec3 643d 3bd2 903d
000003b0: 7ed2 3abd 5598 a93d a120 6e3d fb33 f5bd
000003c0: 160c a43d b35e 6fbd 0618 e6bd 38d4 4c3d
000003d0: 4459 a13d 30de 073e c183 bbbd 6a98 e33d
000003e0: 789c 533e 9560 083e 8495 de3c 584e 963d
000003f0: 539b e8bd bbb6 1e3e da45 303d f33c 8abe

model.2.bias f4 [64]
-0.10585728 -0.23560281 0.16536027 0.1005843 -0.21687204 -0.07198191 -0.051700223 -0.113038264
-0.06933028 0.019534433 -0.018865738 -0.032620657 -0.0908461 -0.044339944 0.14018418 -0.05905818
0.089048706 -0.025170347 -0.09257621 0.23800695 -0.022355102 -0.0257497 -0.0037268659 -0.2331625
-0.08187908 -0.093274765 -0.04512996 -0.08117423 0.0038788565 0.14913826 0.1879021 0.16886468
0.022072894 -0.10547933 0.02976941 -0.07018745 0.07739506 -0.16351068 0.0058311075 -0.058191787
0.04782906 0.1020588 -0.10050072 -0.03290187 -0.055504493 -0.008492632 0.09111392 0.074801415
0.049952786 0.042406224 -0.12251612 0.08883839 -0.23487386 0.081967264 -0.072767206 0.12190798
-0.023184856 -0.02768808 -0.18920307 0.017217152 0.12786077 -0.00046584755 -0.049090374 0.084331505
00000000: b4cb d8bd dd41 71be 3454 293e 24ff cd3d
00000010: b413 5ebe 406b 93bd 9dc3 53bd 9b80 e7bd
00000020: 09fd 8dbd ad06 a03c 528c 9abc 3d9d 05bd
00000030: 850d babd cd9d 35bd 718c 0f3e fde6 71bd
00000040: 2b5f b63d 0b32 cebc 9998 bdbd 18b8 733e
00000050: 0c22 b7bc 09f1 d2bc 6f3e 74bb 27c2 6ebe
00000060: 38b0 a7bd d706 bfbd 31da 38bd ad3e a6bd
00000070: 6a34 7e3b b3b7 183e 6869 403e ddea 2c3e
00000080: 37d2 b43c 8c05 d8bd fade f33c 70be 8fbd
00000090: 4d81 9e3d 586f 27be e012 bf3b 835a 6ebd
000000a0: 68e8 433d 3404 d13d 52d3 cdbd 1cc4 06bd
000000b0: ae58 63bd ae24 0bbc ef99 ba3d 7c31 993d
000000c0: 4b9b 4c3d 26b2 2d3d bbe9 fabd e7f0 b53d
000000d0: c682 70be 74de a73d f906 95bd e4aa f93d
000000e0: 2bee bdbc 1dd2 e2bc 73be 41be fc0a 8d3c
000000f0: efed 023e 003d f4b9 fd12 49bd ffb5 ac3d

model.4.weight f4 [1, 64]
0.042486995 -0.14653072 0.119357735 0.09238876 -0.1419463 0.093920216 0.00051131507 -0.1388876
-0.09979411 -0.08748557 -0.06158611 -0.24317992 -0.11129776 -0.09535986 0.35546866 0.10130796
-0.1664301 0.12804249 -0.08011788 0.073940255 -0.15751962 0.088018276 0.17647803 -0.38058242
-0.09462729 0.00067034946 -0.14760275 -0.11635909 -0.1281205 0.11445162 0.20901118 0.18804125
0.10849714 -0.21396427 0.12629381 0.047896266 -0.17202275 -0.17645593 -0.29738322 -0.23574048
-0.27782467 0.09138568 0.052686766 -0.09236622 0.11876829 -0.1475777 0.15627703 -0.14075957
-0.02995025 0.15715952 -0.012423369 -0.15892823 -0.085263856 0.095751725 -0.13967429 0.09718781
0.16004333 0.11968499 -0.110699356 -0.2504126 -0.21610405 -0.008965055 -0.025401644 0.16375174
00000000: d806 2e3d 260c 16be d471 f43d 5136 bd3d
00000010: 5f5a 11be 3e59 c03d c609 063a 8d38 0ebe
00000020: db60 ccbd a22b b3bd b841 7cbd 2804 79be
00000030: 14f0 e3bd 084c c3bd fdff b53e 8c7a cf3d
00000040: a76c 2abe 921d 033e d814 a4bd fd6d 973d
00000050: d34c 21be ed42 b43d a8b6 343e b3db c2be
00000060: f4cb c1bd 64ba 2f3a 2d25 17be ad4d eebd
00000070: 0532 03be 9c65 ea3d 0707 563e e38d 403e
00000080: c033 de3d 7319 5bbe 2a53 013e e02e 443d
00000090: bb26 30be ddb0 34be 9d42 98be f465 71be
000000a0: 093f 8ebe 6a28 bb3d 14ce 573d 802a bdbd
000000b0: ca3c f33d 9c1e 17be 1607 203e 4723 10be
000000c0: 3a5a f5bc 6dee 203e 638b 4bbc 15be 22be
000000d0: d19e aebd 7b19 c43d c706 0fbe 670a c73d
000000e0: 66e2 233e 671d f53d 58b6 e2bd 1536 80be
000000f0: 614a 5dbe 2be2 12bc 1c17 d0bc 89ae 273e
